result/2robots_2000_hose/il_model.pth (torch, 392547 bytes, 20 tensors)

mlp1.0.weight f4 [150, 13]
00000000: f4b7 383d ef80 5f3e 8663 16bd 9e0a 30bc
00000010: cbfb 3abc 62ed 37be 6b59 093d d4c5 933e
00000020: cfd8 b53d 2912 a23d ac94 fd3d c38f cfbd
00000030: ee62 773e 827f db3d 40c9 103d d658 1a3e
00000040: be3f 863e 0e4b 82be 1e9f 1bbe 30d3 8abd
00000050: d63a 943e 4597 93b9 1f9b 94be b95e 0abc
00000060: a200 adbd 0958 403e f9af 48bc 6c02 893e
00000070: 9777 743e 8fdd 463e 70dc 82bd 3b5c 8c3e
00000080: d0b6 7dbd c1e4 33be 81c5 07be b473 ef3d
00000090: 012e e0bd 654d 853d 3e95 85be 032e 85be
000000a0: bc12 033e a293 c7bd dd19 463d e640 30bd
000000b0: c44b e5bd e46a 8dbe be02 053e 64f9 3cbe
000000c0: b702 3e3d ca5d 563d 627c bdbd f4e7 a8bd
000000d0: 3d10 3d3e 99c4 6cbe ad6a eabd 86fc 803e
000000e0: 0204 313e 6b1b c13d 142f 023e e59b 5abe
000000f0: a3a1 9eb9 0e19 853d 8634 9ebd ef4f 1b3e
00000100: aab0 8c3e 0694 64be 68b2 58be ba1e ebbd
00000110: 7904 563e f543 a3bd f370 8dbe 332d 793d
00000120: de64 593e baf5 e33c f623 2b3e 5c96 073e
00000130: c1b7 833e a875 7cbe 382f fbbc 14d5 43bd
00000140: 2fc5 8d3d d3e3 b03d 116b 4a3e 253f b7bd
00000150: ba4f 173e 6318 9b3d bff9 2a3d 939e 2b3e
00000160: a593 75bd f0ee 823e 4b35 79be ca28 9b3d
00000170: 1d92 44bd c49a 7cbe 93e9 013e 1458 91be
00000180: 25cf 01be cd66 453e 9510 a53c 0bdb 7c3e
00000190: 9e97 48be 6bad 6f3e ba38 febc 51c3 303e
000001a0: d204 303c b1b4 a2bd 51fe efbb 671d 223e
000001b0: 1199 233e 2f48 44be ef85 36bd b95e bcbd
000001c0: c4c9 65be 48b2 7ebd 01e1 d43c 250c 38be
000001d0: ba76 74be 0145 443d 35c0 43bb a753 20bd
000001e0: a5ec 783e 825a 7dbe 7fb1 88be a62c 313d
000001f0: 471d 6f3d 5bd9 0abd 0950 c7bd 10eb ac3c
00000200: 50e6 8fbe 5864 883e 3d2c 7c3c 22a8 d3bd
00000210: bd2b 3abe 2e33 4f3e 76a9 dfbd bc75 1cbd
00000220: f27a 48bc 542d 75be a578 143c 7b02 713e
00000230: 5d4c 1cbe be6a 52be a440 e23d 605c 12be
00000240: dc07 91be 790e edbd 0414 883d 8356 723e
00000250: bdc6 5bbe 86a5 d03c 1478 fd3d 6c41 323e
00000260: 0dc1 533d 15fa 6ebd 78ee 333e 52b2 53be
00000270: 5fd8 ea3d 7539 98bd 2052 0fbd 9ab7 453e
00000280: 38a0 1d3d 4e49 a7bd 9031 cebd 9fa0 423e
00000290: 72e7 853e 2938 1cbe 0fdc a7bd 2331 f23d
000002a0: ac65 0e3e 82d3 243e a2f1 8dbd 1454 b9bd
000002b0: b685 2abe d474 6e3d 7435 7bbc 202c 72be
000002c0: 3c68 0cbe ee9c 74be 4e55 973e 5b2d 80bd
000002d0: fa27 4d3e e697 17be 0e0b 113e 2382 8dbd
000002e0: 85c6 413e 11f9 533e 7049 043d 9923 b5bd
000002f0: 02c8 363e 3b7e 18bd a96b 9d3d 5498 7c3e
00000300: b034 943d 666c 2c3d f593 883c d513 463e
00000310: 6198 6ebe fc8b 173e 821a fdbd 5656 eebd
00000320: 576c 8cbe d988 9dbd 809e 8cbd 3055 82be
00000330: 9906 813e 6c42 52be 7b72 09bd 20ef b4bc
00000340: d157 74be a085 ce3d 5fcf 27be ef5c 88bd
00000350: dfce e33d f1fd 00bd 8f84 ef3c bab8 2e3e
00000360: 1328 543e a972 c3bd eebd b3bc 84e4 893e
00000370: 1ea5 fb3d 183e a5bc e40c 2cbe 2518 67be
00000380: 743b 1f3e e5f6 723e 9786 96be 4118 083e
00000390: acdc 833e a9d2 20be c441 dabd 730c 28be
000003a0: f499 5d3e 070a 573d 8cb3 b2bb 66f1 c03d
000003b0: ad8f 80be f842 283e 389e 80bd 90a9 403d
000003c0: 12bc 5ebc 8846 89be a1a8 71be 7094 143e
000003d0: 5277 e83d e696 06be 0245 a33c b206 a03d
000003e0: 1d19 0c3e 0552 21bd c02a f2bd 69ce 083e
000003f0: 1990 49bd 993b c53d 943c 44be f302 92be
0.045097306 0.21826528 -0.036716007 -0.010744719 -0.011412571 -0.17961648 0.03353254 0.28861868
0.088792436 0.0791362 0.123818725 -0.10134842 0.24158832 0.107176796 0.035348177 0.1507295
0.26220506 -0.25447887 -0.15197417 -0.06778562 0.28951138 -0.0002815073 -0.29024598 -0.008445435
-0.08447386 0.18783583 -0.012248986 0.2675966 0.23873745 0.19420455 -0.06389701 0.27414116
-0.06194192 -0.17567731 -0.13258936 0.116919905 -0.109462745 0.065089025 -0.26090425 -0.26011667
0.12800115 -0.097449556 0.04836451 -0.043030642 -0.11196092 -0.27620614 0.12989327 -0.1845451
0.046389308 0.052335538 -0.0925224 -0.082473665 0.18463226 -0.23121871 -0.11446128 0.2519266
0.17286685 0.09429058 0.12713271 -0.21348532 -0.00030256537 0.064989194 -0.07724862 0.15167211
0.27478534 -0.22322091 -0.21161807 -0.1148047 0.20900144 -0.07971946 -0.27625236 0.06083412
0.21229884 0.027827132 0.16712937 0.13240951 0.2572613 -0.24654257 -0.030662164 -0.04781063
0.069223754 0.08637204 0.19767405 -0.08947591 0.14776507 0.07573011 0.041742083 0.1675971
-0.059955258 0.2557292 -0.24336736 0.07576139 -0.047990907 -0.24668413 0.12686758 -0.2838751
-0.12676676 0.19277497 0.020149508 0.24692933 -0.19589087 0.23405997 -0.031032909 0.17262007
0.010743337 -0.079446204 -0.007324018 0.15831529 0.15976359 -0.19168161 -0.044561323 -0.091977544
-0.22440249 -0.06218174 0.025986196 -0.17973383 -0.23873416 0.04791737 -0.0029869203 -0.039142277
0.24309023 -0.24741557 -0.2669792 0.04325547 0.05837753 -0.033898693 -0.09732062 0.02110818
-0.28105402 0.26639056 0.015391407 -0.10334803 -0.18180747 0.20234367 -0.10920994 -0.038198218
-0.012236344 -0.23943073 0.009061967 0.23536102 -0.15263505 -0.20548531 0.110474855 -0.14293051
-0.2832631 -0.11575026 0.06644443 0.23665814 -0.21462531 0.025469553 0.12376419 0.17407769
0.05169778 -0.058343966 0.17571437 -0.20673493 0.11467051 -0.07432834 -0.03499043 0.1930832
0.038482875 -0.08168279 -0.10068047 0.19006585 0.2615314 -0.15255798 -0.0819627 0.11825778
0.13905972 0.16096309 -0.069308534 -0.0904924 -0.16652569 0.058216885 -0.015332568 -0.23649645
-0.13711637 -0.23887989 0.2955727 -0.06258651 0.20034781 -0.14804038 0.14164373 -0.06909587
0.18923385 0.2070048 0.032296598 -0.0884468 0.17849734 -0.037229758 0.0768655 0.24667484
0.07236612 0.042095564 0.016672114 0.19343503 -0.23300315 0.14799494 -0.123585716 -0.11637561
-0.27426407 -0.07692117 -0.06866169 -0.25455618 0.25200346 -0.2053315 -0.033556443 -0.02208668
-0.23861624 0.10084081 -0.163877 -0.06658351 0.11123442 -0.031492177 0.029238014 0.17062655
0.20718412 -0.09543354 -0.021941151 0.26932156 0.12287353 -0.02017121 -0.16801792 -0.22567804
0.15550023 0.23726995 -0.2939956 0.13290502 0.25754297 -0.1570536 -0.10657075 -0.16410999
0.2164076 0.052499797 -0.0054535326 0.09421043 -0.25109616 0.16431797 -0.06280178 0.047036707
-0.013594644 -0.26811624 -0.23599483 0.1450975 0.113508835 -0.131435 0.019930366 0.07813777
0.13681455 -0.03938486 -0.1182456 0.13359989 -0.049209688 0.09630508 -0.19163734 -0.28517875

mlp1.0.bias f4 [150]
00000000: da8f 7fbe 6566 f73c c5c4 5bbd 914c bc3d
00000010: b03c febd 0d81 8cbe 467f a5bc cd11 633e
00000020: fd93 ca3c 8cfc 5d3e b63b 2bbe d914 8cbd
00000030: 1a86 29be fe89 3b3e eb0f 9bbc 9305 2d3e
00000040: 211e 5f3e 6b09 093e 7120 703e 8c45 d43d
00000050: b668 bebd 2f79 6e3e 9f6d db3d 0b2e 553e
00000060: 9afd 8ebe d164 993e 2a30 82be d7bb 80be
00000070: 67a7 c53d 5fdd 5f3e c9a0 0bbd 4448 e73d
00000080: 9cae 26be 53a6 3a3e 08ce cebd c8ac 66be
00000090: 9afd 6abd 63c4 c4bc 920b 6c3e 5bf0 603d
000000a0: e48b 303e 16d4 393d 0659 5d3e 7ce0 f5ba
000000b0: 513a 2d3e 8849 ffbd 46b3 303e c007 8f3d
000000c0: 3dc7 503e a714 0bbe 43b2 7d3e 82ef 173d
000000d0: 374b 0e3e 4a65 703e 2931 2d3e cdd8 2bbc
000000e0: b7d6 0bbe 6de6 983d 91d4 813d c06a 373d
000000f0: 5422 59bd 0bf6 243e 85a9 0e3a 167f 69be
00000100: 66b6 07bd 029c 913e 2522 573e 66e5 433e
00000110: 75e9 553e cacd c0bd 8407 10be d4c7 3ebe
00000120: d7ed 88be 02d7 8abe 26b9 58bd 63bd 423e
00000130: bafb bb3d 17a9 63be b10f 74be 8e63 3b3e
00000140: 8456 3e3e 309d 133d 78ff 363e 501b ecbc
00000150: dbf0 64be de0f 4bbe 73f2 68be 05a8 89be
00000160: 33ea 1f3e 7f42 e13d b290 ab3d e703 5abd
00000170: f9a0 73bd 6119 c5bd c4ef 003e c0d3 1abe
00000180: 3d2b 13bc db88 36be 5a17 873e 1ee5 48be
00000190: 232b a03d 9225 72be 9eb4 3d3e 5611 b43d
000001a0: 01a9 5d3e 4035 d2bc 744b 7d3e 08d8 82be
000001b0: dd22 eebc 37b8 23be 003e 70be f478 17be
000001c0: 222f c0bd b59c bc3d dea6 64be 9af3 ae3c
000001d0: 75ab 2dbd c494 2fbe c875 63be 8536 623d
000001e0: 4da0 79be 4ab3 88be 1213 733e 32e4 963d
000001f0: 19d5 753d d767 60be 1cc4 313e 284e 943e
00000200: 00ae 16bd a881 413e 81ce 0e3e 06fe ce3c
00000210: e405 7c3e d273 7abd 9ca5 343e 4db7 2f3e
00000220: 6eea 8b3d 29ce 4a3e 031d 44be 0b28 86be
00000230: 02d2 1cbe aa8d b2bd 38e3 0cbe 896d 163e
00000240: 6958 05bd cef9 283d 9d06 28be 9e33 3abe
00000250: f3e0 d8bd b3f3 503d
-0.24957219 0.030200193 -0.05365445 0.091942914 -0.12413919 -0.27442208 -0.02020229 0.22174759
0.02472877 0.2167837 -0.16721997 -0.06839914 -0.16555062 0.18314359 -0.018928489 0.16896658
0.21788837 0.13382499 0.23449875 0.103648275 -0.09297316 0.23288415 0.10714268 0.20818345
-0.27927858 0.2995973 -0.2542737 -0.2514331 0.0965107 0.2186179 -0.034088884 0.112930804
-0.16277546 0.1822751 -0.10097891 -0.22526848 -0.05737076 -0.024019426 0.23051289 0.05491672
0.17240864 0.045368277 0.21615991 -0.0018758918 0.16916777 -0.12465197 0.17255887 0.069839
0.20388503 -0.13582097 0.24775033 0.037093647 0.1389588 0.23476139 0.16913284 -0.010488701
-0.13656126 0.07465825 0.06339372 0.04477954 -0.053011253 0.16109483 0.00054421305 -0.22802386
-0.033132933 0.28439337 0.21009119 0.19130477 0.20889838 -0.09414251 -0.14065367 -0.18630916
-0.26743957 -0.27117163 -0.052910946 0.19017558 0.091788724 -0.22232471 -0.23834111 0.18299696
0.1858769 0.036038578 0.17870891 -0.028821617 -0.22357504 -0.19830272 -0.22748737 -0.26886
0.15616684 0.10999011 0.08377208 -0.053226378 -0.059479687 -0.09623981 0.12591463 -0.15119839
-0.008982477 -0.17825644 0.26385003 -0.19618651 0.07820728 -0.23647144 0.18525931 0.08792369
0.21646501 -0.025660157 0.24735814 -0.25555444 -0.029069358 -0.15988241 -0.23461151 -0.14792234
-0.0938399 0.09209577 -0.2232928 0.021356393 -0.042399842 -0.17146593 -0.22212899 0.055227775
-0.24377556 -0.26699287 0.23737743 0.073677436 0.06001768 -0.21914612 0.17359966 0.28965878
-0.036787033 0.18897116 0.13945962 0.025267612 0.24611622 -0.06114561 0.176413 0.17159767
0.06831823 0.19805206 -0.19151692 -0.26202425 -0.15314487 -0.087184265 -0.13758552 0.14690222
-0.032555018 0.041253857 -0.16408773 -0.18183753 -0.10589781 0.05101366

mlp1.2.weight f4 [100, 150]
00000000: 4e2e ff3b a4c7 9a3d e7f7 11bd 042b 983d
00000010: eaee 15bd ff8d 55bd e705 f53c 8b90 313d
00000020: 4cd1 dfb9 3768 abbc 4068 8abc 069d cdbc
00000030: e7d9 b03c 84a0 1bbd 7bdd 86bb 91b2 4ebd
00000040: de2a 3abd 801b 4d3c d4d7 e9bb e421 aa3c
00000050: f7f8 31bd b462 5abd 152c 56bc 0948 81bc
00000060: cf48 623a 7edb 0c3d 9500 963d 097a 88bd
00000070: 38cb 003d 3bb2 9a3c 195c f83c 8149 9e3d
00000080: 4af0 88bb 051c 85bd df31 963d 7663 b6bd
00000090: e27b 04bb f7e6 fbbc 069e 6bbd 6fbb 3ebd
000000a0: 3e9e 8ebc bbed d7ba 2c8e 293b f733 cabc
000000b0: 7886 153d 8afb a2bc 6da5 703d 113f 9bbb
000000c0: f0cc 9bbc 2017 50bc b09d 83bd 503f 503d
000000d0: ebb4 d2bc 4dd8 c13c cee9 4dbb dc82 0b3b
000000e0: 60eb 243d 2e2a 42bd 490e 753d 4c21 37bd
000000f0: 3e43 9abd 77ed 45bd 05b4 983d 3739 f13c
00000100: 6aaf 143c 94b5 753d c075 9cbd 8409 a3bd
00000110: 3790 98bd e62a 0d3d 8d22 32bb 0ff0 60bd
00000120: 5d0c ad3d 8c48 56bd e4f6 a23c 0ece 7c3d
00000130: 9c17 c13c 6fbd 44bd 54ed aebd 6f09 ccbc
00000140: 3041 98bc 1477 c23b f005 4bbd dafc 0d3d
00000150: 7057 be3d 044a 9bbd 7aa6 b9bc 864a 88bd
00000160: 4445 303d ee3f 163c c6fe 95bd 0383 9ebc
00000170: b586 2bbd 072d 5bbd 355d 88bd 54eb 403d
00000180: 9ed0 bfbc 1014 b33d adc6 e63c b344 183d
00000190: 4a38 363d fc94 3fbd d68e 9dbd 49d9 a4bd
000001a0: 98c9 8abd 4bc2 87bd 2990 853d e8c9 893d
000001b0: 2bb4 46bd f9bf 07bd d07b 913b a317 903d
000001c0: ced3 103c 6898 153d 4757 f9bc f095 dd3b
000001d0: 1fad 683b 4e1e 8e3d fcd4 e03c 716f 2f3b
000001e0: 11cb a23d 3ccf eabc 619b ffbb 9a7a 92bd
000001f0: f0e8 723d cb47 893d 3327 babb 0590 903d
00000200: c315 203c 5eaa acbd 04c5 cf3c 42e9 5fbd
00000210: d242 ccbc dbf6 5d3b 6fd9 acbd ddb6 583d
00000220: 41e4 d93c cca2 833d 37cd 21bd 1b5b 6fbc
00000230: 8c28 d23c 1ca5 a1bd 0a5d b1bc 3300 d7bb
00000240: ed3a 8abc 4042 81bd 1675 383c 1658 ac3d
00000250: ed33 773d 0993 513d 7bd2 46bd 7264 1dbd
00000260: aea1 fb3c 787a 6dbc 6ee6 ae3c 7fd8 90bd
00000270: 462b 97bd 25c8 57bd c254 9dbc d45f aa3c
00000280: 0799 383d cad9 893c 8cc3 73bd dfa0 48bd
00000290: d302 9cbd 61ea 31bd 912b 02bd 7ecb 4739
000002a0: ed7c 9b3d 460f 7abc 2333 923b 36e2 33bd
000002b0: 577a 1c3d 1993 81bb 789a 763d 8493 843a
000002c0: 4c6b 673c 1cd5 db3c 86ba 9e3d 0fa2 253c
000002d0: 5b38 993d 2ffe eabc 82fb 513d 21df 6f3d
000002e0: a93a 0dbd 3c06 01bd 1ca2 a53d 0c46 42bd
000002f0: eb1c 4c3d b87f 2abd eba0 abbc c13d a83c
00000300: b18d 83bd 5fe1 94bd 45b0 953d 1563 8fbc
00000310: 4285 253d 5326 4d3d 6e0d 1b3a 47fb 743d
00000320: 6908 513d c155 fdbc 3363 5e3d 7107 6bbd
00000330: a311 e5bb 93b0 8dba feda 94bc 54f2 96bc
00000340: 360a a53d 6e5e 973d 6e59 dc3d 38e9 193d
00000350: 670c 813d 57e9 ef3c 7418 933d 30d1 53bd
00000360: fe7d 42bd d403 8e3c 5205 90bd 6d6c fbbc
00000370: c3c4 45bd 1399 9d3c 659a 84bd cc3f aebd
00000380: 8b9f 013e 9502 303d 023d d0bd 5c57 ed3b
00000390: d9db 82bd b063 a13d 9636 0fbd 275b 1fbd
000003a0: 6dd6 203d 5c7a 4d3d c89e 373d 5dd4 17bd
000003b0: 5fe7 6fbd ee36 d7bc 2da0 73bd a35a 6b3d
000003c0: 0787 d9bb b5a1 3dbc 89ae 3bbd aa53 9f3d
000003d0: ccc4 f8bc 764d 93bc 4dcf 823c 041a c5bd
000003e0: 6d20 44bc 978a 73bd f45b 5abb f935 7e3c
000003f0: 1d00 37bc 0e65 7abd 2b5c 55bd eb78 8cbd
0.0077875024 0.0755761 -0.03563681 0.074300796 -0.0366048 -0.05213737 0.029910041 0.043350738
-0.00042689813 -0.020923717 -0.016895413 -0.025099289 0.021588279 -0.037994877 -0.004115758 -0.050463263
-0.045451038 0.012518764 -0.0071363244 0.020768113 -0.043450322 -0.053316787 -0.013072033 -0.01578142
0.0008632065 0.03438901 0.0732433 -0.06663901 0.031443805 0.018883815 0.030317353 0.077288635
-0.0041790353 -0.06499485 0.07333731 -0.089056894 -0.0020215441 -0.030749781 -0.05752375 -0.04656547
-0.01740944 -0.0016474047 0.0025872095 -0.024682982 0.036505193 -0.019895334 0.058751512 -0.0047377427
-0.01901862 -0.012700826 -0.06426561 0.05084163 -0.025721034 0.02366271 -0.0031419876 0.0021287715
0.040263534 -0.047403507 0.059828077 -0.04470949 -0.07532357 -0.048322167 0.07456211 0.029446227
0.009075025 0.05998762 -0.076396465 -0.07960799 -0.07449382 0.03446474 -0.0027181238 -0.054916438
0.08449624 -0.05231528 0.019893117 0.061719947 0.023570828 -0.04803222 -0.085413605 -0.024906842
-0.018585771 0.0059346054 -0.04956621 0.034664966 0.09294021 -0.07582477 -0.02266239 -0.06654839
0.043034807 0.009170515 -0.07323985 -0.01934958 -0.041876514 -0.05350974 -0.06658403 0.047099426
-0.023414906 0.08744061 0.028170908 0.03717489 0.044487275 -0.046772942 -0.076932594 -0.08049256
-0.06776732 -0.06628855 0.06521637 0.06727964 -0.048511665 -0.033142064 0.0044398084 0.07035758
0.008839561 0.0365223 -0.030437125 0.0067622587 0.003550358 0.06939374 0.027445309 0.0026769305
0.07948888 -0.02866327 -0.007800505 -0.07152291 0.059304178 0.067031465 -0.0056809424 0.070587195
0.009770813 -0.084309325 0.025362499 -0.05466581 -0.024934206 0.003386906 -0.0843991 0.052908767
0.026598098 0.064275354 -0.03950235 -0.014609124 0.0256541 -0.0789282 -0.02165081 -0.006561303
-0.016873801 -0.06311464 0.011258384 0.084152386 0.060352255 0.051165614 -0.048540574 -0.03842587
0.030716743 -0.014494531 0.021350112 -0.07072543 -0.07381301 -0.052681107 -0.019205455 0.020797648
0.045067813 0.016827483 -0.05951266 -0.048981544 -0.07617726 -0.04343641 -0.03177983 0.00019053926
0.07592187 -0.0152624305 0.0044616624 -0.043916903 0.03820261 -0.003954303 0.060205907 0.0010114764
0.014124703 0.026835017 0.0775042 0.010109439 0.07481452 -0.028685657 0.051265247 0.0585624
-0.03447977 -0.031500086 0.080875605 -0.047430083 0.049832266 -0.04162571 -0.020950755 0.020537259
-0.0642351 -0.072695486 0.07309011 -0.0175033 0.040410288 0.050085377 0.0005914782 0.05980995
0.05103341 -0.03092468 0.054293822 -0.057380144 -0.006990628 -0.001081007 -0.01817083 -0.018426098
0.08058588 0.07391058 0.10759245 0.03757593 0.06301194 0.02928607 0.071823984 -0.05171317
-0.047483437 0.01733581 -0.07032265 -0.03069135 -0.04828335 0.01923803 -0.06474761 -0.08508262
0.12658517 0.042971212 -0.10167886 0.00724308 -0.06389589 0.07880342 -0.034964167 -0.03890529
0.039266992 0.05016552 0.04482916 -0.03706776 -0.058570262 -0.02627131 -0.059478927 0.057459485
-0.006638411 -0.0115741985 -0.045820747 0.077796295 -0.030367278 -0.017981272 0.01596799 -0.09624103
-0.0119706215 -0.05945834 -0.0033318968 0.015515798 -0.011169461 -0.06113153 -0.05208985 -0.06859001

mlp1.2.bias f4 [100]
00000000: a286 23bb 8dab ef3c b84e 1b3d 9f9b 903d
00000010: 532b 863d 5ae4 6b3c 2c08 91bc 5fc2 b3bc
00000020: 1b74 b3bc 3271 6c3d 7c72 bf3b 5f8e ffbc
00000030: dc68 9bbd d06d 58bd 407f bdbd 4b6a 8a3d
00000040: a6da 08bd 668c 8bbd 6c73 94bc f27f 62bd
00000050: 97e2 dd3a 923f 14bd d1b4 a2bd beb4 483d
00000060: d5f7 753d fc86 d4ba c685 39bd 5f76 10bd
00000070: f3c8 823d b377 c7bb 0005 9cbd 6f6f e3bd
00000080: 4760 163d 6167 2a3c 7586 143d 7dc1 07bc
00000090: 34ce 4ebd 0159 7fbd 2606 5d3d 4bb5 183d
000000a0: 4da5 a0b9 86af 7f3d 79f5 463d 113a cf3d
000000b0: 6a63 123d a967 54ba d0c5 6dbd dd82 92bd
000000c0: 8bae 8fbd 045f 003d f5f9 8abc d31f 893b
000000d0: c316 13bd f1fe 283d 8c81 ce3d 813f 813d
000000e0: fd13 60bc 1b9e 3c3d 752d d5bd be40 933d
000000f0: 967e 8f3d aa8e 8cbb 7e69 9ebc 228b 99bd
00000100: 9495 813b 11d8 fe3c 1707 35bd 86fc a7bd
00000110: 6357 7f3d d596 86bd 9d2a a5bb 425a 693d
00000120: f034 0f3d e6d4 5d3d 9619 2d3d 4f51 7fbc
00000130: d964 62bd fa1a 27bd b668 833d af02 323d
00000140: 036e bc3c 0217 1a3d 6d13 2ebc 87df 1e3d
00000150: 4574 603d b1e0 863d ceff 493d 246a 9f3d
00000160: b9a3 82bc a91d 753d 513a ae3d 2876 b7bc
00000170: ad7a 613d b975 89bc 11d3 5b3c 1147 86bd
00000180: 9eef 533c b326 823c 6813 2abd f779 5fbd
-0.0024952074 0.029256606 0.03791687 0.07060932 0.06551232 0.014397705 -0.017704092 -0.02194327
-0.02190595 0.05772514 0.005842505 -0.031195818 -0.0758836 -0.0528391 -0.09252787 0.06758555
-0.033411644 -0.06813888 -0.018121444 -0.0552978 0.0016928491 -0.036193438 -0.07944644 0.049000494
0.060050804 -0.0016214545 -0.045293592 -0.035269137 0.06385984 -0.0060872673 -0.07618141 -0.11105239
0.03671291 0.010400624 0.03626104 -0.008285877 -0.05048962 -0.06234074 0.05396094 0.03728227
-0.00030640737 0.06242325 0.048573945 0.10118497 0.03573934 -0.0008102605 -0.058049977 -0.071538664
-0.07015713 0.031340614 -0.016964892 0.004184702 -0.03591038 0.041258756 0.10083303 0.063109405
-0.013676641 0.04604922 -0.10409061 0.07190083 0.07006566 -0.004289468 -0.019337412 -0.074972406
0.0039545987 0.031108888 -0.044196215 -0.08202462 0.062339198 -0.06571738 -0.0050404803 0.056970842
0.034962595 0.054158114 0.04226073 -0.01558335 -0.055271957 -0.04079721 0.064164564 0.04345959
0.023001676 0.0376196 -0.010624749 0.03878739 0.054798383 0.06585825 0.04931622 0.077839166
-0.01594721 0.05984274 0.08507217 -0.022395208 0.055048633 -0.016779767 0.013417021 -0.065565236
0.012935547 0.015887594 -0.041522413 -0.054559674

mlp2.0.weight f4 [100, 100]
00000000: 5440 733c 0078 85bc 2208 be3d 2d01 65bd
00000010: ea04 a4bd a9d3 97bc 70bb 963c 00e4 f73c
00000020: bb94 adbd 8c94 81bd 97f0 a3bd e955 783d
00000030: 2fed f3bb 6bfa 6abd ad51 94bd d607 9c3d
00000040: 1e19 16bd 3afd 92bd 6cf3 1dbc 0b47 093d
00000050: 983d 88bd 0251 9c3d df7e 8b3d 618c 84bc
00000060: 28bd 9e3b 0041 8bbd f73b 043d 60ef cf3d
00000070: bc44 8c3d 7de2 c03d eccf 563d 1677 cd3d
00000080: 14d1 0fbc f7c7 b93c 99a8 af3d af73 ab3d
00000090: 3463 cbbd c90f b0bd 9451 96bc d32b bcbd
000000a0: 62cf 8bbd 6ec3 c33d 4179 8abd b390 9abd
000000b0: ab30 31bd aac1 863c a94c 023d 0c63 d43c
000000c0: beb0 1abd e306 563d 3284 f9bc 17ff a5bd
000000d0: af24 e23c c3ae ff3c 5e65 9dbd ebb6 8a3d
000000e0: 7a05 a9bd 8c27 99bc f454 b83d b87e abbd
000000f0: f94e 45bd c11b 92bd 802e 47bd 9375 2ebd
00000100: 4533 5ebd f31c 71bb d769 da3a 4e75 b4bc
00000110: fc9b 89bd 8baa 2abc 6d3f c4bc a202 c339
00000120: cf87 a03d fa9a edbc 01e9 39bc 8958 a6bd
00000130: 58d0 adbd 9fcb 053d 08b9 0b3d 8638 15bd
00000140: 5bc3 c0bb 9d79 813d 27ba 993d f27d 48bc
00000150: 58ac 953d efa7 58bd 2eec 0abc 32da 833d
00000160: dd73 d33c 555a 183d e212 bebd 5f50 0cbd
00000170: 53b8 ce3c 7482 47bc 125b 973d 6ffa c43d
00000180: 05e1 9f3d 2617 943b 0001 f5bc 5c93 8dbc
00000190: 7fd5 6b3d d3f4 833c ed85 86bc 1aaf 673d
000001a0: a3ff 51bd ca63 523d 5fb5 7d3d 4d1a b8bd
000001b0: 9ab0 20bc 1afb 6ebd 1143 a5bc fb6e 8abd
000001c0: f295 71bc a4e6 bc3c 671f b93d 9e62 fcbc
000001d0: 9ecd 1d3d 9a9f cc3d 5135 283d b0f9 273d
000001e0: 3530 b0bd 07c8 34bd 2dd3 e7bc d46a a0bd
000001f0: 9e2d 5abd 6145 a4bc 1084 6e3d 8567 5c3c
00000200: 858b 89bd 3312 923b 775c 5cbd 2cb1 ab3c
00000210: f4dc c53d 008d c7bc 9fa0 b73d 8065 3cbc
00000220: 6332 bbbd 9aa3 8b3a 2dfe fb3c b6c1 ac3d
00000230: 8218 9dbd 82d0 4a3d 5495 a13d 9b3c 18bb
00000240: 3a75 fcbc 7f05 c7bd 3a54 9abd bd7c c7bd
00000250: 9e5b b33d 33b0 72bd ccf4 a9bd 8040 97bd
00000260: 3ad8 17bd 5aa3 b0bc 1218 22bd d680 a53d
00000270: d3a2 633d cd03 223d 95cb 00bd 8279 8dbd
00000280: 837b 4ebd 557d a13c c3df 44bd f728 5c3c
00000290: 1d03 31bd 3d70 6e3d 9775 3a3d c30c 9abd
000002a0: 0f18 9ebb aade bdbd cd97 203c ede2 d1bc
000002b0: bf6f 82bd 9039 1fbd cae8 97bd 4cc6 8b3b
000002c0: 33bf 69ba eb26 bcbd cb9a 9ebd 9ba2 103d
000002d0: 5990 cabd 24e8 afbd 4604 a2bd 7669 4a3c
000002e0: 8894 b2bd 78a8 033d 978c a9bd 4b54 183d
000002f0: e3e3 8f3d 625f ec3c 71ca 0bbd 3709 afbd
00000300: ee46 c73d b3d2 aa3b e769 7d3d c07d 4d3c
00000310: 6a2e f8bc 0d3a 4d3d 2278 833d 2794 223c
00000320: 27cd a03d d7c9 cd3d cad8 7cbd 58f9 693c
00000330: 532f bb3d 250f d1bb 083c 403d 8920 b4bd
00000340: 2399 53bd 01d4 68bb 0f4c 95bd 2912 18bd
00000350: 7a6f b73d 1ccd 233d 94bf 5d3d bec5 d0bd
00000360: 6e72 29bd 2a17 be3d 8f3c c43c ec27 9b3d
00000370: c0f0 08bd 2fd6 8f3d d2cd c6bd 19d2 a1bd
00000380: b720 d939 b834 3a3d 72d1 9abd efc8 8d3d
00000390: 9090 2d3d baec a1bd acb8 813d 50e4 2abd
000003a0: 5079 bf3c b315 9bbd 2838 c73d 5dec 993d
000003b0: cd51 ccbd b660 66bc 1c19 ae3d ec90 55bd
000003c0: b0c5 5cbd a50f 643d 2827 98bd d6f9 13bd
000003d0: 8e60 42bc 4a77 763c f002 633d 96b9 8d3d
000003e0: 72f9 5ebd 23ce e03c d2fc 763d 55a5 d6bc
000003f0: 7f51 46bd c061 703d 9406 a43d 9eb4 3fbd
0.01484688 -0.016292572 0.09278895 -0.055909324 -0.0800875 -0.018533545 0.018399924 0.030260086
-0.08475634 -0.06327161 -0.08004873 0.060628805 -0.007444046 -0.057367723 -0.07242141 0.07618682
-0.036645047 -0.071772054 -0.009640556 0.033515017 -0.06652373 0.076326385 0.06811308 -0.01618022
0.0048443265 -0.06799507 0.03228375 0.10153079 0.068490475 0.09418199 0.052444384 0.100324795
-0.008777875 0.022678358 0.08577079 0.08371674 -0.09931031 -0.08596761 -0.018349446 -0.09188046
-0.068266645 0.0955876 -0.067614086 -0.075471304 -0.043259304 0.016449768 0.03181139 0.025926135
-0.03776621 0.05225266 -0.030458543 -0.08105295 0.027605383 0.031211263 -0.0768535 0.0677317
-0.08252998 -0.018695615 0.090005785 -0.08373779 -0.048171017 -0.071342 -0.04862833 -0.042592596
-0.054248113 -0.0036790937 0.0016663623 -0.022028591 -0.06719205 -0.010416637 -0.023956025 0.0003719526
0.078384034 -0.029004563 -0.011347056 -0.081223555 -0.08487004 0.03266489 0.034112006 -0.036430858
-0.005882663 0.06322024 0.07506209 -0.012237059 0.073082626 -0.05289453 -0.008479161 0.06438102
0.025812084 0.037195522 -0.09280945 -0.034256335 0.025234377 -0.012177099 0.07390417 0.09618079
0.07806591 0.004519361 -0.029907703 -0.01728218 0.057576653 0.016107952 -0.016421283 0.056563474
-0.051269185 0.051364698 0.061940547 -0.089893915 -0.00980773 -0.058344938 -0.020173581 -0.06759449
-0.014745222 0.023059197 0.09039193 -0.030808743 0.03852617 0.09991379 0.04106647 0.041009605
-0.08602945 -0.044136073 -0.028298939 -0.07832876 -0.05326616 -0.020052614 0.058231413 0.013452415
-0.06716064 0.004457736 -0.05379912 0.020958506 0.09661284 -0.024359226 0.08966183 -0.011498809
-0.0914047 0.0010653615 0.030760849 0.08435385 -0.0767069 0.049515255 0.0788981 -0.0023229483
-0.030817617 -0.09717845 -0.07535596 -0.09740589 0.08757709 -0.059250068 -0.082986444 -0.07385349
-0.037071444 -0.021562267 -0.039573736 0.08081214 0.055575203 0.039554406 -0.03144415 -0.069079414
-0.05041076 0.019713083 -0.04806496 0.013437501 -0.04321586 0.058212508 0.0455223 -0.07521965
-0.0048246454 -0.092709854 0.009801817 -0.025620902 -0.0636897 -0.038873255 -0.07417448 0.004265582
-0.00089167355 -0.091871105 -0.07744368 0.035311323 -0.098908134 -0.08589199 -0.07910971 0.012354245
-0.08719736 0.032143086 -0.082787685 0.037189763 0.07025888 0.028854076 -0.03412861 -0.085466795
0.09730326 0.0052131056 0.061868574 0.012542188 -0.03029557 0.05010419 0.06419398 0.009923018
0.0785163 0.100482635 -0.061730184 0.01428064 0.09139886 -0.006379979 0.04693225 -0.08795268
-0.051659714 -0.0035526755 -0.07289898 -0.037126694 0.08956809 0.03999053 0.05413778 -0.10193966
-0.041368894 0.09281762 0.023954658 0.07575974 -0.033432722 0.07023274 -0.09707226 -0.07901401
0.0004141384 0.045460433 -0.0755948 0.06923091 0.042374194 -0.0790648 0.063340515 -0.041721642
0.023373276 -0.07572498 0.09727508 0.07515786 -0.0997654 -0.014061144 0.08500883 -0.05214016
-0.053899467 0.055678982 -0.074293435 -0.036126934 -0.011863841 0.015043089 0.055422723 0.06920163
-0.05443711 0.027442044 0.060299702 -0.026201883 -0.048417564 0.05868697 0.08009067 -0.04680311

mlp2.0.bias f4 [100]
00000000: e402 563c b192 1c3c c508 453d e19c 843c
00000010: 8c2a 1fbc a7b3 9ebb 95be 083d 6f0c b83d
00000020: 5773 c4bd 0b1b 783d 7f69 353d f7d7 013e
00000030: d9da 773c 0eae fd3c 8c41 733d 8d90 84bd
00000040: 1bed 9d3d 0cb4 8f3d 2ef2 823d cd66 ebba
00000050: 86e6 4e3d 58b5 6ebd 7475 84bd a80b c4bd
00000060: 4f6d 89bd d276 85bb 0bf1 423d 86ae 853d
00000070: 2356 9bbc 21ee cbbd c274 ac3c d24f 4b3d
00000080: 283d 20bc df10 b23d 5cf6 a8bc ecc9 b53d
00000090: bb23 24bd d17c b53d 4516 9c3d b988 3ebd
000000a0: 4c32 a3bd 77fe 68bd 4598 973d 1199 b53d
000000b0: 9bd4 71bc 3bcb 86bd 2f93 a13d 06e3 87bd
000000c0: 2658 92bd 562f c2bd 3c23 383c 6d89 71bc
000000d0: 5504 ac3d 4a08 b6bd 618d ae3d 0594 26bd
000000e0: b719 a1bd eace 7a3d 64f9 95bc 3d37 753d
000000f0: 7618 4dbd 7e84 e1bc 9a85 ecba a469 4339
00000100: 62f5 983d d368 69bc 7c2b a9bd 9728 c4ba
00000110: d005 a93d b5e1 363d 242a 5f3d a4bc d0bc
00000120: 3fba 59bd 459f 5bbd a346 20bc d959 b43d
00000130: dfd5 5b3d 395a 293d edde 9e3c 40fa 293c
00000140: a6b9 d3bd 2a0d 95bb 3f9b 2cbd bd94 ea3c
00000150: 70d5 5dbc 5743 403d ebb8 ae3b e2b5 05bd
00000160: 0559 823d 9420 b4bd b7e2 8e3d 660d 15bb
00000170: 2e2a a03d 1870 3d3d 9bdd 853c 19c2 e93b
00000180: 0144 40bd 6cad 6e3d 64c7 303d fb29 7dbd
0.013062213 0.009556458 0.048104066 0.016188087 -0.009714734 -0.0048431936 0.03338488 0.089867465
-0.09592312 0.060572665 0.044290062 0.1268004 0.015127861 0.030966785 0.059388682 -0.064728834
0.0771124 0.07016763 0.06393848 -0.0017959714 0.050512813 -0.05827841 -0.06467715 -0.09572536
-0.06710302 -0.0040730024 0.047593158 0.06527428 -0.018961972 -0.09957529 0.021051768 0.04963667
-0.009780206 0.08694624 -0.020625286 0.08876404 -0.040073138 0.088616975 0.07621435 -0.046517108
-0.07968578 -0.0568833 0.0740209 0.08867086 -0.014760162 -0.06581732 0.07889401 -0.06635098
-0.07145719 -0.09481685 0.011238869 -0.0147422375 0.08399264 -0.088883 0.0852306 -0.040668506
-0.07866233 0.061232485 -0.018307395 0.059867132 -0.050072156 -0.027528998 -0.0018045187 0.00018636003
0.07468678 -0.014246183 -0.08260247 -0.001496571 0.08253062 0.044648845 0.054483548 -0.025480576
-0.053156134 -0.053618688 -0.009782466 0.088061996 0.05367076 0.04134581 0.019393409 0.010374606
-0.10338144 -0.0045486884 -0.04214024 0.028635377 -0.013539657 0.04693922 0.0053321025 -0.03264416
0.063646354 -0.08795276 0.06976836 -0.0022743582 0.07820545 0.04624948 0.016341021 0.007133734
-0.046939854 0.058270857 0.043158904 -0.061807614

mlp2.2.weight f4 [50, 100]
00000000: 8a12 c73d 4ca0 933d 417c 2fbd fa1d 5e3d
00000010: 056c 85bd 2be9 97bc 128e 8d3c f044 bebc
00000020: fcfc 583d 3668 f8ba 7e0e 403d be4d e23d
00000030: 79d2 cabd 2dd4 433c 5879 3a3d 9757 5cbd
00000040: c5d5 6abd 8d27 98bd 0c8e fa3c 0059 45bb
00000050: a237 d7bd 05f0 6f3d a67e d33d fdb8 8dbd
00000060: d89c af3d 31e1 993d 03aa 873d 784d 963d
00000070: 8027 533d fbae 403d a3fe ca3d dae2 a43d
00000080: 1890 163c cef5 1d3b 14e1 26bd b4d6 4ebd
00000090: 4156 b7bd ecbe 97bd 746a babd 5cbe a5bc
000000a0: 4197 c03c e246 193d d7d3 f83b c48e 483c
000000b0: e955 0d3d ebf5 bfbd fa18 d1bc f4d0 933b
000000c0: 8199 8f3d ae74 9c3c a39c 32bd 1de5 a0bd
000000d0: 61f0 e0bc 75cd 8e3d 941e b83d 9977 c6bd
000000e0: c940 b2bd aca5 4b3d 3cad dabb 7120 72bd
000000f0: 28c0 b33d 1a15 82bd 47b6 7c3d 3bcc 79bd
00000100: 833c 2dbd c243 35bd f532 8c3d d896 57bd
00000110: a730 db3d e434 a53d 29a6 983d abe2 363c
00000120: 2087 8e3d 1440 1dbd 8886 adbd e52d 353d
00000130: 8e5b de3c 6175 2d3d 17c8 80bd e90b 95bd
00000140: fe54 13bd 985e ccbd a77d b4bc d844 043d
00000150: daf5 1bbd b597 b33c cdfb 6b3d 53e0 ccbd
00000160: 56f6 8cbd 465f 8a3b cbaf 9cbd 45d4 84bd
00000170: 0aef 813d 0c4d d73d a251 a03d 2daf 703c
00000180: 4190 d1bb e436 4bbd 0a58 4b3d 24ad 4e3d
00000190: f4cf d23d e8eb b7bd 0b2f b6bd d47a fc3d
000001a0: 56d8 99ba 98b5 9cbd 6b6f b63d 3893 7f3d
000001b0: 219f 7e3b f2b3 143e 908e 4c3d 7f4d 2a3e
000001c0: be94 8b3d b144 91bc 7419 d53c 20ce 93bd
000001d0: dbec b43d 8d9c 1c3d 0c48 093d ad17 23bd
000001e0: b712 7abd bd4a cabc 1ba0 c33d 218a b53d
000001f0: b7a8 2e3d 8aea a43c 0797 983d 7316 7bbd
00000200: c3fe 40bd 1555 7d3d f4f4 db3c fae0 763d
00000210: 5596 763c fb8e 073d 810e e7bc 120b 62bd
00000220: 169a b33d cc92 533b 21b7 13bc 5650 c73d
00000230: c39e 15bd 70e7 d33d 12ba e53d c911 c0bd
00000240: 9d48 b3ba bd12 b33d e191 8a3d 1dfc 08bd
00000250: 70f9 14bd 216a a83d 1161 afbd 6b02 c53d
00000260: d256 c0bd b3de 9fbb 14a0 9bbd b5e6 37bd
00000270: 31b5 82bd 7345 c3bd 68a6 57bb b0ca acbc
00000280: 44b6 59bd ef13 ff3c 0dc3 b5bc 93b0 fd3d
00000290: 0704 1abd c04f 0d3e 9f88 5e3d 2466 323c
000002a0: a73d 7c3d 85b6 acbc 5914 bdbd 47fc 653d
000002b0: bbe9 3d3d a51d bb3d b659 b2bd c8a1 8dbd
000002c0: 6f40 9dbd dc7f 843d b74b 4d3d 66b2 6cbd
000002d0: 09da 483d d1a9 d6bd 9ced b0bd 02e8 af3d
000002e0: 1797 69bd f226 7b3d 1d63 91bb 6b5c a83d
000002f0: a3ed 783d 605a fc3d 667f 02bd 87be c9bd
00000300: baa8 143d 970b 583c 8e7f fbbc 5a52 763c
00000310: b986 39bd ab81 5ebd 88f5 823c 5c80 0e3d
00000320: 0a3e 9f3b 6718 a0bb 5615 df3c eb42 093c
00000330: c252 d43b 4515 853d 01dc 40bc 5332 a3bc
00000340: b3c2 753d a975 b03d 4a89 bf3d f26e c33d
00000350: c0ae fcba cc2b 18bd bb7d c43d ed11 c7bd
00000360: 8165 41bd 5dd8 96bd e55e e7bb e761 843c
00000370: 1bf1 893d 82a2 78bd f684 3e3c 4f81 2d3d
00000380: d3fe 7d3d a24b 8b3d 6530 a73b 0b0b 96bd
00000390: 6ddc 4d3d 54a1 92bc 6dff a83d bf90 ae3d
000003a0: c3be 7ebb c076 f4bc 6321 a63d e7a2 303c
000003b0: d046 823d f890 30bc 6983 833d 166c 3c3d
000003c0: 990b 783d 5a42 35bd 662b 7ebd 4b87 783d
000003d0: bfb8 68bd 0893 833d c62e f53c 1f7a a33d
000003e0: 67c0 95bd 462f b5bb 3b3e 62bd 4d16 8d3d
000003f0: 7a82 233d 0006 283b fb22 9abd 665a e63c
0.09720333 0.072083086 -0.042843107 0.054227807 -0.06514744 -0.0185438 0.017279658 -0.023226231
0.05297564 -0.0018951956 0.04688882 0.110499844 -0.09903426 0.011952442 0.04552588 -0.05379447
-0.057332773 -0.07429419 0.030585311 -0.0030112863 -0.10508658 0.05857851 0.10326891 -0.06920049
0.085748374 0.07513655 0.06624224 0.07338995 0.051551342 0.047041874 0.09911849 0.08051081
0.009189628 0.002410281 -0.040741995 -0.050497726 -0.089519985 -0.07409462 -0.091023356 -0.020232372
0.023509623 0.037421115 0.0075936127 0.012241069 0.03450576 -0.09373077 -0.025524605 0.004510993
0.070117004 0.019098606 -0.04360641 -0.078562 -0.027458372 0.069727816 0.08990207 -0.0969078
-0.08703763 0.049718544 -0.006673483 -0.05911297 0.08776885 -0.06351681 0.06169727 -0.060985785
-0.042294037 -0.044254072 0.06845657 -0.05263409 0.10702639 0.08066729 0.074535675 0.01116244
0.06959367 -0.038391188 -0.084729254 0.04423322 0.027143266 0.04234827 -0.06288164 -0.07277662
-0.035969727 -0.0997898 -0.022032572 0.032292217 -0.03807626 0.021922925 0.057613183 -0.10003724
-0.06882922 0.0042227833 -0.07650717 -0.064858 0.06344421 0.105127424 0.0782807 0.014690203
-0.0063953702 -0.049612895 0.049644507 0.05045809 0.1029357 -0.089805424 -0.088956915 0.12328115
-0.0011737447 -0.07651824 0.0890797 0.062396258 0.0038852172 0.14521769 0.049940646 0.16631125
0.0681548 -0.01773295 0.026013114 -0.072170496 0.08834239 0.038235236 0.033515975 -0.0398175
-0.061053004 -0.024693841 0.09552022 0.088642366 0.042641368 0.020131368 0.07450681 -0.061300706
-0.04711796 0.06184872 0.026850201 0.060273148 0.01505049 0.03309534 -0.028205158 -0.05518634
0.08769624 0.0032283543 -0.009015829 0.0973212 -0.03652836 0.103468776 0.11217131 -0.09378392
-0.0013678257 0.087438084 0.067661054 -0.03344356 -0.036370695 0.082233675 -0.08563436 0.09619602
-0.0939156 -0.0048788427 -0.07598892 -0.044897754 -0.06382216 -0.09534731 -0.0032905582 -0.021092743
-0.053152338 0.031137435 -0.022187734 0.123871945 -0.037601497 0.13799953 0.05432951 0.01088861
0.061582234 -0.021083126 -0.09232397 0.056148794 0.04636548 0.091365136 -0.08708517 -0.06915623
-0.07678305 0.064697 0.050121035 -0.05778732 0.04903606 -0.10481609 -0.086390704 0.08589174
-0.057028856 0.061316438 -0.004436864 0.08220752 0.060773503 0.12321925 -0.031859778 -0.09850793
0.036293723 0.013186357 -0.030700471 0.015034283 -0.045294497 -0.05432288 0.015986219 0.03479038
0.0048596906 -0.0048857215 0.027231853 0.008377771 0.006479592 0.064981975 -0.011771203 -0.019921457
0.060000133 0.08616192 0.09352358 0.095426455 -0.0019278154 -0.037151143 0.09594294 -0.09720216
-0.047215942 -0.07365487 -0.007060873 0.016159965 0.0673544 -0.060701855 0.01162838 0.042359646
0.062010597 0.06801535 0.0051022046 -0.07326325 0.050259043 -0.017899193 0.082518436 0.08523702
-0.0038871027 -0.02984178 0.08111837 0.010781026 0.06361163 -0.010776751 0.06421549 0.046001516
0.060557935 -0.04425273 -0.062053107 0.0606759 -0.056816813 0.06424528 0.02992953 0.07982277
-0.073120885 -0.005529317 -0.05523513 0.06889019 0.039919354 0.0025638342 -0.07526203 0.028119277

mlp2.2.bias f4 [50]
00000000: 9b65 54bc c06a 0c3c 762f a3bd bf49 863d
00000010: 924f 593d 05e4 68bc 79ae c33d 8028 92bd
00000020: a317 aa3d 9f9e b23d 7022 63bd fc10 6f3d
00000030: 6f11 b4bc f3cb b93d ef1e c9ba 1b5d d23b
00000040: 268c 36bd e604 143e a32e 0c3e 57bb 40bc
00000050: 9d98 67bd cdb6 cdbc a7e6 db3a 63fe a43d
00000060: 5377 853d 4bfc 62bd 1082 af3d d5a6 cabc
00000070: ddb1 2abd 83be de3b e1f1 38bc 2663 27bd
00000080: 54dd 22bd 1f1d a83c 82cd 933d d58a 923c
00000090: bba0 19bd 1dbe 303c 1b61 a73c 94d9 1e3d
000000a0: 6f39 a5bc abbd 92bc e0e9 adbd c958 523d
000000b0: f764 6e3d ca4a b23d 8427 e4bb 68b3 8a3d
000000c0: 639c 0f3c 702c 253d
-0.012963678 0.008570373 -0.07968037 0.06557035 0.0530544 -0.01421452 0.095547624 -0.07136631
0.083052896 0.08721661 -0.055452764 0.058365807 -0.02198097 0.09072103 -0.0015344302 0.0064197904
-0.04456725 0.14454994 0.13689665 -0.011763415 -0.056542028 -0.02511158 0.0016777114 0.08056333
0.065169 -0.055416387 0.08569729 -0.024737755 -0.04167353 0.006797613 -0.011288137 -0.04086604
-0.039761856 0.020521699 0.07216932 0.017888466 -0.0375068 0.010787514 0.020432046 0.038781717
-0.020168988 -0.017912706 -0.08491874 0.051354203 0.058201756 0.08705671 -0.0069627184 0.067725
0.008765313 0.040325582

attention.0.weight f4 [100, 200]
00000000: de02 6ebd 5a7b 053d 22ff 503d 28fa 6e3d
00000010: 6872 dabc 1900 8a3d 6d75 b93c 1a86 24bd
00000020: 4f5b c6bc f2af 0d3d aee1 a7bc a254 0bbc
00000030: 5c6d 1dbd 8263 6d3d c964 4c3d 2d50 133d
00000040: ff55 a7bb 4f8d 43bd 0084 91bd b301 01bd
00000050: 0940 b83c 5ccf 2fbc b3f1 513d 4e87 93ba
00000060: 822c 063d 17b4 d2bb 7db5 80bd 5815 d3ba
00000070: 29c9 a93d a8e3 8ebb e93c ecbc a488 87bd
00000080: 37cc 463d 58b3 38bd 7ccf 803d fe88 3bbd
00000090: 9aa8 b73c ac7d 5fbd 7308 40bd a2a8 8f3d
000000a0: 8af3 54bd 56e4 e3bc 944c 37bd 5450 8e3d
000000b0: 0f9e 81bd 73ef 723d da68 833d be26 2c3b
000000c0: 7659 843b 0e61 a6bc e32b c13c 97e9 76bc
000000d0: 7b65 8abc 2e8a 52bd da19 583d 5072 553d
000000e0: 8966 313c b1a9 65bc f043 ab3d a239 30bc
000000f0: 9a26 2d3d 3ca2 a93c b90c ea3c 58e5 6dbd
00000100: 7ad2 7e3d 1da8 96bc 5831 733c 0028 e5bc
00000110: e66b 91bd 596d aebc f755 20bc b0db 793d
00000120: abfe 88bb b1d9 63bb 16db bc3c 98c7 ca3c
00000130: 8e98 513d fdcc 003c 7e46 6cbd 2abb e03c
00000140: eee5 09bd 5a0c f43a fcf2 7ebd 0931 9abc
00000150: 3c3b 0ebb dd45 a13c d1dc 74bc 7626 173d
00000160: 0b78 293d 6c3a 153d 887a 313d 4e0f 3dbd
00000170: 1004 763d bf90 81bc 0fa3 4ebd 19bd 6ebd
00000180: fd48 643d f34c 72bd a696 8d3b b346 043d
00000190: bfd3 ac3c 27ab 473d 8dbc 643d a5f5 1e3d
000001a0: 2ec8 3b3d 0fa2 5c3d aa17 d53c ed9c 8bbd
000001b0: 3deb b33c bc7b 13bd c5a4 00bd 2927 ebbb
000001c0: 432a e93a 58eb 8a3d 1b0f 35bd 2a55 23bd
000001d0: b93d 023d a5d4 2d3d d6c3 8bbd 163f d73c
000001e0: b47e 3d3c 7690 87bd 3b45 143d 6832 02bd
000001f0: 6c29 51bd c0c3 6e3b 7b7a 81bd 7d7e 82bd
00000200: 4e3b 11bd 44a7 733c 706b 77bd ec35 a23b
00000210: baff 563c 5ae8 fcbc 2e7f 38bb 8d75 5bbd
00000220: cb0f 5b3d c2ff 85bd 45e2 4a3b b641 793d
00000230: a20f 733d 3aaa 9e3b 6301 743d 09a0 f3bc
00000240: 4a5e 313d f471 1d3d d069 003d 054b 253d
00000250: a98f 2e3d 376c 383d d572 dfbc 36ed 3cbd
00000260: c13a 9a3c 04e1 8c3c 094b 523c 30a2 8abc
00000270: 3d7e aabc 72a7 7e3d c198 30bd db5d 8b3c
00000280: fbf4 b0ba 0dae 61bd da33 afbc 8ea0 88bc
00000290: 15ff 8cbd 1333 f23c 41af d5bc 0c37 063d
000002a0: 6f1c 62bd 47f5 513d 05a3 57bc e2da 64bd
000002b0: fb6b 9b3c e421 713d 8752 7a3d 248d 8dbd
000002c0: 8113 26bd ddbd 77bd a973 e93b f157 5abb
000002d0: 4f3c 2c3d 52e5 103d 31c3 7f3c 124a 7e3c
000002e0: 8e06 0e3d 5ff0 663c 1585 b7bc 614e 8fbd
000002f0: fb0e 893c 1f8a 823d b67f 15bd a2a0 5ebd
00000300: 7b0c 2fbd a764 103b 5d02 673d e210 3e3d
00000310: 8b0d 173d ac5d 0fbd 0727 933c 851d 35bd
00000320: 951e 863d f60a 69bc b749 04bd 6dad 4d3d
00000330: 6d9e 68bd f574 533d f431 66bd 2f6e 38bd
00000340: 39dd 88bb 7d63 b83c 75ed 443d 2f0e 14bd
00000350: cd34 5e3d ee83 393d a2fe ef3c 3ac6 393d
00000360: c75b 84bc 5cb4 0cbd 82e6 5fbd a96d 173d
00000370: dfba 2cbd c1a5 8f3c 7aa2 4dbd 7544 0f3d
00000380: fd54 84bd b877 65bd 4eb9 0abd 27b9 25bd
00000390: 69d0 6d3d 564a 4a3d 3d2f 6fbd 196e cbbc
000003a0: 2f97 85bc a676 01bd f655 1c3d 72f2 5d3c
000003b0: 2090 a5bb 93b5 bb3b 0e71 543d a09d 2d3d
000003c0: 913f 503d 6b56 3abb 2013 853d 73ea 723d
000003d0: 8bb0 7fbd d0d5 673c bccb 81bb 2b8d 4d3c
000003e0: 257f 64ba 9316 c43c 40f6 99bb 0314 923c
000003f0: 075c 77bc 0d0a b2bc ef55 023d aa7d 873d
-0.058108203 0.03258834 0.051024564 0.058344036 -0.026665881 0.067383 0.022639 -0.04016695
-0.024213461 0.034591623 -0.020493355 -0.008504065 -0.03843437 0.057956226 0.049900804 0.035965133
-0.005106687 -0.047742184 -0.07105255 -0.03149576 0.022491472 -0.010730591 0.051255893 -0.0011255534
0.03275729 -0.00643016 -0.06284616 -0.0016104383 0.082903214 -0.004360635 -0.028837638 -0.06617859
0.0485346 -0.04509291 0.062895745 -0.045784943 0.022419263 -0.05456321 -0.046883058 0.07014586
-0.05199007 -0.02781884 -0.044750765 0.06948915 -0.063289754 0.059310388 0.06416483 0.002626821
0.004038985 -0.020309951 0.023580497 -0.015070341 -0.016894093 -0.05140131 0.05275903 0.05211097
0.010827669 -0.014017508 0.083625674 -0.010755928 0.04227314 0.020707242 0.02857052 -0.058080047
0.062212445 -0.01839071 0.014843307 -0.027973175 -0.07100658 -0.021292375 -0.009786121 0.061000526
-0.0041807494 -0.0034767205 0.023053687 0.024753377 0.051170878 0.007861373 -0.057684414 0.027432997
-0.033666544 0.0018619404 -0.062243447 -0.01882221 -0.0021702787 0.019686634 -0.014945225 0.036901914
0.041374248 0.03643267 0.043329746 -0.046157174 0.060062468 -0.01581609 -0.050448474 -0.058285806
0.05573367 -0.059155416 0.004320937 0.032293987 0.021097062 0.048747208 0.05584388 0.038808484
0.045845203 0.05386549 0.02601226 -0.068170406 0.021962756 -0.036006674 -0.031407136 -0.007176299
0.0017789084 0.067831695 -0.04420386 -0.03987614 0.031797145 0.04243912 -0.06824462 0.026275199
0.011565853 -0.066193506 0.036198836 -0.031786352 -0.051064894 0.0036432594 -0.063221894 -0.06371782
-0.035456948 0.014871422 -0.060405195 0.0049502756 0.013122493 -0.030872513 -0.0028151977 -0.053578902
0.05348186 -0.065429226 0.003095762 0.060853682 0.05934108 0.00484207 0.059571635 -0.029739397
0.04330281 0.038438752 0.03135091 0.040354747 0.042617474 0.045025077 -0.027276436 -0.04612466
0.018826844 0.01719714 0.012835273 -0.01692304 -0.020812148 0.062171407 -0.043114427 0.017012527
-0.0013500744 -0.05509763 -0.02138703 -0.016678121 -0.068845905 0.02956537 -0.026084544 0.03276734
-0.055202898 0.051259305 -0.0131614255 -0.055872805 0.018972388 0.05887021 0.06111386 -0.06911686
-0.040545944 -0.060483802 0.0071243835 -0.0033316577 0.042049702 0.035374947 0.015610502 0.015520589
0.03467422 0.014095395 -0.022402326 -0.069973715 0.016730776 0.06374001 -0.036498748 -0.05435241
-0.04273651 0.002203265 0.05639874 0.04640282 0.03687815 -0.03500144 0.017962946 -0.044217605
0.06548802 -0.014223805 -0.032296862 0.05021422 -0.05679171 0.05162521 -0.056199983 -0.045026954
-0.0041767624 0.022508377 0.04807802 -0.03614634 0.054249573 0.045291834 0.029296223 0.04535506
-0.016157044 -0.03435169 -0.05466319 0.036969814 -0.0421704 0.017535092 -0.050203778 0.034977395
-0.06461523 -0.056022376 -0.033868127 -0.04045978 0.058060084 0.0493873 -0.05839466 -0.024832772
-0.016307442 -0.031607293 0.038167916 0.013546573 -0.0050525814 0.0057284324 0.05186563 0.04238665
0.05084187 -0.0028432857 0.064977884 0.05930562 -0.062424224 0.014150098 -0.0039610546 0.012545864
-0.0008716456 0.023936545 -0.0046985447 0.017831808 -0.015097625 -0.021733308 0.031820234 0.066157654

attention.0.bias f4 [100]
00000000: 4b58 7e3d 788e 4e3d ebad 863d 56cf 23bd
00000010: 4506 843d ddba 413c ac84 b0bc d30b d9bc
00000020: 1baf 783d 25bd 083d ad5f 1b3b e534 853d
00000030: e57d 1ebd b9db 2c3d 308b 6b3c efe0 573d
00000040: 40c2 ed3c 5e81 6c3b 324e cf3c 6c7d 94bc
00000050: 78af 753c afa0 50bc 1ea2 6b3d 4eb8 913b
00000060: 90c9 7fbd ab1c 17bc 02dd 84bc b760 e2b9
00000070: c93d b1bc ef22 8d3d 2621 97bc 7279 0d3b
00000080: 7f9a 053c 6b5f 153c 6703 6b3d 2f5d 88bd
00000090: 53fa 41bc a077 7bbd 0368 cfbb 3c6a 443d
000000a0: f72b 9abc 268d 843c f545 34bd 0449 44bc
000000b0: 4651 493d 0522 5e3d 3843 c13c a881 0d3a
000000c0: a619 573d f9d9 5a3c 9b8a ca3b 2441 a23d
000000d0: 9690 1fbd f471 2e3d ed41 34bd a7a9 3dbc
000000e0: 2e7f 41bd d082 973d ef2a 683a 157a 0e3b
000000f0: 2416 ccbb bfb7 1e3d d272 343d fd74 26bd
00000100: 3a32 67bd f76d d93c 4c6d 213d 7e99 0c3d
00000110: 72af 863d dab1 22ba 48aa a4bb 3ad7 56bc
00000120: 8d56 b3bc cfbe 3bbb 1bf5 703c b0b4 58bd
00000130: 4c7c 67bd 3611 8bbd 18c0 24bd e7bc 57bd
00000140: c47d 503d 1769 293d e96d dbbc 3e99 953c
00000150: 0b15 ecbc 8d3c 11bc 739b 9f3d 0768 633d
00000160: 6214 2ebd 0142 f1bc 5ed5 5e3d 7648 4dbd
00000170: f100 583d 07c6 babc a3d2 5a3b 3306 48bd
00000180: d273 a3bc 4d76 45bc 750b 36bd f0ec 553c
0.06209592 0.050428838 0.06576141 -0.039992653 0.06446508 0.011824337 -0.021547638 -0.026494896
0.06071387 0.033383507 0.002370815 0.065042295 -0.03869428 0.04220173 0.014376447 0.052704748
0.02902329 0.003608785 0.025305841 -0.018126212 0.014995448 -0.012733622 0.057527654 0.0044470197
-0.062448084 -0.009223144 -0.016218666 -0.00043178137 -0.021635907 0.06891429 -0.018448424 0.002158728
0.0081545105 0.009116988 0.05737629 -0.06658398 -0.011839467 -0.06139338 -0.006329538 0.047952875
-0.018819792 0.016180586 -0.04401203 -0.011980299 0.049149774 0.054231662 0.023591623 0.00053980434
0.052514695 0.013357633 0.006181074 0.07922581 -0.038956247 0.042589143 -0.044008184 -0.011576093
-0.04724043 0.073979974 0.0008856495 0.0021740247 -0.0062282253 0.038749453 0.044054814 -0.040638912
-0.056444384 0.026541693 0.039410874 0.03432607 0.06576432 -0.00062063115 -0.005025182 -0.013112837
-0.021891857 -0.0028647666 0.014706875 -0.052906692 -0.056515023 -0.06790392 -0.040222257 -0.052670386
0.05090119 0.041359987 -0.026785808 0.018261548 -0.028818628 -0.008864534 0.077933215 0.05551913
-0.042499907 -0.029450418 0.0544027 -0.050117932 0.052735273 -0.022799505 0.003338971 -0.048834037
-0.019952688 -0.012052131 -0.04444452 0.013056979

attention.2.weight f4 [100, 100]
00000000: 71b4 33bb 6a7f a8bd 5b30 153d a4c5 07bb
00000010: b094 bb3d 4851 aebd 6b06 84bd 8576 f1bc
00000020: e844 c93d 2b9f 383d 1a11 0abd 1979 be3d
00000030: fe06 be3d 90db 433d d1f5 283d 9fea 8bbb
00000040: f4f6 5c3d c115 523d 45a8 633b 8f7b 59bd
00000050: 00bc cfbd 768d 543c 9de8 97bd a95d 06bd
00000060: 2ed0 86bc 0497 9e3c db56 b0bd 2c1b d83c
00000070: 91da 7e3d dfe8 843d 7206 103c b027 05bd
00000080: af21 db3c dfeb e23c caa7 92bd 5f21 193d
00000090: 51a9 26bc ae6e 66bb c66f f53b cbb9 27bd
000000a0: 8d3a 78bc 09d8 683c 1545 833d 0a61 623c
000000b0: 67d1 583d bdda 91bd 1b44 2dbd 217e 0d3c
000000c0: e424 a03d 7977 4dbc e67b 463c 6b7d 5abd
000000d0: c941 18bd ee43 06bd 6af8 99bb 5361 b03c
000000e0: 6e47 1c3d 77f6 fabb 1f9d 68bc 42c3 803b
000000f0: 4dc9 b53d 001f c7bd 69fe 92bd 3b18 3ebd
00000100: 2052 0abc a783 953c d066 b03d 4e82 5dbd
00000110: e18d 04bd 5068 d9bc ff4a c5bd 6163 55bd
00000120: 9f77 bb3d 0b3a 4ebc d1e6 083d 7362 8c3d
00000130: d911 6a3d f34c 623d a090 b6bc a8ae afbb
00000140: fbf1 af3d 0297 98bd 804d a1bc 5393 3a3d
00000150: b80f 9cbd b3cb 0b3d 48c4 b9bc c7ad 52bc
00000160: 7a43 6b3d 6f9b fbbc 6055 99bd 6a39 58bd
00000170: 4b45 92bd dbda 30bd 234b 873d 73cf 14bd
00000180: 45af 76bd 0699 153d 11e0 8e3d 1c74 8939
00000190: a869 2d3c 9340 c03d 08ac ab3d 32c1 bd3d
000001a0: b072 6fbd cd37 ddbc e126 a23d 30ce 4b3d
000001b0: a7b4 4d3c fafc 90bc c2fa a6bd 132d 1dbd
000001c0: 6d7c 72bd 6428 3abd 440e a83d 00ca 59bd
000001d0: eb13 a1bd 580b c43d f15d 8cbd 3915 b43d
000001e0: 37f2 c0bd 6788 6e3d 86c8 bf3d 87d2 c7bd
000001f0: 525b ffbc daaf 5f3d 7e8d cbbd 979b 81bd
00000200: 3185 87bd ca92 4b3b 5ac8 c73d d7f6 1abd
00000210: e4e4 99bd c57b 8e3d f698 b1bc 9685 40bc
00000220: 93ad 6b3d 4f29 593d f9a7 cb3d 1bd2 3bbc
00000230: 1d8c 42bd 1df0 1bbd 0b51 97bd d7a6 43bd
00000240: e75a 24bc 2c29 babd f4f9 b2bd c774 7a3d
00000250: b2b4 b23d c9a5 6ab9 a3f9 c8bd a4b8 0b3d
00000260: 8949 883d fe2c c8bc edd9 713d cfca 97bd
00000270: b013 4cbd d773 8dbc c445 973d c609 9b3c
00000280: 001d 03bc d057 32bd b8ea 7fbd 7a87 96bb
00000290: 16d4 26bd 67e6 f03a 9390 b53d d730 33bd
000002a0: 62fb babd 5356 873c 67f6 67ba 9a7b 373d
000002b0: ca20 64bd be4f 8b3d c014 313d 0f59 1cbd
000002c0: 5714 c03d 6a55 fb3c c021 863c 9a8d c3bc
000002d0: a781 8dbc f759 463d 003d 7b3b 49ee b83d
000002e0: b9c5 76bd 7a36 dc3c 6845 973d cd52 67bc
000002f0: bdcc a23d 621f 6f3d 5057 113d a3b5 5e3d
00000300: cd1a 98bd 8354 483d 52b9 cb3d 9dc1 5a3d
00000310: 423e 56bd 9268 713d ab32 6abd b082 1cbd
00000320: c1ce 5e3d c793 47bd 9033 28bd 0701 f7bc
00000330: afa4 553d fae4 903d 6d34 ad3c 53d3 c13d
00000340: f015 37bd 63e2 c3bd c7c6 05bd 6182 1b3d
00000350: 0560 83bd f4c2 273d 322a 6d3c 1925 743d
00000360: a129 da3b 2b44 933d 535c b4bd 0d35 28bc
00000370: c479 9abc 9fdd a6bd 0a26 ba3d 335a a53d
00000380: 333c c93d 3380 d13c 8dd9 ab3d 03d8 c1bd
00000390: cde6 b83b 4519 a63c b3a7 7b3c fbe6 b63d
000003a0: f573 cbbd 2292 783c 9fff 803d 6533 bfbd
000003b0: c7eb 71bc a7a4 643c bbbb 8fbd f97c 663d
000003c0: 4d6f eb3b 07a3 513d c53b a13d d295 90bd
000003d0: 9a34 e33b 354d bbba ad93 a23c c3b3 08bd
000003e0: 8740 8fbc ed92 76bd 5a92 93bd b6ba 393d
000003f0: 009e 6ebb 4b31 c0bd b779 b4bd 8075 dfbc
-0.0027420784 -0.08227427 0.03642307 -0.0020717168 0.09159219 -0.08511597 -0.06446537 -0.02947546
0.09827596 0.04507367 -0.033707716 0.09300441 0.092786774 0.047816813 0.041250054 -0.0042699124
0.05394645 0.051290277 0.0034737748 -0.05309635 -0.1014328 0.01297318 -0.07417414 -0.032804165
-0.01645669 0.01935912 -0.08610316 0.026380144 0.06222016 0.06489729 0.008790599 -0.032508552
0.02674946 0.027700363 -0.071609095 0.03738534 -0.010172204 -0.0035161185 0.007490131 -0.04094867
-0.015150678 0.014211663 0.06409661 0.013817081 0.052934077 -0.07121799 -0.04230128 0.0086360285
0.07819536 -0.0125406915 0.012114501 -0.053342264 -0.037172113 -0.032779627 -0.0046988027 0.021530783
0.03815406 -0.0076587754 -0.014197617 0.0039295265 0.08876286 -0.0972271 -0.07177431 -0.046409827
-0.008442432 0.018251253 0.0861336 -0.054079346 -0.03236187 -0.026538998 -0.09633445 -0.05209673
0.09153675 -0.012587081 0.03342325 0.06854715 0.057145927 0.055249166 -0.02228576 -0.005361397
0.08591076 -0.074506775 -0.019690275 0.045550656 -0.076201856 0.03412981 -0.022676602 -0.012858815
0.057437398 -0.030713765 -0.07486987 -0.05278913 -0.07142123 -0.043177467 0.06606128 -0.03633065
-0.060225744 0.036522888 0.06976331 0.00026217184 0.010584272 0.093873166 0.08382422 0.09265365
-0.058458984 -0.027004147 0.07917572 0.049757183 0.012555278 -0.017698754 -0.08153297 -0.038373064
-0.059200693 -0.045448676 0.08205846 -0.053171158 -0.07865127 0.09572476 -0.068538554 0.087931104
-0.09421199 0.058235552 0.09364419 -0.09756952 -0.031171475 0.054611064 -0.09939097 -0.063285045
-0.06617201 0.0031062835 0.09755011 -0.03783306 -0.075143605 0.06957201 -0.021679383 -0.011750599
0.05753858 0.05301791 0.099441476 -0.011463667 -0.047496904 -0.038070787 -0.073885046 -0.047766533
-0.010031438 -0.09089884 -0.08739081 0.061146524 0.08725871 -0.00022377739 -0.098132394 0.034111634
0.06654651 -0.024435516 0.05904572 -0.074117295 -0.049823463 -0.01726715 0.073863536 0.018925559
-0.00800252 -0.043540776 -0.062479705 -0.004593787 -0.040729605 0.0018379212 0.08865466 -0.04374775
-0.09129979 0.016520655 -0.00088486675 0.04479561 -0.055695333 0.06802319 0.04323268 -0.03817087
0.093788795 0.030680377 0.016373515 -0.023871232 -0.017273737 0.04842564 0.003833592 0.09029824
-0.060247157 0.026881445 0.07386285 -0.014118862 0.07949207 0.05837954 0.03548366 0.05437244
-0.07426987 0.04890872 0.099474564 0.0534073 -0.052305467 0.058937617 -0.057177227 -0.03821057
0.054396395 -0.048724916 -0.0410648 -0.030151857 0.052159008 0.07074924 0.021143163 0.09464135
-0.044698656 -0.09564664 -0.032660272 0.037966136 -0.06414799 0.040957406 0.014475392 0.05960569
0.0066577946 0.071907364 -0.08806672 -0.010266555 -0.01885689 -0.081477396 0.090892866 0.08073845
0.09825935 0.025573825 0.08391104 -0.09465029 0.005642748 0.020275721 0.015359807 0.08930775
-0.099342264 0.0151715595 0.06298756 -0.093359746 -0.014765686 0.013955272 -0.070182286 0.056271527
0.007184899 0.051180866 0.07872728 -0.07059826 0.006933761 -0.0014289977 0.019845808 -0.03337456
-0.017486824 -0.060198713 -0.07205649 0.045344077 -0.0036410093 -0.09384402 -0.08812278 -0.027277708
