result/2robots_2000_hose/rl_model.pth (torch, 392547 bytes, 20 tensors)

mlp1.0.weight f4 [150, 13]
0	0x3d8216b6	0.06351988
1	0x3e61d04e	0.22052118
2	0xbd166386	-0.036716007
3	0xbc24f6f6	-0.010068646
4	0xbc236dd5	-0.009974916
5	0xbe3830a2	-0.17987302
6	0x3d3a7faa	0.045531906
7	0x3e90dd15	0.28293672
8	0x3db6584c	0.0890356
9	0x3dba4e2f	0.090969436
10	0x3dfef6d6	0.12449424
11	0xbdb4eaa5	-0.088338174
12	0x3e78c518	0.24293935
13	0x3dea9c55	0.11455599
14	0x3d10791b	0.035271745
15	0x3e1a58d6	0.1507295
16	0x3e863d9a	0.26218873
17	0xbe81453e	-0.2524814
18	0xbe1aed7a	-0.15129653
19	0xbd8cbfa9	-0.06872494
20	0x3e97d798	0.29656672
21	0xba826af7	-0.0009950091
22	0xbe941862	-0.28924853
23	0xbc0abef9	-0.008468383
24	0xbda32ba8	-0.07967311
25	0x3e404c0a	0.18779007
26	0xbcacdc78	-0.021101221
27	0x3e87f930	0.26557302
28	0x3e747797	0.23873745
29	0x3e463db3	0.19359474
30	0xbd8cdff4	-0.06878653
31	0x3e8e1ef4	0.2775799
32	0xbd884c9e	-0.066552386
33	0xbe36296b	-0.17789237
34	0xbe08576f	-0.13314603
35	0x3de89d40	0.11358118
36	0xbde16c38	-0.11006969
37	0x3d810a51	0.06300796
38	0xbe86351a	-0.26212388
39	0xbe845cf9	-0.25852183
40	0x3e03bb12	0.1286433
41	0xbdc793a2	-0.097449556
42	0x3d46eb1d	0.048564065
43	0xbd2f52e7	-0.04280367
44	0xbde67ae6	-0.1125391
45	0xbe8daef7	-0.2767255
46	0x3e06a139	0.13147439
47	0xbe3d7f9f	-0.18505715
48	0x3d3c69b0	0.04599923
49	0x3d572f0a	0.052535094
50	0xbdb9e556	-0.090769455
51	0xbda816b4	-0.08207455
52	0x3e3d9c95	0.18516763
53	0xbe6d0ac3	-0.23148637
54	0xbdea6aad	-0.11446128
55	0x3e80f200	0.2518463
56	0x3e307ec2	0.17235854
57	0x3dc07a31	0.09398306
58	0x3e056674	0.13027364
59	0xbe5dfeaf	-0.21679185
60	0x3b67538b	0.0035297598
61	0x3d6f27b0	0.05838746
62	0xbd9e5e9b	-0.07732888
63	0x3e153276	0.1457003
64	0x3e8c9c53	0.27463016
65	0xbe65a4ae	-0.22426102
66	0xbe55eef3	-0.20891933
67	0xbdeb1eba	-0.1148047
68	0x3e56d90f	0.20981239
69	0xbd9c252d	-0.07624278
70	0xbe90c8ca	-0.2827819
71	0x3d335bd1	0.043788735
72	0x3e6451ce	0.22296831
73	0x3d008542	0.031377085
74	0x3e2827dc	0.16421455
75	0x3e086af2	0.13322046
76	0x3e82ae90	0.25523806
77	0xbe7acc7b	-0.24492066
78	0xbd201442	-0.03908182
79	0xbd3f3b3d	-0.046687353
80	0x3d8dc52f	0.069223754
81	0x3db193b4	0.0867075
82	0x3e4adc9c	0.19810718
83	0xbdcb4818	-0.0992586
84	0x3e17f858	0.1484083
85	0x3da3fddf	0.080074064
86	0x3d3bfdca	0.04589633
87	0x3e2e3aac	0.17014569
88	0xbd743226	-0.059618138
89	0x3e8111ba	0.25208837
90	0xbe78856a	-0.24269643
91	0x3d8bef8d	0.068328
92	0xbd421e5a	-0.047392227
93	0xbe7c9ac4	-0.24668413
94	0x3e021974	0.12705022
95	0xbe9117cf	-0.28338477
96	0xbe093af5	-0.13401397
97	0x3e45047d	0.19239993
98	0x3c9953db	0.018716743
99	0x3e7e8d9f	0.24858712
100	0xbe45c943	-0.19315057
101	0x3e6fdd4c	0.23424262
102	0xbd09991b	-0.03359328
103	0x3e312199	0.17297973
104	0x3cdacc6b	0.026708802
105	0xbd9e646b	-0.07733997
106	0xbbeffe51	-0.007324018
107	0x3e22b2c9	0.15888514
108	0x3e24f974	0.16110784
109	0xbe450241	-0.19239141
110	0xbd2e7212	-0.042589255
111	0xbdbeb6a8	-0.09312183
112	0xbe675732	-0.22591856
113	0xbd805474	-0.06266108
114	0x3cda0eea	0.02661844
115	0xbe3548ae	-0.17703506
116	0xbe7332cc	-0.23749846
117	0x3d374d6a	0.044751562
118	0xba9de3b6	-0.0012046013
119	0xbd2053a7	-0.039142277
120	0x3e79794b	0.24362676
121	0xbe7fa07a	-0.2496356
122	0xbe88b7a2	-0.267026
123	0x3d40438c	0.046939418
124	0x3d4a9ab1	0.04946393
125	0xbd05c582	-0.03265906
126	0xbdc33938	-0.09532398
127	0x3cb14cbc	0.021643035
128	0xbe93a159	-0.28834036
129	0x3e88f0fe	0.26746362
130	0x3c89bfa7	0.01681502
131	0xbdd32efc	-0.10311696
132	0xbe3a2bbd	-0.18180747
133	0x3e4f4420	0.20240831
134	0xbddf3882	-0.1089945
135	0xbd1d3eb3	-0.038389873
136	0xbc3fd020	-0.011707336
137	0xbe763eae	-0.24047348
138	0x3c12eea6	0.008968031
139	0x3e719172	0.23590639
140	0xbe1c3b6b	-0.15257041
141	0xbe514f5a	-0.20440426
142	0x3de28a4a	0.11061533
143	0xbe1d08f6	-0.1533545
144	0xbe925489	-0.2858012
145	0xbded0e79	-0.11575026
146	0x3d86860c	0.06568536
147	0x3e724dad	0.23662443
148	0xbe5a8067	-0.21338044
149	0x3c9a5d9b	0.018843463
150	0x3e00326a	0.12519231
151	0x3e2e4f44	0.17022425
152	0x3d4f6a42	0.050638445
153	0xbd7216c8	-0.059103757
154	0x3e300080	0.1718769
155	0xbe55404a	-0.20825306
156	0x3de644ec	0.112436146
157	0xbd97158d	-0.07377157
158	0xbd0f5220	-0.03499043
159	0x3e45e342	0.19324973
160	0x3d368015	0.044555742
161	0xbdbc19e6	-0.09184627
162	0xbdf19b87	-0.117972426
163	0x3e451d91	0.1924956
164	0x3e8683f3	0.26272544
165	0xbe1c734b	-0.15278356
166	0xbda78413	-0.08179488
167	0x3de38972	0.111102
168	0x3e0ebda8	0.13939536
169	0x3e28c82d	0.16482611
170	0xbd8df47e	-0.06931399
171	0xbdb95414	-0.0904924
172	0xbe2a85ce	-0.16652605
173	0x3d70db41	0.058802847
174	0xbc9862bc	-0.018601768
175	0xbe769674	-0.24080831
176	0xbe0d7e00	-0.13817596
177	0xbe7ab234	-0.24482042
178	0x3e972568	0.29520726
179	0xbd802df5	-0.062587656
180	0x3e4bc765	0.19900282
181	0xbe179818	-0.14804113
182	0x3e143965	0.1447502
183	0xbd87411c	-0.066042155
184	0x3e41c685	0.18923385
185	0x3e54e93b	0.20792095
186	0x3cef1627	0.029185368
187	0xbdb78e22	-0.089626566
188	0x3e3f277f	0.1866741
189	0xbd26cce6	-0.04072275
190	0x3da47d66	0.0803173
191	0x3e7eb432	0.24873427
192	0x3d96156c	0.07328305
193	0x3d38f29e	0.045153253
194	0x3c979622	0.018504206
195	0x3e42d672	0.19027117
196	0xbe704861	-0.2346511
197	0x3e178bfc	0.14799494
198	0xbdfe1cce	-0.12407838
199	0xbdfa275f	-0.12214541
200	0xbe897586	-0.26847476
201	0xbd922bc9	-0.071372576
202	0xbd8d4b0c	-0.0689908
203	0xbe831521	-0.25602058
204	0x3e84b6c5	0.25920692
205	0xbe52c46e	-0.20582744
206	0xbd07f0d5	-0.03318866
207	0xbcbd025b	-0.023072412
208	0xbe7a757e	-0.24458882
209	0x3dd4a3ab	0.1038278
210	0xbe27cf5f	-0.163877
211	0xbd8686b1	-0.06568659
212	0x3de927d1	0.113845475
213	0xbd0c5ee9	-0.0342702
214	0x3ce24091	0.027618678
215	0x3e3217cc	0.1739189
216	0x3e5095fb	0.20369713
217	0xbdc6b9e2	-0.09703423
218	0xbcac67b9	-0.021045553
219	0x3e88ebff	0.2674255
220	0x3dff4f75	0.12466327
221	0xbd319378	-0.043353528
222	0xbe2e802d	-0.17041083
223	0xbe671825	-0.22567804
224	0x3e1e7efd	0.1547813
225	0x3e752eba	0.23943606
226	0xbe9781c8	-0.29591203
227	0x3e0aadb8	0.13542831
228	0x3e8467fc	0.25860584
229	0xbe24a641	-0.16079046
230	0xbde0f40b	-0.109840475
231	0xbe28c8ea	-0.16482893
232	0x3e599d88	0.212515
233	0x3d5126d4	0.05106242
234	0xbb3aec9d	-0.002852238
235	0x3dbf53f2	0.09342183
236	0xbe808fad	-0.25109616
237	0x3e280463	0.16407923
238	0xbd8cae51	-0.06869186
239	0x3d5ac002	0.05340577
240	0xbbfec934	-0.00777545
241	0xbe8b9e78	-0.2726934
242	0xbe6d3631	-0.23165204
243	0x3e1fa032	0.15588453
244	0x3de7fb75	0.113272585
245	0xbe057620	-0.13033342
246	0x3c9f645d	0.019457037
247	0x3da8f753	0.08250298
248	0x3e111ee3	0.14171939
249	0xbd215205	-0.03938486
250	0xbdef26de	-0.11677335
251	0x3e035c2d	0.12828131
252	0xbd341664	-0.043966666
253	0x3dbe6514	0.09296623
254	0xbe437ad0	-0.19089818
255	0xbe9629f4	-0.29328883

mlp1.0.bias f4 [150]
0	0xbe7d407c	-0.2473163
1	0x3cf6c67d	0.030123943
2	0xbd640e75	-0.05567785
3	0x3dbdbc3e	0.0926442
4	0xbdfec8c8	-0.1244064
5	0xbe8b1f01	-0.27172092
6	0xbc9c4c43	-0.019079333
7	0x3e63ae68	0.222345
8	0x3cdbd6ff	0.026835917
9	0x3e5fcec9	0.21856226
10	0xbe2afe50	-0.16698575
11	0xbd9143c2	-0.07093002
12	0xbe28f405	-0.16499336
13	0x3e3b88bd	0.1831388
14	0xbc820b49	-0.015874522
15	0x3e2b5595	0.16731866
16	0x3e622c55	0.22087224
17	0x3e069623	0.1314321
18	0x3e6f52b4	0.23371392
19	0x3dde513c	0.10855338
20	0xbdbbf51c	-0.0917761
21	0x3e6fc5d0	0.23415303
22	0x3ddcb6d9	0.10777063
23	0x3e5776bd	0.21041389
24	0xbe8f79f6	-0.28022736
25	0x3e977bc1	0.29586604
26	0xbe832746	-0.256159
27	0xbe81b201	-0.2533112
28	0x3dd002b6	0.10156767
29	0x3e5fdd5f	0.2186179
30	0xbd125037	-0.03572103
31	0x3de9d235	0.11417047
32	0xbe270d08	-0.16313565
33	0x3e3df1b0	0.18549228
34	0xbdcff10e	-0.101533994
35	0xbe667b54	-0.22507983
36	0xbd6b3e08	-0.057432204
37	0xbcc41770	-0.023936957
38	0x3e6c062d	0.23049231
39	0x3d60a879	0.054848168
40	0x3e2eccdb	0.17070334
41	0x3d454cbd	0.048168886
42	0x3e6291e9	0.22125973
43	0xbb72828b	-0.003700408
44	0x3e31af40	0.17352009
45	0xbdfb65fd	-0.12275312
46	0x3e2b4c1a	0.16728249
47	0x3d8e3454	0.069435745
48	0x3e4fb26b	0.20282905
49	0xbe03ee6c	-0.1288392
50	0x3e7b61ff	0.24549101
51	0x3d160c47	0.036632802
52	0x3e11dfd3	0.14245538
53	0x3e71ee0d	0.23625965
54	0x3e2b5401	0.16731264
55	0xbc2995c7	-0.010350651
56	0xbe0d527d	-0.13800998
57	0x3da7e8ba	0.08198686
58	0x3d81dd36	0.06341021
59	0x3d3808b7	0.044930186
60	0xbd501ba7	-0.05080762
61	0x3e213fcd	0.15746994
62	0xbb0dfed8	-0.0021666791
63	0xbe68f84d	-0.22750969
64	0xbd0eb0b4	-0.034836486
65	0x3e950e2b	0.29112372
66	0x3e572223	0.21009116
67	0x3e43edac	0.19133633
68	0x3e533144	0.20624262
69	0xbdc4df45	-0.09612898
70	0xbe0ff039	-0.14056481
71	0xbe3f0da3	-0.18657546
72	0xbe890840	-0.26764107
73	0xbe8b2965	-0.2718002
74	0xbd5c4f75	-0.053786714
75	0x3e42cf70	0.19024444
76	0x3dbb4404	0.09143832
77	0xbe67868f	-0.22609924
78	0xbe7af9e2	-0.24509385
79	0x3e3f21bc	0.18665212
80	0x3e3e49fa	0.18582907
81	0x3d139d48	0.036038667
82	0x3e39a0c9	0.18127741
83	0xbcd7cb04	-0.026341923
84	0xbe66a730	-0.22524714
85	0xbe4c0732	-0.1992462
86	0xbe68f7fd	-0.2275085
87	0xbe8b31cb	-0.27186427
88	0x3e1fea33	0.15616684
89	0x3de05f91	0.10955728
90	0x3dab90b2	0.08377208
91	0xbd705c9e	-0.058682077
92	0xbd6fdb0e	-0.058558516
93	0xbdc4aca8	-0.09603244
94	0x3e015fca	0.12634197
95	0xbe1c3153	-0.1525319
96	0xbc132b3d	-0.008982477
97	0xbe381389	-0.17976202
98	0x3e869499	0.26285246
99	0xbe4b8b90	-0.19877458
100	0x3da04a3c	0.07826659
101	0xbe722573	-0.23647098
102	0x3e428d97	0.18999325
103	0x3db41156	0.08792369
104	0x3e5da98b	0.21646707
105	0xbcebce9d	-0.028785044
106	0x3e7dc862	0.24783471
107	0xbe832897	-0.25616905
108	0xbcd3b813	-0.02584461
109	0xbe23c12b	-0.15991656
110	0xbe70d08d	-0.23517056
111	0xbe16c4da	-0.1472353
112	0xbdc02f22	-0.0938399
113	0x3dbcac28	0.09212524
114	0xbe64a5b5	-0.22328837
115	0x3caef1a3	0.021355456
116	0xbd3bb250	-0.04582435
117	0xbe2e3ceb	-0.17015426
118	0xbe643c1a	-0.22288552
119	0x3d6222d5	0.055209
120	0xbe7c82c2	-0.24659255
121	0xbe8863ac	-0.26638544
122	0x3e6ee422	0.23329213
123	0x3d96006f	0.073243015
124	0x3d748afd	0.059702862
125	0xbe5d7ff2	-0.21630839
126	0x3e2faa6e	0.17154858
127	0x3e957281	0.29188922
128	0xbd17c1a7	-0.037049916
129	0x3e45a50e	0.19301245
130	0x3e0b967f	0.13631628
131	0x3ccefe06	0.025267612
132	0x3e77f473	0.24214344
133	0xbd7e3962	-0.062066443
134	0x3e320b8b	0.17387216
135	0x3e2f3c34	0.1711281
136	0x3d9190f5	0.071077265
137	0x3e4ace29	0.19805206
138	0xbe44d2b2	-0.19220999
139	0xbe86a4fb	-0.26297745
140	0xbe1ef2f7	-0.15522371
141	0xbdb2cd94	-0.08730617
142	0xbe0cd779	-0.13754071
143	0x3e1674a7	0.14692937
144	0xbd03c6ca	-0.032172002
145	0x3d29173f	0.041281935
146	0xbe28a5dd	-0.16469522
147	0xbe39e895	-0.18155129
148	0xbdd8c99e	-0.105853304
149	0x3d479956	0.048730217

mlp1.2.weight f4 [100, 150]
0	0x3c5f8b3f	0.013644039
1	0x3d9a86fc	0.075452775
2	0xbd1215ff	-0.03566551
3	0x3d96d311	0.073644765
4	0xbd246262	-0.040132888
5	0xbd4efd83	-0.050534736
6	0x3d0d5ceb	0.03451244
7	0x3d2094e8	0.039204508
8	0xb9dfca67	-0.00042684676
9	0xbcbce919	-0.023060368
10	0xbc8a6840	-0.016895413
11	0xbcda2bf4	-0.026632287
12	0x3cb31bbc	0.02186381
13	0xbd0c1266	-0.034197234
14	0xbad38bf0	-0.0016139727
15	0xbd2a0713	-0.041510653
16	0xbd5aa7e2	-0.05338276
17	0x3cb30c1b	0.021856358
18	0xbbe9b945	-0.0071326816
19	0x3cab4cfa	0.020910729
20	0xbd30e537	-0.043187346
21	0xbd5e88fc	-0.054329857
22	0xbc8ee5ee	-0.017443623
23	0xbc515866	-0.0127774235
24	0xbc1ffde2	-0.00976512
25	0x3ced1fed	0.028945887
26	0x3d883d65	0.06652335
27	0xbd9017e9	-0.070358105
28	0x3cd2e6d8	0.02574484
29	0x3c9ab23b	0.018883815
30	0x3cfaba1a	0.030606318
31	0x3da0c7a3	0.07850578
32	0xbbdd2c05	-0.0067496323
33	0xbd815540	-0.06315088
34	0x3d964047	0.07336479
35	0xbda6721f	-0.081272356
36	0xbb08f35c	-0.0020897007
37	0xbcfaf389	-0.030633705
38	0xbd6be7f8	-0.05759427
39	0xbd3eecf6	-0.046612702
40	0xbc1d04f5	-0.009583701
41	0xbab08891	-0.0013468434
42	0x3b1cff39	0.0023955835
43	0xbcac4593	-0.02102927
44	0x3d0a482b	0.03376023
45	0xbca74fe2	-0.020423833
46	0x3d778327	0.06042781
47	0xbc081e4b	-0.008308004
48	0xbc9b21a8	-0.018936947
49	0xbb5dc8d2	-0.0033841622
50	0xbd92aea0	-0.07162213
51	0x3d486896	0.048927866
52	0xbce6204e	-0.028091576
53	0x3ccde123	0.025131768
54	0xbb4dccae	-0.0031402516
55	0x3bccd597	0.006251048
56	0x3d34d923	0.04415239
57	0xbd504940	-0.050851107
58	0x3d807351	0.06271995
59	0xbd59deef	-0.05319112
60	0xbd9e2c10	-0.07723248
61	0xbd41c0c4	-0.047302976
62	0x3d98817d	0.07446573
63	0x3d0b37b4	0.03398867
64	0x3c05d6af	0.00816886
65	0x3d6c7250	0.057726204
66	0xbd9c75c0	-0.076396465
67	0xbda44c5d	-0.08022378
68	0xbd9b1263	-0.07571866
69	0x3d141a0a	0.036157645
70	0xbad74268	-0.0016422989
71	0xbd687772	-0.056754537
72	0x3da48bf8	0.080345094
73	0xbd4d95c6	-0.050191663
74	0x3c339636	0.010961106
75	0x3d7cce0e	0.061719947
76	0x3cfd251e	0.030901488
77	0xbd6752eb	-0.05647556
78	0xbdb6ab51	-0.08919395
79	0xbcb92565	-0.022600839
80	0xbc995adb	-0.018720081
81	0x3bc189b9	0.0059063104
82	0xbd4bb2b9	-0.04973099
83	0x3d27ad68	0.040936857
84	0x3dc3ec72	0.09566583
85	0xbd9957fd	-0.074874856
86	0xbc893198	-0.016747281
87	0xbd741c63	-0.059597384
88	0x3d304544	0.043034807
89	0x3c1513c7	0.009098954
90	0xbd95fec7	-0.073239855
91	0xbcc40def	-0.023932425
92	0xbd2b23c2	-0.04178215
93	0xbd5b2a6e	-0.05350726
94	0xbd938130	-0.07202375
95	0x3d280196	0.041017137
96	0xbcbfd09e	-0.023414906
97	0x3dbc2a07	0.091877036
98	0x3ce6c6ad	0.028170908
99	0x3d317885	0.043327827
100	0x3d36384a	0.044487275
101	0xbd3f8dc6	-0.046766065
102	0xbd9dddc4	-0.07708314
103	0xbda4d949	-0.08049256
104	0xbd8ac998	-0.06776732
105	0xbd87ca1c	-0.06630346
106	0x3d85a8dc	0.06526348
107	0x3d89ae81	0.06722737
108	0xbd5012a3	-0.050799023
109	0xbcde4225	-0.02713115
110	0x3b31f5ad	0.002715449
111	0x3d8d1dbe	0.068904385
112	0x3c10d3ce	0.008839561
113	0x3d15600b	0.036468547
114	0xbcf95747	-0.030437125
115	0x3bdd95f0	0.0067622587
116	0x3b619d3f	0.0034426001
117	0x3d8989b8	0.06715721
118	0x3d0fdae9	0.03512088
119	0x3bc7f92b	0.006102701
120	0x3da369fb	0.079791985
121	0xbceb7dcd	-0.02874651
122	0xbc833568	-0.016016677
123	0xbd9409cf	-0.07228433
124	0x3d593c2f	0.05303591
125	0x3d8371cc	0.064181894
126	0xbc174d38	-0.009234719
127	0x3d9a8ab9	0.075459905
128	0x3c1dfd8d	0.009642971
129	0xbd9e900a	-0.07742317
130	0x3cdb3a19	0.026761102
131	0xbd5fe942	-0.05466581
132	0xbc9cceaa	-0.019141514
133	0x3c0c3818	0.008558296
134	0xbdb48df7	-0.0881614
135	0x3d4c31f3	0.049852323
136	0x3cd9d5c9	0.026591199
137	0x3d83a2cc	0.064275354
138	0xbd3148c7	-0.043282297
139	0xbcb1f366	-0.021722507
140	0x3ca6bd60	0.020353973
141	0xbda1f849	-0.07908685
142	0xbc890097	-0.016723914
143	0xbbd70033	-0.006561303
144	0xbc26fc08	-0.010191925
145	0xbd797857	-0.06090578
146	0x3c18dc3c	0.009329852
147	0x3daca869	0.08430559
148	0x3d7733ed	0.060352255
149	0x3d6bc810	0.05756384
150	0xbd4c5dc9	-0.049894128
151	0xbd1d9b96	-0.038478456
152	0x3cca78d7	0.024715824
153	0xbc6d7a78	-0.014494531
154	0x3cb6d8cc	0.022320174
155	0xbd90f09c	-0.070771426
156	0xbd9a3ed4	-0.07531515
157	0xbd65db22	-0.056117184
158	0xbc91b859	-0.0177881
159	0x3cc38571	0.02386734
160	0x3d3c0dff	0.045911785
161	0x3c899d87	0.016798748
162	0xbd76767c	-0.06017159
163	0xbd37bc1d	-0.044857133
164	0xbda18489	-0.07886607
165	0xbd139352	-0.036029167
166	0xbd024fab	-0.03181426
167	0x3bc2288a	0.005925243
168	0x3d9d5303	0.07681849
169	0xbc125232	-0.00893073
170	0x3b3c07aa	0.0028691092
171	0xbd366cc3	-0.044537317
172	0x3d288361	0.041140918
173	0xbbfb4520	-0.0076681525
174	0x3d44a457	0.04800829
175	0xbba85891	-0.005137511
176	0x3c129769	0.008947232
177	0x3cd50479	0.02600311
178	0x3db11ac8	0.08647686
179	0x3c25a20f	0.010109439
180	0x3d9afc66	0.075676724
181	0xbcea2e49	-0.028586524
182	0x3d452b2c	0.048136875
183	0x3d8b5d97	0.0680496
184	0xbd0d4670	-0.034491003
185	0xbcd65c1e	-0.026166972
186	0x3da5a21c	0.080875605
187	0xbd42714c	-0.04747133
188	0x3d4bd557	0.049764004
189	0xbd2ff9f0	-0.04296297
190	0xbc8411b4	-0.016121723
191	0x3ca3c54a	0.019991536
192	0xbd8bd2e9	-0.06827337
193	0xbd990b7b	-0.07472893
194	0x3d93f3bf	0.07224225
195	0xbc94576d	-0.018108094
196	0x3d244479	0.040104363
197	0x3d4ccf49	0.05000237
198	0x3a953833	0.0011384547
199	0x3d7d6c0c	0.06187062
200	0x3d5173f6	0.05113598
201	0xbd04211d	-0.03225814
202	0x3d6ccbd7	0.057811584
203	0xbd81bff4	-0.0633544
204	0xbc133cad	-0.008986634
205	0xb8e50ddb	-0.00010922152
206	0xbca0231d	-0.019547993
207	0xbc996edc	-0.01872962
208	0x3db5df42	0.08880474
209	0x3d818273	0.06323709
210	0x3df12576	0.11774723
211	0x3d211243	0.039324056
212	0x3d968b6e	0.07350813
213	0x3cdb9b66	0.026807498
214	0x3d9653fe	0.07340239
215	0xbd5c0a27	-0.05372062
216	0xbd42871d	-0.047492135
217	0x3c994d1a	0.018713523
218	0xbd905fc1	-0.070495136
219	0xbcfb2afc	-0.030660145
220	0xbd2c01a4	-0.041993752
221	0x3c84e897	0.016224189
222	0xbd738d0f	-0.059460696
223	0xbdac5a87	-0.08415704
224	0x3e065c97	0.13121258
225	0x3d286824	0.04111494
226	0xbdbf8288	-0.09351069
227	0x3c05060b	0.008119117
228	0xbd82dc20	-0.06389642
229	0x3da1c311	0.07898534
230	0xbd0f7167	-0.03502026
231	0xbd1f5b27	-0.03890529
232	0x3d21e9a2	0.03952945
233	0x3d69d9d5	0.057092506
234	0x3d5342a7	0.051577237
235	0xbd175057	-0.036941852
236	0xbd6caf1f	-0.057784196
237	0xbcc6c44e	-0.024263527
238	0xbd73a02d	-0.059478927
239	0x3d6ada60	0.057337165
240	0xbbd98707	-0.006638411
241	0xbc9b3119	-0.01894431
242	0xbd3bae89	-0.045820747
243	0x3d9f59c9	0.07780797
244	0xbd36d69a	-0.044638254
245	0xbcb92d51	-0.022604616
246	0x3c82cf4d	0.01596799
247	0xbdc63981	-0.09678937
248	0xbc87f223	-0.016594952
249	0xbd65606f	-0.05600017
250	0xbb603b3c	-0.0034214994
251	0x3c803e58	0.015654728
252	0xbc4d9df1	-0.012549863
253	0xbd7a650e	-0.06113153
254	0xbd558583	-0.05212928
255	0xbd8bca7c	-0.0682573

mlp1.2.bias f4 [100]
0	0xbb8daafb	-0.004323361
1	0x3cdde63c	0.027087323
2	0x3d1b4eb8	0.03791687
3	0x3d909a60	0.07060695
4	0x3d88d9f4	0.06682196
5	0x3c5ebb15	0.0135944085
6	0xbc9bbe54	-0.019011654
7	0xbc9a9500	-0.018869877
8	0xbc8edb0e	-0.017438438
9	0x3d691225	0.05690207
10	0x3b5f4a50	0.0034071393
11	0xbd182baa	-0.037151016
12	0xbda4030e	-0.08008395
13	0xbd6ceddd	-0.05784403
14	0xbdb64a9a	-0.08900948
15	0x3d908bf3	0.07057943
16	0xbcf1c2f3	-0.029511904
17	0xbd8c7abb	-0.068593465
18	0xbc112d78	-0.008860938
19	0xbd607850	-0.05480224
20	0x3aa8c662	0.0012876505
21	0xbd1fd695	-0.039023
22	0xbda2aa0a	-0.079425886
23	0x3d5392e1	0.051653747
24	0x3d6a54e0	0.05720985
25	0xbb6b2bc6	-0.0035884245
26	0xbd45a055	-0.048248608
27	0xbd109672	-0.035299726
28	0x3d83ca93	0.06435122
29	0xbbc6a8eb	-0.006062617
30	0xbd9ea105	-0.07745556
31	0xbdea121c	-0.11429235
32	0x3d1e0427	0.03857818
33	0x3c019e58	0.007911287
34	0x3d210ced	0.039318968
35	0xbc0644d4	-0.008195121
36	0xbd4eec79	-0.050518487
37	0xbd7c7185	-0.0616317
38	0x3d4d613a	0.05014155
39	0x3d1d97e2	0.038474925
40	0xb9a0a54d	-0.00030640737
41	0x3d7cd085	0.061722297
42	0x3d46bf2c	0.04852216
43	0x3dd4d2c6	0.10391764
44	0x3d1688ba	0.036751486
45	0xbab8089f	-0.0014040655
46	0xbd6a48cc	-0.05719833
47	0xbd9beab4	-0.076131254
48	0xbd947822	-0.07249476
49	0x3d0026d7	0.03128704
50	0xbc683edb	-0.014175142
51	0x3b8ffad4	0.0043939147
52	0xbd13d490	-0.036091387
53	0x3d1ef662	0.038809188
54	0x3dd2dc3a	0.10295911
55	0x3d8649a6	0.06557016
56	0xbc6013fd	-0.013676641
57	0x3d3ce8fb	0.046120625
58	0xbdd49a1d	-0.10380957
59	0x3d94f4ac	0.0727323
60	0x3d8e5104	0.06949046
61	0xbb6c32b1	-0.0036040957
62	0xbca3aa31	-0.019978615
63	0xbd991487	-0.074746184
64	0x3bb4cb44	0.005517395
65	0x3d004651	0.03131706
66	0xbd2b21ca	-0.04178027
67	0xbdaf1248	-0.08548409
68	0x3d7cca3f	0.061716314
69	0xbd8bed5b	-0.06832381
70	0xbb01a3f5	-0.0019781564
71	0x3d82eab3	0.063924216
72	0x3cf55aba	0.029950488
73	0x3d5d9657	0.054098453
74	0x3d16a66f	0.036779817
75	0xbc5686dd	-0.013093677
76	0xbd6264d9	-0.055271957
77	0xbd2b55a4	-0.04182972
78	0x3d900138	0.070314825
79	0x3d328374	0.043582395
80	0x3ccaeee3	0.024772113
81	0x3d2e7497	0.042591657
82	0xbc4afe7e	-0.012389777
83	0x3d25b321	0.040454034
84	0x3d662442	0.056186922
85	0x3d8ba8a0	0.06819272
86	0x3d552bf6	0.052043878
87	0x3db6b012	0.089203015
88	0xbcb1591d	-0.021648938
89	0x3d6ba311	0.05752856
90	0x3daa9513	0.08329215
91	0xbcb8d491	-0.022562297
92	0x3d5b541f	0.05354702
93	0xbc8932d0	-0.016747862
94	0x3c9ca544	0.019121774
95	0xbd82dc72	-0.06389703
96	0x3c4eff7e	0.012634156
97	0x3c81f8ba	0.015865672
98	0xbd2a1368	-0.041522413
99	0xbd5812e9	-0.05275241

mlp2.0.weight f4 [100, 100]
0	0x3c770c9c	0.01507869
1	0xbc91fe8c	-0.017821573
2	0x3dbe0822	0.09278895
3	0xbd65012d	-0.055909324
4	0xbda05d8b	-0.07830342
5	0xbc94fa9f	-0.018185912
6	0x3c979951	0.018505724
7	0x3d0838f7	0.03325745
8	0xbdba4c60	-0.090965986
9	0xbd81ab8e	-0.063315496
10	0xbdad5478	-0.08463377
11	0x3d7bd05b	0.061478
12	0xbbe1f9c9	-0.006896232
13	0xbd6eff8b	-0.058349174
14	0xbd91a1e3	-0.071109556
15	0x3da316a3	0.07963302
16	0xbd13dd74	-0.036099866
17	0xbd92c4eb	-0.07166465
18	0xbc11469b	-0.008866931
19	0x3d14d0b0	0.036331832
20	0xbd883d98	-0.06652373
21	0x3d9b18d3	0.07573094
22	0x3d8b7ab1	0.06810511
23	0xbcb3563b	-0.021891704
24	0x392a0798	0.00016215292
25	0xbd9588af	-0.07301461
26	0x3d009e85	0.031401176
27	0x3dd066e6	0.10175876
28	0x3d8c445a	0.068489745
29	0x3dc0e4d4	0.094186455
30	0x3d554f46	0.052077554
31	0x3dcc5755	0.09977595
32	0xbbc55bd4	-0.0060229097
33	0x3cb9c886	0.022678625
34	0x3dafad1f	0.08577942
35	0x3dab701f	0.08370995
36	0xbdcb6334	-0.09931031
37	0xbdaedb8a	-0.085379675
38	0xbca97b83	-0.020688778
39	0xbdb5d124	-0.08877781
40	0xbd8bcf62	-0.068266645
41	0x3dc9c9ee	0.09852968
42	0xbd79fdda	-0.061033107
43	0xbd986eb8	-0.07442993
44	0xbd31e3ad	-0.04343002
45	0x3c86f98a	0.016476411
46	0x3cf72daa	0.030173142
47	0x3ce755b4	0.028239109
48	0xbd0bec85	-0.03416111
49	0x3d5603eb	0.05224983
50	0xbccd5162	-0.02506322
51	0xbda8943a	-0.08231397
52	0x3cf0cea0	0.029395401
53	0x3cccae7b	0.024985543
54	0xbd9a1b32	-0.07524718
55	0x3d8ccce7	0.068750195
56	0xbda9057a	-0.08252998
57	0xbc94f057	-0.01818101
58	0x3dc2c319	0.09509868
59	0xbdabaaf9	-0.0838222
60	0xbd4933fd	-0.049121846
61	0xbd853930	-0.06505048
62	0xbd4e4979	-0.050363038
63	0xbd44c869	-0.04804269
64	0xbd382235	-0.044954497
65	0xbb528e8a	-0.0032128417
66	0x3b2aca4d	0.0026060522
67	0xbcbb76cb	-0.022883793
68	0xbd891909	-0.06694228
69	0xbc4733f9	-0.012158387
70	0xbcc44b6d	-0.023961747
71	0x3c31e519	0.010857844
72	0x3da34adb	0.07973262
73	0xbcd9a906	-0.026569854
74	0xbc4eddf9	-0.012626165
75	0xbda8f305	-0.08249477
76	0xbdadd058	-0.08487004
77	0x3d05aa89	0.032633338
78	0x3d0d7dd0	0.034543812
79	0xbd304335	-0.043032844
80	0xbc0387e3	-0.008028003
81	0x3d81ab0b	0.06331452
82	0x3d97fc30	0.07421148
83	0xbc18fa8f	-0.009337082
84	0x3d93e5fa	0.07221599
85	0xbd5dd525	-0.05415835
86	0xbbbbf166	-0.005735564
87	0x3d8e0f13	0.06936469
88	0x3cceb38b	0.025232097
89	0x3d1f875a	0.03894744
90	0xbdbf0a73	-0.09328165
91	0xbd0b574e	-0.034018807
92	0x3ccf616b	0.025315007
93	0xbc4c31b1	-0.012463019
94	0x3d97d4d2	0.07413639
95	0x3dc2d0c5	0.09512476
96	0x3d9e5de0	0.07732749
97	0x3b941726	0.004519361
98	0xbcf50100	-0.029907703
99	0xbc8efa74	-0.01745341
100	0x3d6bd82b	0.0575792
101	0x3c83f4d3	0.016107952
102	0xbc8685ed	-0.016421283
103	0x3d67af1a	0.056563474
104	0xbd520176	-0.051270925
105	0x3d5263ca	0.051364698
106	0x3d7d9548	0.061909944
107	0xbdb8d25a	-0.090244964
108	0xbc245bab	-0.010031621
109	0xbd6efb1a	-0.058344938
110	0xbca52bce	-0.02016249
111	0xbd8a75a4	-0.067607194
112	0xbc71c59f	-0.014756589
113	0x3cbcc49e	0.023042973
114	0x3db875a3	0.090068124
115	0xbcfc64a6	-0.030809712
116	0x3d1cea21	0.03830922
117	0x3dcc9f9a	0.09991379
118	0x3d277585	0.04088356
119	0x3d26ba3e	0.04070496
120	0xbdb03035	-0.08602945
121	0xbd34c807	-0.044136073
122	0xbce7d32d	-0.028298939
123	0xbda14f0c	-0.07876405
124	0xbd5abc9e	-0.053402536
125	0xbca61c5d	-0.020277197
126	0x3d6e8410	0.058231413
127	0x3c5a3770	0.013318881
128	0xbd8a0118	-0.0673849
129	0x3b921233	0.004457736
130	0xbd5c5c77	-0.05379912
131	0x3cabdaa8	0.020978287
132	0x3dc58c13	0.09645858
133	0xbcc78d00	-0.024359226
134	0x3db7a09f	0.08966183
135	0xbc3c6580	-0.011498809
136	0xbdbb3263	-0.0914047
137	0x3a8ba39a	0.0010653615
138	0x3cfbc388	0.030732885
139	0x3dabd7fc	0.08390805
140	0xbd9d1882	-0.0767069
141	0x3d497f24	0.049193516
142	0x3da19282	0.07889272
143	0xbb1bf070	-0.0023794435
144	0xbcfc753a	-0.030817617
145	0xbdc7057f	-0.09717845
146	0xbd9a4e69	-0.07534487
147	0xbdc7c379	-0.0975408
148	0x3db307ca	0.0874172
149	0xbd72b033	-0.059250068
150	0xbdaa4e8f	-0.08315765
151	0xbd973f48	-0.07385117
152	0xbd17d831	-0.03707141
153	0xbcb0e678	-0.021594271
154	0xbd221812	-0.039573736
155	0x3da54c92	0.08071245
156	0x3d63a2d3	0.055575203
157	0x3d2203cd	0.039554406
158	0xbd029a19	-0.03188524
159	0xbd8d7982	-0.069079414
160	0xbd4e8085	-0.050415535
161	0x3c9e2b78	0.019307837
162	0xbd4615bc	-0.04836057
163	0x3c5b1407	0.013371474
164	0xbd327a46	-0.04357364
165	0x3d6e703d	0.058212508
166	0x3d398c01	0.045299534
167	0xbd9a0cc3	-0.07521965
168	0xbba6da5b	-0.005091948
169	0xbdbddf0f	-0.09271061
170	0x3c2097cd	0.009801817
171	0xbcd679c5	-0.026181111
172	0xbd8268d4	-0.06367651
173	0xbd1f37e4	-0.03887166
174	0xbd98094e	-0.0742365
175	0x3b8baa2a	0.0042622285
176	0xba69bf33	-0.00089167355
177	0xbdbc26eb	-0.091871105
178	0xbd9e9acb	-0.07744368
179	0x3d109d61	0.03530634
180	0xbdcab18e	-0.09897147
181	0xbdafe825	-0.085892
182	0xbda24117	-0.07922571
183	0x3c49d4df	0.012318819
184	0xbdb29488	-0.08719736
185	0x3d02bc4d	0.03191786
186	0xbda97e00	-0.08275986
187	0x3d15a327	0.036532547
188	0x3d8feb2d	0.07027278
189	0x3cec5378	0.028848395
190	0xbd0c219c	-0.03421174
191	0xbdaf1f10	-0.085508466
192	0x3dc6ab5a	0.097006515
193	0x3baad2b3	0.0052131056
194	0x3d7d69e7	0.061868574
195	0x3c44d9ec	0.012014847
196	0xbcf82e6a	-0.03029557
197	0x3d4d3a0d	0.05010419
198	0x3d837822	0.06419398
199	0x3c22944b	0.009923051
200	0x3da0e0d4	0.078553826
201	0x3dcf3a9e	0.10118602
202	0xbd7cd8ca	-0.061730184
203	0x3c69f950	0.014280632
204	0x3db99771	0.09062088
205	0xbbb1163f	-0.0054042633
206	0x3d3771c6	0.044786237
207	0xbdb7bdb0	-0.08971727
208	0xbd449bce	-0.04800015
209	0xbb7458c8	-0.0037284363
210	0xbd9986e4	-0.074964315
211	0xbd16c9e0	-0.036813617
212	0x3db67b50	0.08910239
213	0x3d254eb3	0.040358257
214	0x3d536b52	0.05161602
215	0xbdd2b183	-0.10287764
216	0xbd2d361e	-0.04228794
217	0x3dbe1086	0.09280495
218	0x3cd7a7c3	0.026325112
219	0x3d930a57	0.071797065
220	0xbd08f09f	-0.0334326
221	0x3d8ebd4a	0.06969698
222	0xbdc6cdd2	-0.09707226
223	0xbd9d4ef2	-0.07681073
224	0x3b04acfc	0.0020244708
225	0x3d3bfe67	0.045896914
226	0xbd9cd880	-0.076584816
227	0x3d8eac46	0.06966452
228	0x3d2767df	0.040870544
229	0xbda1218e	-0.07867728
230	0x3d7ebe6e	0.062193327
231	0xbd22fb4f	-0.039790448
232	0x3cb71c49	0.022352355
233	0xbd9b0b11	-0.0757047
234	0x3dca0881	0.09864903
235	0x3d986df3	0.07442846
236	0xbdcc51cd	-0.0997654
237	0xbc5f5c3f	-0.013632833
238	0x3da9527d	0.082676865
239	0xbd5bc79a	-0.05365715
240	0xbd5cc5b0	-0.053899467
241	0x3d54182a	0.051780857
242	0xbd9d3f51	-0.07678092
243	0xbd1d7b13	-0.03844745
244	0xbc2044d8	-0.009782039
245	0x3c7798e1	0.015112133
246	0x3d58e20f	0.05294996
247	0x3d87c2dd	0.06628964
248	0xbd718ad6	-0.058970295
249	0x3ce0ce23	0.027442044
250	0x3d6e0e39	0.058119033
251	0xbcd046bd	-0.025424356
252	0xbd520352	-0.051272698
253	0x3d727437	0.059192862
254	0x3da9fc08	0.08300024
255	0xbd407f14	-0.04699619

mlp2.0.bias f4 [100]
0	0x3c6b6843	0.01436812
1	0x3c158caa	0.009127775
2	0x3d48fe16	0.04907044
3	0x3cc5c0b3	0.024139738
4	0xbbaca20e	-0.005268342
5	0xbc368c1a	-0.011141801
6	0x3d13d6dc	0.036093578
7	0x3dab474e	0.0836321
8	0xbdbf28ed	-0.09333978
9	0x3d823d40	0.06359339
10	0x3d3a6983	0.04551078
11	0x3dfb1c28	0.1226123
12	0x3ca1b9c8	0.019741908
13	0x3cec7d71	0.028868409
14	0x3d7552d3	0.05989344
15	0xbd84908d	-0.064728834
16	0x3d9dfa1a	0.07713719
17	0x3d990567	0.074717335
18	0x3d820f6b	0.06350597
19	0xbaeb66cd	-0.0017959714
20	0x3d59da0b	0.053186458
21	0xbd6e3096	-0.058151804
22	0xbd89459b	-0.06702729
23	0xbdcbffa5	-0.0996087
24	0xbd89577f	-0.06706142
25	0xbba67f54	-0.0050810967
26	0x3d405468	0.046955496
27	0x3d95236d	0.072821476
28	0xbc85d8af	-0.016338674
29	0xbdceae60	-0.10091853
30	0x3cbaf593	0.022822177
31	0x3d24ab04	0.040202156
32	0xbc058e47	-0.008151597
33	0x3dc4185a	0.09574957
34	0xbcb32c6b	-0.021871766
35	0x3dba36a0	0.0909245
36	0xbd1dfbc1	-0.03857017
37	0x3db9dc68	0.09075242
38	0x3da49303	0.08035853
39	0xbd36623f	-0.04452729
40	0xbda242ff	-0.07922935
41	0xbd60b677	-0.054861512
42	0x3d9793d5	0.074012436
43	0x3db54ce3	0.088525556
44	0xbbcb06b3	-0.006195867
45	0xbd76a253	-0.0602134
46	0x3d9f33fa	0.077735856
47	0xbd82adec	-0.06380829
48	0xbd93d6f4	-0.072187334
49	0xbdc9d82f	-0.09855687
50	0x3c6fc4f3	0.014634359
51	0xbcd00502	-0.025393013
52	0x3da8b265	0.08237151
53	0xbdb6084a	-0.088883
54	0x3db72ea0	0.0894444
55	0xbd299abc	-0.04140733
56	0xbda28c5d	-0.079369284
57	0x3d82d299	0.063878246
58	0xbc9c313e	-0.01906645
59	0x3d66077e	0.05615949
60	0xbd3ccd89	-0.04609445
61	0xbd08f45f	-0.033436175
62	0xbaec859a	-0.0018045187
63	0xbb5ff9e4	-0.0034176046
64	0x3d9afde5	0.07567958
65	0xbcc9841f	-0.024599133
66	0xbda68b81	-0.08132077
67	0x3b0b7cc8	0.0021284092
68	0x3da73c52	0.08165802
69	0x3d4598db	0.048241477
70	0x3d516235	0.05111905
71	0xbc805bff	-0.015668867
72	0xbd578c90	-0.052624285
73	0xbd5f6aaa	-0.054545082
74	0xbc01f46b	-0.007931809
75	0x3db1f7a1	0.086898096
76	0x3d86cca2	0.06581999
77	0x3d150cb4	0.036389068
78	0x3c9edeed	0.019393409
79	0x3c8117ed	0.015758479
80	0xbdd9e78e	-0.10639869
81	0xbad4a565	-0.0016223608
82	0xbd324bd8	-0.04352936
83	0x3cf24566	0.029574107
84	0xbc1a40ee	-0.0094148945
85	0x3d3c4f17	0.045973863
86	0x3bb44fb3	0.005502665
87	0xbd0ec9c4	-0.034860387
88	0x3d85d3e4	0.065345556
89	0xbdc65b03	-0.09685328
90	0x3d87e88a	0.0663615
91	0xb9fa8a94	-0.00047786965
92	0x3da5ee29	0.08102066
93	0x3d368556	0.044560753
94	0x3c6c90b5	0.014438798
95	0x3c34e608	0.011041172
96	0xbd3c7712	-0.04601199
97	0x3d7a1a99	0.06106052
98	0x3d1ed9fc	0.038782105
99	0xbd723383	-0.059131157

mlp2.2.weight f4 [50, 100]
0	0x3dcabde1	0.09899498
1	0x3d939a94	0.07207218
2	0xbd3110f0	-0.043229043
3	0x3d650801	0.055915836
4	0xbd7e4b28	-0.062083393
5	0xbc98fa5d	-0.01867407
6	0x3ca42184	0.020035513
7	0xbcec44ad	-0.02884134
8	0x3d6fe8b6	0.05857154
9	0x3aa29d58	0.0012406511
10	0x3d355d6d	0.04427855
11	0x3de2f6b3	0.110822104
12	0xbdc643e9	-0.096809216
13	0x3c47b56f	0.012189253
14	0x3d43d3a4	0.047809258
15	0xbd5c5797	-0.05379447
16	0xbd625388	-0.055255443
17	0xbd98660d	-0.0744134
18	0x3d016ec9	0.031599794
19	0xbb455900	-0.0030112863
20	0xbdd9a2c4	-0.10626748
21	0x3d72068e	0.059088282
22	0x3dd7def3	0.10540571
23	0xbd8dfca2	-0.069329515
24	0x3daf9cd8	0.085748374
25	0x3d990946	0.07472472
26	0x3d87a446	0.066231295
27	0x3d95ae1d	0.073086
28	0x3d53bdb4	0.051694587
29	0x3d2d5dc4	0.04232575
30	0x3dcff3cd	0.10153923
31	0x3db09226	0.086216256
32	0x3c1518d2	0.009100156
33	0x3ba736c5	0.0051029646
34	0xbd2c1ed3	-0.042021584
35	0xbd5ff247	-0.054674413
36	0xbdb6fea8	-0.089352906
37	0xbd900b18	-0.07033366
38	0xbdc8f6d9	-0.098127075
39	0xbca8d357	-0.020608587
40	0x3cc0e74a	0.023547787
41	0x3d192fe7	0.0373992
42	0x3c6a0b66	0.014284944
43	0x3c48d56c	0.012257915
44	0x3d0daf26	0.034590863
45	0xbdbc376a	-0.09190257
46	0xbcc19d3e	-0.02363455
47	0x3bc442d9	0.005989414
48	0x3d908b13	0.07057776
49	0x3cd40d57	0.025885267
50	0xbd3fec7f	-0.0468564
51	0xbd9a8ae2	-0.07546021
52	0xbce9884c	-0.028507374
53	0x3d8ecd75	0.069727816
54	0x3db65518	0.08902949
55	0xbdc8993e	-0.09794854
56	0xbdb213e0	-0.08695197
57	0x3d5ac5a5	0.053411145
58	0xbae96ab5	-0.001780829
59	0xbd7143b8	-0.058902472
60	0x3db4ac06	0.08821873
61	0xbd71d362	-0.05903948
62	0x3d7cb647	0.06169727
63	0xbd6ca923	-0.05777849
64	0xbcfcd707	-0.030864252
65	0xbd406a66	-0.04697647
66	0x3d90a272	0.07062234
67	0xbd507db1	-0.05090112
68	0x3ddf596b	0.10905727
69	0x3da7ed9b	0.081996165
70	0x3d9f5667	0.07780152
71	0x3c83e182	0.016098741
72	0x3d8fd97a	0.07023902
73	0xbd11a313	-0.03555591
74	0xbdaa612c	-0.08319315
75	0x3d49d167	0.049271967
76	0x3d0682cf	0.032839593
77	0x3d39e44c	0.045383736
78	0xbd80c817	-0.06288164
79	0xbd907fe0	-0.0705564
80	0xbd129143	-0.035783064
81	0xbdd3db1d	-0.10344527
82	0xbcb46333	-0.022019958
83	0x3d06cd0a	0.032910384
84	0xbd028a65	-0.031870265
85	0x3c98f258	0.018670246
86	0x3d86d94d	0.065844156
87	0xbdc803fe	-0.097663864
88	0xbd934abc	-0.07191989
89	0x3c107529	0.008816996
90	0xbdaabeea	-0.08337195
91	0xbd83ba92	-0.0643207
92	0x3d87b86e	0.06626974
93	0x3dd43152	0.103609696
94	0x3d9dbc80	0.07701969
95	0x3c71873b	0.014741714
96	0xbb88a640	-0.004170209
97	0xbd4c1311	-0.04982287
98	0x3d44909a	0.047989465
99	0x3d70954e	0.058736138
100	0x3dd5fdf3	0.104488276
101	0xbdb82c32	-0.089928046
102	0xbdbb9ffa	-0.091613725
103	0x3e04dd53	0.12975053
104	0x3aeaa809	0.0017902862
105	0xbd9e2d7b	-0.077235185
106	0x3dc1f1b2	0.09469928
107	0x3d828875	0.06373683
108	0x3c2db80b	0.010602961
109	0x3e1f4303	0.15552907
110	0x3d4b3396	0.049609743
111	0x3e2af2c6	0.16694173
112	0x3d805b33	0.06267395
113	0xbc8c093e	-0.01709425
114	0x3cf8389d	0.030300433
115	0xbd93ce20	-0.072170496
116	0x3db14a4c	0.08656749
117	0x3d19262e	0.037389927
118	0x3d127e75	0.03576513
119	0xbd2317ad	-0.0398175
120	0xbd8f9272	-0.07010354
121	0xbcc788c5	-0.024357209
122	0x3dcd5cbe	0.10027455
123	0x3db44c3f	0.08803605
124	0x3d2ea8b3	0.042641353
125	0x3ca36ab1	0.019948335
126	0x3d982c17	0.074302845
127	0xbd871f43	-0.065977596
128	0xbd3e38c8	-0.04644087
129	0x3d8696c4	0.06571725
130	0x3cdaa268	0.02668877
131	0x3d85fe5f	0.06542658
132	0x3c5c1127	0.013431824
133	0x3ce96d67	0.02849455
134	0xbceed36c	-0.029153548
135	0xbd7bfcfa	-0.061520554
136	0x3daf92d4	0.08572927
137	0xb9a3be8e	-0.00031231757
138	0xbc4f54c6	-0.012654489
139	0x3dcfb32b	0.101415955
140	0xbd14cf4d	-0.03633051
141	0x3dddc8b5	0.108292975
142	0x3df2ea10	0.1186105
143	0xbdbffdfc	-0.093746156
144	0x3add3da0	0.0016879328
145	0x3dba5ae3	0.090993665
146	0x3d91bc57	0.07116001
147	0xbcef9cf8	-0.029249653
148	0xbd1299ec	-0.035791323
149	0x3dba1898	0.09086722
150	0xbdbd35d5	-0.09238783
151	0x3dd76169	0.105166264
152	0xbdc3ec7e	-0.09566592
153	0xbb9fdeb3	-0.0048788427
154	0xbd9c1bbf	-0.0762248
155	0xbd3ef354	-0.046618775
156	0xbd814271	-0.06311501
157	0xbdce712b	-0.10080179
158	0xbc022ce7	-0.007945276
159	0xbccd10c0	-0.025032401
160	0xbd5bbd6c	-0.053647444
161	0x3d0d3bb8	0.03448078
162	0xbcb5c30d	-0.022187734
163	0x3e07ef1d	0.13274808
164	0xbd2e2eef	-0.042525228
165	0x3e106969	0.14102711
166	0x3d6bedd1	0.057599846
167	0x3bf65a49	0.007518087
168	0x3d63d7c1	0.05562568
169	0xbca3ee04	-0.020010956
170	0xbdbeffa0	-0.093261
171	0x3d57e5fd	0.05270957
172	0x3d43423c	0.047670588
173	0x3dbdbe86	0.09264855
174	0xbdb4d7c0	-0.088302135
175	0xbd83423b	-0.06409117
176	0xbda403ab	-0.08008512
177	0x3d812ffd	0.06307981
178	0x3d4d4bb7	0.050121035
179	0xbd6fb68d	-0.058523703
180	0x3d401834	0.046898082
181	0xbdcef369	-0.101050206
182	0xbdb0f589	-0.08640582
183	0x3da4de46	0.08050208
184	0xbd6b6d37	-0.057477202
185	0x3d8027ab	0.06257566
186	0xbaf6a065	-0.0018816112
187	0x3db62ea4	0.08895615
188	0x3d6aeaf8	0.05735299
189	0x3e0bd151	0.13654067
190	0xbd09dcf9	-0.033658
191	0xbdc4b16a	-0.096041515
192	0x3d052092	0.032501765
193	0x3caa3049	0.020774977
194	0xbd025859	-0.031822536
195	0x3cc564ab	0.024095854
196	0xbd2c72d1	-0.042101685
197	0xbd696b40	-0.056987047
198	0x3c015ada	0.007895196
199	0x3d26392e	0.040581875
200	0x3b9a936b	0.0047172806
201	0xbb9ed601	-0.0048472886
202	0x3cd22156	0.025650661
203	0x3c3a1d3d	0.01135951
204	0x3bee34b3	0.007269466
205	0x3d8654a7	0.06559115
206	0xbc69dd33	-0.014273929
207	0xbcb88555	-0.022524515
208	0x3d74b57a	0.059743382
209	0x3db73c03	0.08946993
210	0x3dc8393d	0.09776542
211	0x3dc4dc53	0.09612336
212	0xbb826648	-0.003979478
213	0xbd18b7ac	-0.03728454
214	0x3dc2b670	0.095074534
215	0xbdc711ed	-0.09720216
216	0xbd4e67ab	-0.050391834
217	0xbd983be3	-0.074332975
218	0xbbbc0c4b	-0.00573877
219	0x3c8461e7	0.016159965
220	0x3d847a10	0.06468594
221	0xbd7c9116	-0.061661802
222	0x3c6138d3	0.013746458
223	0x3d2e2a2a	0.04252068
224	0x3d7dfed3	0.062010597
225	0x3d8ccdce	0.06875192
226	0x3ba29221	0.0049612676
227	0xbd967ca1	-0.0734799
228	0x3d4eda5c	0.050501212
229	0xbc67d94f	-0.0141509315
230	0x3da3e044	0.0800176
231	0x3db6dc01	0.08928681
232	0xbb348738	-0.0027546417
233	0xbd145130	-0.03621024
234	0x3da5d332	0.08096923
235	0x3bf9c0c6	0.0076218573
236	0x3d8299c3	0.06376984
237	0xbc90104f	-0.017585902
238	0x3d84c2c2	0.064824596
239	0x3d47728b	0.04869322
240	0x3d77ad19	0.060467813
241	0xbd2c22a0	-0.04202521
242	0xbd7c10c6	-0.061539434
243	0x3d7879c4	0.060663
244	0xbd621381	-0.05519438
245	0x3d88ad15	0.06673638
246	0x3ce6ed90	0.02818945
247	0x3da97cd3	0.082757615
248	0xbd96769c	-0.07346842
249	0xbb1ba248	-0.002374785
250	0xbd780c1c	-0.060558423
251	0x3d94ba9e	0.07262157
252	0x3d209d2c	0.03921239
253	0x3b280600	0.0025638342
254	0xbd9980f0	-0.07495296
255	0x3ced7b37	0.028989417

mlp2.2.bias f4 [50]
0	0xbc4535cb	-0.012036751
1	0x3ab054fc	0.0013453062
2	0xbdb26ad9	-0.08711786
3	0x3d8d5d87	0.069026046
4	0x3d56fecd	0.05248909
5	0xbc87a2a2	-0.016557042
6	0x3dc44ae6	0.09584598
7	0xbd985474	-0.07437983
8	0x3dae375e	0.08506654
9	0x3dad8138	0.08471912
10	0xbd529364	-0.051410094
11	0x3d85a2d0	0.06525195
12	0xbcbe63e8	-0.023240998
13	0x3dae7eac	0.085202545
14	0xbb3cffea	-0.002883906
15	0x3c0c2827	0.008554495
16	0xbd29ef67	-0.041488077
17	0x3e16ff64	0.14745861
18	0x3e0cc1b3	0.13745765
19	0xbc4b04f7	-0.01239132
20	0xbd6bc815	-0.05756386
21	0xbc7c0218	-0.015381359
22	0x3c0ecd84	0.008715991
23	0x3d8ab412	0.06772627
24	0x3d87d336	0.06632082
25	0xbd4faa71	-0.050699655
26	0x3db9e3c1	0.09076644
27	0xbce9e166	-0.028549861
28	0xbd489bed	-0.048976827
29	0x3ac18694	0.0014764839
30	0xbc33baa5	-0.0109697925
31	0xbd02f44f	-0.031971272
32	0xbd0dca7f	-0.034616943
33	0x3c7722de	0.015083997
34	0x3d891e67	0.06695252
35	0x3c69e7af	0.014276429
36	0xbcfc2b9e	-0.030782517
37	0x3bb6906e	0.0055714166
38	0x3cb5b3b9	0.022180425
39	0x3d1ec27f	0.038759705
40	0xbca57ffe	-0.020202633
41	0xbc90429c	-0.017609887
42	0xbdae7791	-0.08518899
43	0x3d5f8a10	0.054575026
44	0x3d5515e3	0.052022826
45	0x3dc0c7ff	0.09413146
46	0xbc616cd6	-0.013758859
47	0x3d98db2a	0.07463677
48	0x3c36f14a	0.011165926
49	0x3d2b9143	0.04188658

attention.0.weight f4 [100, 200]
0	0xbd6cf505	-0.057850856
1	0x3d0a7cb3	0.03381033
2	0x3d50ff22	0.051024564
3	0x3d6efa28	0.058344036
4	0xbcdf2112	-0.027237449
5	0x3d8c27cf	0.068435304
6	0x3cc011f1	0.023446055
7	0xbd1d155e	-0.038350455
8	0xbcc18acc	-0.023625754
9	0x3d0e2588	0.03470376
10	0xbcb7051c	-0.022341304
11	0xbbda28e9	-0.006657709
12	0xbd1c5fb6	-0.038177215
13	0x3d7220e7	0.05911341
14	0x3d610908	0.054940253
15	0x3d1782a8	0.036989838
16	0xbae24b0d	-0.0017264799
17	0xbd483b31	-0.048884574
18	0xbd8f2961	-0.06990314
19	0xbce712dc	-0.028207235
20	0x3cb83faf	0.022491304
21	0xbc385c58	-0.011252485
22	0x3d51f1b3	0.051255893
23	0x3b460afb	0.0030218947
24	0x3d0508f5	0.032479245
25	0xbbd5e58e	-0.006527609
26	0xbd81b814	-0.06333938
27	0xbaf11917	-0.0018394318
28	0x3daa503f	0.08316087
29	0xbb9e0c8b	-0.0048232726
30	0xbcf21667	-0.029551698
31	0xbd8874d8	-0.06662911
32	0x3d533c27	0.051571038
33	0xbd38e512	-0.045140333
34	0x3d80b34d	0.06284199
35	0xbd3be55b	-0.045873027
36	0x3cb7a89a	0.022419263
37	0xbd62604e	-0.055267625
38	0xbd4106d1	-0.04712564
39	0x3d96b2d8	0.073583305
40	0xbd54f38a	-0.05199007
41	0xbccb3f06	-0.024810325
42	0xbd339b16	-0.043849073
43	0x3d92e982	0.07173444
44	0xbd83d73d	-0.06437538
45	0x3d72eef0	0.0593099
46	0x3d850727	0.06495505
47	0x3bc884fa	0.0061193677
48	0x3bdaaeb3	0.006673658
49	0xbca66112	-0.020309959
50	0x3cd79208	0.02631475
51	0xbc6f04cc	-0.014588546
52	0xbc8ae7ff	-0.016956327
53	0xbd574b8c	-0.05256228
54	0x3d4e0a0a	0.050302543
55	0x3d56f27f	0.052477356
56	0x3c316689	0.010827669
57	0xbc7488c3	-0.014925185
58	0x3db07dfe	0.08617781
59	0xbc2c3e17	-0.01051285
60	0x3d328dea	0.04359237
61	0x3cda0b05	0.026616583
62	0x3cf8170b	0.030284425
63	0xbd6a79c1	-0.05724502
64	0x3d8611ff	0.06546401
65	0xbc96c85a	-0.018406082
66	0x3c8a4145	0.016876826
67	0xbceee2e6	-0.029160928
68	0xbd8db43a	-0.06919141
69	0xbca13481	-0.019678356
70	0xbc1dc191	-0.009628669
71	0x3d897855	0.06712405
72	0xbbbf02e8	-0.005829204
73	0xbb9f451b	-0.004860533
74	0x3cd489e3	0.025944656
75	0x3cd3c2e2	0.025849763
76	0x3d51988e	0.051170878
77	0x3bde982b	0.006793042
78	0xbd6eda39	-0.058313582
79	0x3cd67794	0.026180066
80	0xbd0ec1eb	-0.034852903
81	0x3b317e1c	0.0027083224
82	0xbd7c1658	-0.061544746
83	0xbc97e056	-0.018539589
84	0xbb56f312	-0.003279869
85	0x3cb72df5	0.022360781
86	0xbc61a062	-0.013771148
87	0x3d2f536f	0.042804178
88	0x3d29f4ee	0.04149335
89	0x3d112205	0.035432834
90	0x3d28f8c9	0.041252885
91	0xbd3588c4	-0.044319883
92	0x3d75119c	0.059831247
93	0xbc83a6a9	-0.01607068
94	0xbd5683a6	-0.052371643
95	0xbd585cbd	-0.052822817
96	0x3d633cbe	0.05547785
97	0xbd724cf3	-0.059155416
98	0x3b8d96a6	0.004320937
99	0x3d047fbc	0.03234838
100	0x3cae7b0c	0.021298908
101	0x3d496e41	0.049177412
102	0x3d64bc8d	0.05584388
103	0x3d1ef5a5	0.038808484
104	0x3d3e193c	0.046410784
105	0x3d5ef4f2	0.054432817
106	0x3cd90b23	0.026494568
107	0xbd8d7c45	-0.06908468
108	0x3cad5559	0.021158861
109	0xbd12f973	-0.035882425
110	0xbd00f56c	-0.031484053
111	0xbc040584	-0.008057956
112	0x3af7d3be	0.0018907709
113	0x3d8bcc20	0.06826043
114	0xbd32310d	-0.04350381
115	0xbd21566e	-0.039389066
116	0x3d02fc6a	0.031979002
117	0x3d2ee2c9	0.042696748
118	0xbd8d1255	-0.06888262
119	0x3cd5093d	0.026005382
120	0x3c3d7e9f	0.011565833
121	0xbd8703e6	-0.065925404
122	0x3d14453b	0.036198836
123	0xbd06aa48	-0.032877237
124	0xbd55b249	-0.05217198
125	0x3b6aff30	0.003585767
126	0xbd801e40	-0.0625577
127	0xbd82ec14	-0.063926846
128	0xbd153fdb	-0.03643785
129	0x3c79a396	0.015236756
130	0xbd75bba8	-0.059993416
131	0x3b98acb2	0.0046592588
132	0x3c59d8c4	0.01329631
133	0xbcfd15a3	-0.030894106
134	0xbb3fd253	-0.002926965
135	0xbd5b5023	-0.05354322
136	0x3d5b0fcb	0.05348186
137	0xbd850ee5	-0.064969815
138	0x3b804e8a	0.0039156126
139	0x3d768844	0.060188547
140	0x3d730fa2	0.05934108
141	0x3b81d230	0.003961824
142	0x3d74782f	0.05968493
143	0xbce263c2	-0.027635459
144	0x3d31bd58	0.043393463
145	0x3d1d71f4	0.038438752
146	0x3d058ace	0.032603078
147	0x3d2b9833	0.041893195
148	0x3d2ed6ca	0.042685308
149	0x3d386c37	0.045025077
150	0xbce63358	-0.028100654
151	0xbd3d8a70	-0.046274602
152	0x3ca780c6	0.020447146
153	0x3c920432	0.017824266
154	0x3c5041c4	0.012710992
155	0xbc8a6c47	-0.016897334
156	0xbcaa7e3d	-0.020812148
157	0x3d7f1b56	0.06228193
158	0xbd38533c	-0.045001253
159	0x3c8b6d50	0.017019898
160	0xba2579c8	-0.00063123973
161	0xbd5c246d	-0.053745676
162	0xbcb5c664	-0.022189327
163	0xbc8b8958	-0.017033264
164	0xbd8eac68	-0.06966478
165	0x3cf31293	0.029671943
166	0xbcd6d934	-0.026226617
167	0x3d068fcc	0.03285198
168	0xbd619952	-0.05507786
169	0x3d553503	0.05205251
170	0xbc5544c2	-0.013016881
171	0xbd686743	-0.056739103
172	0x3c95ccda	0.018286157
173	0x3d7c7074	0.06163068
174	0x3d7c2dac	0.061566994
175	0xbd8cd728	-0.06876975
176	0xbd261381	-0.040545944
177	0xbd735d20	-0.059414983
178	0x3beac38c	0.0071644243
179	0xbb56e6ad	-0.0032791302
180	0x3d2f6dfe	0.042829506
181	0x3d14029b	0.036135297
182	0x3c7a251f	0.015267639
183	0x3c868b50	0.016423851
184	0x3d0cde15	0.03439148
185	0x3c632b71	0.013865338
186	0xbcace698	-0.02110605
187	0xbd91b0af	-0.07113778
188	0x3c8a2c3f	0.016866801
189	0x3d8557ed	0.06510911
190	0xbd0fea7b	-0.035135727
191	0xbd60058c	-0.05469279
192	0xbd2d6378	-0.04233119
193	0x3b096bcd	0.0020968795
194	0x3d699576	0.057027303
195	0x3d3e5a3f	0.046472784
196	0x3d176bca	0.03696803
197	0xbd0f5dac	-0.03500144
198	0x3c932707	0.017962946
199	0xbd3528c6	-0.044228338
200	0x3d85dd38	0.06536335
201	0xbc63d115	-0.0139048295
202	0xbd0449b7	-0.032296862
203	0x3d4dad6d	0.05021422
204	0xbd66b086	-0.05632069
205	0x3d558b6f	0.052134927
206	0xbd6560d8	-0.05600056
207	0xbd354bed	-0.04426186
208	0xbb836043	-0.004009278
209	0x3cb7e21d	0.022446686
210	0x3d43f359	0.047839496
211	0xbd145add	-0.036219466
212	0x3d5e2405	0.05423357
213	0x3d3759c2	0.044763334
214	0x3cf3b050	0.029747158
215	0x3d39d071	0.0453648
216	0xbc840168	-0.016113952
217	0xbd0cb754	-0.034354523
218	0xbd5f05f7	-0.054449048
219	0x3d18be68	0.03729096
220	0xbd2cbadf	-0.0421704
221	0x3c9097f3	0.01765058
222	0xbd4da27a	-0.050203778
223	0x3d0f32db	0.03496061
224	0xbd8606b1	-0.06544245
225	0xbd68b71b	-0.056815248
226	0xbd0c8119	-0.034302805
227	0xbd25a791	-0.040443007
228	0x3d6fa431	0.058506195
229	0x3d49a278	0.049227208
230	0xbd6ef7a3	-0.058341634
231	0xbccd18be	-0.025036212
232	0xbc79e77c	-0.015252944
233	0xbd0176b8	-0.03160736
234	0x3d1c538c	0.038165614
235	0x3c5c5c1a	0.013449693
236	0xbba59020	-0.0050525814
237	0x3bc637a2	0.0060491124
238	0x3d5554dd	0.052082885
239	0x3d304cf1	0.043042127
240	0x3d503f91	0.05084187
241	0xbb28a862	-0.002573513
242	0x3d87550c	0.06608018
243	0x3d735b8d	0.05941348
244	0xbd8001e5	-0.06250361
245	0x3c67d53d	0.014149961
246	0xbb7289db	-0.0037008438
247	0x3c5fb8eb	0.013654928
248	0xb7570cbe	-1.2817965e-05
249	0x3cc41693	0.023936545
250	0xbb90dff1	-0.004421227
251	0x3c949325	0.01813657
252	0xbc76df0f	-0.01506783
253	0xbcb97a01	-0.022641184
254	0x3d01aa3e	0.031656496
255	0x3d879df0	0.06621921

attention.0.bias f4 [100]
0	0x3d82fd48	0.06395966
1	0x3d518503	0.05115224
2	0x3d843cd9	0.06456918
3	0xbd2447b7	-0.040107455
4	0x3d83c9f7	0.06435006
5	0x3c5aed87	0.013362295
6	0xbcaf7c07	-0.021421446
7	0xbcc7918d	-0.024361396
8	0x3d78af1b	0.06071387
9	0x3d08fccf	0.033444222
10	0x3b4f41fa	0.0031625018
11	0x3d8af9ab	0.06785902
12	0xbd2196ed	-0.039450575
13	0x3d2ef135	0.0427105
14	0x3c61122a	0.013737241
15	0x3d4f22ad	0.05057018
16	0x3cfb4076	0.030670386
17	0x3b9c188c	0.0047636684
18	0x3cd0c740	0.025485635
19	0xbc923393	-0.017846858
20	0x3c725b1f	0.014792233
21	0xbc4aae18	-0.012370609
22	0x3d74d1aa	0.059770264
23	0x3b7de624	0.003874191
24	0xbd7fa739	-0.062415335
25	0xbc0ff534	-0.008786488
26	0xbc996694	-0.01872567
27	0xbaacd908	-0.0013187239
28	0xbcb3259b	-0.021868518
29	0x3d8fcc3b	0.07021376
30	0xbc83b8a0	-0.016079247
31	0x3ae6370f	0.0017564016
32	0x3c09348b	0.008374344
33	0x3c14ead6	0.009089192
34	0x3d6b230b	0.057406466
35	0xbd86ca77	-0.06581586
36	0xbc140ff1	-0.009037004
37	0xbd79446b	-0.060856264
38	0xbbedc6ca	-0.0072563635
39	0x3d497ada	0.049189426
40	0xbc9a996c	-0.018871985
41	0x3c8285f4	0.015933014
42	0xbd36ef57	-0.044661846
43	0xbc3c9241	-0.011509479
44	0x3d495146	0.049149774
45	0x3d5f28fd	0.05448245
46	0x3cc345d7	0.023837013
47	0x3a1a6669	0.0005889894
48	0x3d5675c4	0.052358404
49	0x3c5b1a15	0.013372918
50	0x3baa4aa2	0.005196885
51	0x3da6b9cc	0.08140907
52	0xbd1d5f7b	-0.038421135
53	0x3d348f6f	0.0440821
54	0xbd3480fa	-0.044068314
55	0xbc54cc51	-0.012988166
56	0xbd41f507	-0.047352817
57	0x3d9af098	0.07565421
58	0x39df117d	0.00042546904
59	0x3a98c7c3	0.0011656213
60	0xbbcc7bb0	-0.0062403306
61	0x3d2249cb	0.039621156
62	0x3d379f26	0.04482951
63	0xbd2854a8	-0.04109636
64	0xbd6a2974	-0.05716844
65	0x3cd96df7	0.026541693
66	0x3d21598d	0.039392043
67	0x3d0fd558	0.03511557
68	0x3d839bae	0.06426178
69	0x38a969f4	8.078283e-05
70	0xbb7a6ac3	-0.0038210608
71	0xbc54007f	-0.012939571
72	0xbcaec8c6	-0.02133597
73	0xbb717a25	-0.0036846485
74	0x3c6fd1e3	0.014637443
75	0xbd585502	-0.052815445
76	0xbd61694e	-0.055032067
77	0xbd88494b	-0.066546045
78	0xbd24c018	-0.040222257
79	0xbd580478	-0.052738637
80	0x3d50e151	0.05099613
81	0x3d28a6dc	0.041174755
82	0xbcdb6de9	-0.026785808
83	0x3c9ef473	0.019403672
84	0xbce55a8c	-0.027997278
85	0xbc085645	-0.0083213495
86	0x3da87199	0.08224792
87	0x3d5f3998	0.054498285
88	0xbd2e0e58	-0.042494148
89	0xbcf1d006	-0.029518139
90	0x3d54d949	0.05196503
91	0xbd4d4873	-0.05011792
92	0x3d599065	0.05311622
93	0xbcc573bf	-0.024103044
94	0x3b5be593	0.0033553585
95	0xbd4197cd	-0.04726391
96	0xbcaaa5ef	-0.020831076
97	0xbc3c9cf6	-0.011512032
98	0xbd3332c9	-0.043749604
99	0x3c55e8fc	0.013056036
