result/2robots_1000_hose/il_model.pth (torch, 392547 bytes, 20 tensors)

mlp1.0.weight f4 [150, 13]
0.012932393 -0.086316474 -0.089872345 -0.2471419 -0.023360379 0.0025370854 0.22345117 -0.25934047
-0.12157131 0.3130862 0.18661492 -0.1371143 -0.20855293 0.015163628 -0.2670941 0.14206278
-0.056804165 -0.01786298 -0.26469496 0.13376458 -0.31097987 0.048613276 -0.04681803 0.045249473
0.069543146 0.22924015 0.06709174 -0.19792333 -0.0130997095 -0.11118073 0.16889834 -0.203408
0.0868165 0.016079925 0.21731807 0.07512533 -0.116095595 -0.122109875 -0.27932188 -0.07679232
0.092934705 -0.0570381 -0.12833697 -0.00055400043 -0.11346129 -0.0016039573 0.12944026 -0.24106552
0.1002939 -0.15470378 -0.07083888 -0.113971084 0.1419512 -0.19549362 -0.20492673 -0.13109112
0.15930316 -0.12380936 0.006610127 0.25020492 -0.110715136 -0.17839648 0.25601274 -0.124710195
-0.08769705 -0.046515614 0.015890023 -0.27047655 -0.03889152 0.06518331 0.19443192 -0.24951407
0.1839767 -0.11647965 -0.12564835 0.1664402 -0.22265176 -0.041670725 0.21786532 -0.14665197
0.02125499 0.12190704 0.065787345 0.04338266 -0.19397499 0.1957313 0.06984564 0.17567705
-0.11518075 0.14906587 -0.023380037 -0.13014014 -0.1594835 0.16854711 0.18105856 -0.1407637
-0.24333085 0.24928583 0.05504136 -0.07638633 0.22030328 0.2466285 0.12765312 0.131124
0.25987527 0.09852192 0.26378712 -0.25579464 0.20046759 -0.046408437 -0.28551248 0.23716171
0.23470639 0.118635304 -0.13634382 -0.21960028 -0.108021475 0.04165872 0.05681221 0.00029148083
0.049077854 -0.17427237 0.27117854 0.2821153 -0.100634925 0.18663776 0.09868826 0.1350689
0.11316073 -0.14978111 0.049580205 -0.26721102 -0.15944077 -0.029818526 -0.14830944 -0.13845347
-0.3183201 0.13170823 -0.1699729 0.33595264 0.23471767 0.107233174 -0.21832462 0.17781985
0.21006674 0.1742099 0.062795416 0.23940614 -0.17139462 0.07289237 -0.14365356 0.3398482
-0.05164274 -0.028671917 0.124170996 0.15665492 -0.21385469 0.089706294 -0.100270696 -0.27252972
-0.22392334 -0.24602816 -0.21052624 0.12782493 -0.009486043 -0.019178504 -0.059479315 -0.063952394
-0.22941981 0.10377397 -0.25215802 -0.144017 0.18715298 -0.09847239 -0.1443896 -0.032041386
-0.09679793 -0.16042878 -0.24036968 -0.05461964 0.11620224 -0.2764382 0.17951316 -0.09854001
0.117929325 0.2200648 0.04224634 -0.1782024 0.13244157 -0.07065865 -0.1332663 -0.084611714
0.2382651 0.0618189 0.045310255 0.0824343 -0.21252896 -0.26325703 -0.19064333 0.27076444
0.045074757 -0.03158605 -0.31515747 0.027622633 -0.158 0.031985223 -0.08043649 0.1768395
0.2540071 0.25797224 -0.11509297 0.06238193 -0.14354168 -0.17094693 -0.13164644 -0.2901756
0.29515064 0.11454129 -0.12761725 -0.071054235 0.18468414 -0.023043832 -0.113657705 -0.09546037
-0.06234407 0.06480342 -0.17769869 0.15869956 0.17553945 0.2542326 0.13837728 -0.05138425
0.1913169 0.010602125 -0.28497162 0.19075966 -0.118314736 -0.06789134 0.0900235 0.05157189
-0.082901075 -0.2697351 -0.17781998 -0.08947864 0.19851129 0.017058738 -0.035515495 0.017786438
-0.16043508 0.2265884 -0.06995125 -0.13322374 0.16045247 -0.005000268 -0.29815364 0.13280994
00000000: 63e2 533c b1c6 b0bd fe0e b8bd c412 7dbe
00000010: 445e bfbc 3b45 263b 62d0 643e 46c8 84be
00000020: 61fa f8bd d64c a03e fb17 3f3e b167 0cbe
00000030: e68e 55be de70 783c 8fc0 88be e878 113e
00000040: 7cab 68bd 6255 92bc 1986 87be 95f9 083e
00000050: c138 9fbe b71e 473d 43c4 3fbd 8357 393d
00000060: a36c 8e3d eebd 6a3e 6567 893d 6aac 4abe
00000070: 2aa0 56bc b9b2 e3bd b0f3 2c3e 304a 50be
00000080: d9cc b13d 0cba 833c a188 5e3e 4fdb 993d
00000090: 87c3 edbd be14 fabd 4703 8fbe 4b45 9dbd
000000a0: 8d54 be3d c8a0 69bd c46a 03be 573a 11ba
000000b0: 655e e8bd e03b d2ba fd8b 043e e1d9 76be
000000c0: e366 cd3d ab6a 1ebe fa13 91bd ac69 e9bd
000000d0: a85b 113e 7b2f 48be 50d8 51be c03c 06be
000000e0: 5e20 233e c38f fdbd c499 d83b dc1a 803e
000000f0: 9ebe e2bd 91ad 36be 1a14 833e 0f68 ffbd
00000100: 839a b3bd 2887 3ebd cb2b 823c e77b 8abe
00000110: b74c 1fbd d47e 853d 2919 473e 9e80 7fbe
00000120: 6364 3c3e e28c eebd f6a9 00be 4d6f 2a3e
00000130: d3fe 63be ecae 2abd 1618 5f3e ef2b 16be
00000140: f21e ae3c 66aa f93d 84bb 863d 04b2 313d
00000150: 61a1 46be c96d 483e 3b0b 8f3d afe4 333e
00000160: e3e3 ebbd b9a4 183e 7e87 bfbc 7543 05be
00000170: a54f 23be 9d97 2c3e 6a67 393e 5c24 10be
00000180: b92b 79be c944 7f3e 0d73 613d 7070 9cbd
00000190: 2f97 613e 2e8c 7c3e 80b7 023e 5f45 063e
000001a0: 5f0e 853e dcc5 c93d 1b0f 873e 84f7 82be
000001b0: 6047 4d3e c616 3ebd b12e 92be 85da 723e
000001c0: df56 703e 11f7 f23d b79d 0bbe e5de 60be
000001d0: 5d3a ddbd 55a2 2a3d ebb3 683d e5d1 9839
000001e0: dc05 493d 7574 32be ead7 8a3e 6b71 903e
000001f0: af19 cebd f81d 3f3e 121d ca3d 804f 0a3e
00000200: d0c0 e73d 3860 19be 9d14 4b3d e2cf 88be
00000210: 7144 23be fb45 f4bc 6ede 17be bfc6 0dbe
00000220: dafa a2be 86de 063e 600d 2ebe fc01 ac3e
00000230: d459 703e 119d db3d 7d90 5fbe 6816 363e
00000240: bc1b 573e 1464 323e e29a 803d e226 753e
00000250: 1282 2fbe 9848 953d eb19 13be 9500 ae3e
00000260: 5687 53bd 5ee1 eabc 5d4d fe3d 266a 203e
00000270: b9fc 5abe efb7 b73d b95a cdbd 0489 8bbe
00000280: 294c 65be ceee 7bbe 3194 57be 8ae4 023e
00000290: 596b 1bbc 3d1c 9dbc 95a0 73bd 79f9 82bd
000002a0: 07ed 6abe 7287 d43d db1a 81be 3179 13be
000002b0: 08a5 3f3e e4ab c9bd deda 13be d43d 03bd
000002c0: fe3d c6bd 7147 24be 7823 76be d8b8 5fbd
000002d0: 71fb ed3d 4f89 8dbe 4cd2 373e 58cf c9bd
000002e0: ee84 f13d ab58 613e 800a 2d3d b17a 36be
000002f0: c39e 073e 7bb5 90bd f676 08be e848 adbd
00000300: c4fb 733e d135 7d3d 3f97 393d 50d3 a83d
00000310: 31a1 59be a0c9 86be 0138 43be a3a1 8a3e
00000320: 4fa0 383d 6060 01bd 525c a1be dc48 e23c
00000330: c1ca 21be f002 033d e3bb a4bd 6a15 353e
00000340: 380d 823e f014 843e ddb5 ebbd 3284 7f3d
00000350: 97fc 12be b60c 2fbe 53ce 06be e591 94be
00000360: fc1d 973e a094 ea3d 19ae 02be e284 91bd
00000370: d71d 3d3e 6bc6 bcbc 5fc5 e8bd ba80 c3bd
00000380: 7f5c 7fbd a8b7 843d a5f6 35be 2382 223e
00000390: 9dc0 333e c62a 823e c6b2 0d3e 4b78 52bd
000003a0: 94e8 433e 89b4 2d3c cde7 91be 8056 433e
000003b0: ff4e f2bd 9d0a 8bbd 3e5e b83d 0c3d 533d
000003c0: 0ac8 a9bd b81a 8abe 7116 36be 9440 b7bd
000003d0: 8b46 4b3e c4be 8b3c b278 11bd ddb4 913c
000003e0: 1849 24be ca06 683e 9a42 8fbd ce6b 08be
000003f0: a74d 243e 4ad9 a3bb 98a7 98be 54ff 073e

mlp1.0.bias f4 [150]
0.18367364 -0.17107764 -0.16240592 0.1503271 0.10875045 0.107034765 -0.005992368 -0.02542214
-0.07351152 0.22780485 -0.06973852 -0.019641384 -0.2529018 0.064065106 0.24918783 -0.252115
0.0019305382 -0.25853884 0.2609845 0.21002053 -0.051723897 -0.2347158 -0.23912376 0.038885184
0.10606018 0.26541287 -0.06649175 0.18621704 -0.08531319 0.100546405 -0.18893029 0.16135684
-0.15352345 -0.1498957 -0.32409152 -0.110196136 -0.013035308 -0.15643066 -0.15001671 0.12495152
-0.033302866 -0.2500039 -0.083265916 -0.14653967 -0.16805029 -0.18675019 0.1630952 0.19460155
0.1834867 -2.9939887e-05 -0.06867219 0.15182522 0.22617826 0.030728277 -0.022864051 -0.252554
-0.18387637 -0.17842276 0.28761107 -0.063683935 0.04488444 0.1765078 -0.060526382 0.10203937
-0.18106799 -0.04758014 0.12041117 0.23555349 0.17891884 -0.15293272 -0.036733627 0.038014647
0.16321827 0.1220394 -0.25424275 -0.10527614 -0.034558326 0.02132873 0.15141633 -0.12029127
-0.06989002 -0.06129204 0.08919825 -0.06470896 0.07231088 0.039195333 0.28814316 -0.20442778
0.0976778 -0.13849849 0.018277366 0.24319841 -0.020939033 0.013385926 -0.13663481 0.17556179
-0.038965255 0.06379376 -0.21474284 0.009313018 -0.08990378 0.08915757 0.26302823 -0.12851202
-0.21878675 -0.21094687 -0.11844375 -0.14487109 -0.21772207 -0.03212497 -0.13605563 -0.1702646
0.11621162 0.25744453 -0.12245397 -0.054579258 -0.04308274 -0.20293663 0.039021373 0.10899274
-0.26136273 0.1347209 0.17041972 0.06702116 -0.14764282 0.2515086 -0.15251935 0.1291926
-0.067048594 -0.06380213 0.2106911 -0.1507321 0.27301127 0.024309928 -0.11826728 0.09784521
0.11774901 0.15031111 -0.22640087 -0.15437603 0.2050261 0.011840385 -0.24433419 -0.25604635
-0.049545046 0.017885197 0.23363331 -0.1023259 -0.14542371 -0.06227036
00000000: f114 3c3e fa2e 2fbe bd4d 26be 59ef 193e
00000010: 8eb8 de3d 0b35 db3d a05b c4bb 1742 d0bc
00000020: 358d 96bd ad45 693e 12d3 8ebd f8e6 a0bc
00000030: 587c 81be 9134 833d 182b 7f3e 3815 81be
00000040: 1d0a fd3a 345f 84be c39f 853e 9f0f 573e
00000050: 70dc 53bd 5759 70be dcdc 74be 1246 1f3d
00000060: 1436 d93d 32e4 873e d42c 88bd aeaf 3e3e
00000070: afb8 aebd 46eb cd3d f176 41be ba3a 253e
00000080: 4035 1dbe 427e 19be 53ef a5be 83ae e1bd
00000090: 0b92 55bc 5c2f 20be fb9d 19be 95e6 ff3d
000000a0: 9668 08bd 8300 80be 5287 aabd 7f0e 16be
000000b0: 6015 2cbe 713b 3fbe 6e02 273e a145 473e
000000c0: f0e3 3b3e 6b27 fbb7 01a4 8cbd 1278 1b3e
000000d0: 469b 673e deb9 fb3c 644d bbbc c24e 81be
000000e0: 164a 3cbe 75b4 36be c241 933e b96c 82bd
000000f0: bfd8 373d 76be 343e 83ea 77bd 04fa d03d
00000100: e369 39be 65e3 42bd 229a f63d ef34 713e
00000110: 8036 373e 659a 1cbe 0076 16bd 3fb5 1b3d
00000120: b122 273e cbef f93d 1b2c 82be 049b d7bd
00000130: 088d 0dbd 97b9 ae3c e20c 1b3e 455b f6bd
00000140: 8022 8fbd 5d0d 7bbd 92ad b63d 2286 84bd
00000150: ba17 943d 498b 203d 8087 933e 8455 51be
00000160: 4c0b c83d 8cd2 0dbe 6aba 953c 0109 793e
00000170: 5688 abbc a550 5b3c ffe9 0bbe 78c6 333e
00000180: 089a 1fbd 4ea6 823d 8ce5 5bbe a195 183c
00000190: 791f b8bd 3e98 b63d a3ab 863e a898 03be
000001a0: a209 60be 7502 58be a392 f2bd 1659 14be
000001b0: 89f2 5ebe 7995 03bd 2b52 0bbe d859 2ebe
000001c0: 5c00 ee3d c5cf 833e 26c9 fabd 808e 5fbd
000001d0: 8777 30bd 9fce 4fbe e0d4 1f3d 9637 df3d
000001e0: 56d1 85be 47f4 093e 8282 2e3e 6442 893d
000001f0: ae2f 17be bcc5 803e 082e 1cbe 114b 043e
00000200: c650 89bd b1aa 82bd 68bf 573e 8459 1abe
00000210: 22c8 8b3e 9d25 c73c 1e36 f2bd 1263 c83d
00000220: 6526 f13d 28eb 193e a1d5 67be c014 1ebe
00000230: 5df2 513e 2dfe 413c be32 7abe 8218 83be
00000240: bfef 4abd fa83 923c 923d 6f3e 3e90 d1bd
00000250: f4e9 14be 340f 7fbd

mlp1.2.weight f4 [100, 150]
0.058411848 0.023089234 -0.023703644 -0.0034808316 -0.04476534 0.04689509 -0.028326428 -0.062122785
0.061011963 0.023485886 -0.08286181 0.068090305 -0.0064398595 -0.06729123 -0.060289703 0.042756643
0.07008556 -0.016948035 0.060207408 0.02789814 -0.039939314 0.02884391 -0.017488366 -0.054643236
-0.008194281 0.03675043 0.052016284 0.01585676 -0.0359648 0.071778044 -0.061540887 0.004085304
-0.052668188 0.03461628 -0.01655298 0.07018925 0.04720085 0.010823053 -0.060429692 -0.02648762
-0.051301997 -0.032916155 0.016412186 0.07674673 -0.07359205 0.06143529 0.049924765 -0.014691505
-0.046725538 0.07967216 -0.041646797 0.03921575 -0.06937528 -0.026302861 0.047384493 0.002218655
0.028556028 0.019868322 -0.018179778 -0.08457172 -0.077296756 -0.051154274 -0.018524606 0.07142445
0.056608357 0.06264965 0.046085462 0.043081015 0.03011321 -0.024082925 0.0023413964 -0.046130475
-0.071491115 -0.06801386 -0.0004577757 -0.02512181 0.04571852 -0.08674699 -0.07201303 -0.009572132
-0.03530326 0.036777053 -0.023337444 0.01576353 -0.025859728 -0.029264309 -0.025392434 0.09317549
0.06963166 0.023212943 -0.074186824 -0.032124233 0.045732047 -0.09019423 0.07848994 0.044977278
0.0044892477 -0.004970842 -0.06911 0.018277915 -0.073989466 -0.027421013 -0.068204954 -0.07144883
0.069894776 -0.03542432 0.015733223 -0.08226415 -0.076318525 -0.017355233 0.0033189277 -0.041559823
0.04830367 -0.043670848 -0.0010216694 0.03796317 0.018037217 0.07459866 -0.060004823 -0.016433327
-0.019052824 -0.0104974415 0.026409922 0.014200904 0.054219425 0.042758983 -0.0074444623 -0.038240373
0.019143948 -0.017944226 -0.03253337 0.07591067 -0.039201006 -0.030073179 -0.017735224 -0.02628711
0.049626876 -0.044103317 0.011410049 0.036066763 0.07493559 -0.07999435 0.01081284 0.04474265
0.0028266245 -0.014509623 0.07314102 -0.01523551 0.0485961 0.049447678 -0.061161485 0.036339257
0.037110616 0.06530583 -0.011787546 -0.0056248107 0.029264648 -0.07486552 -0.0689404 -0.017603384
-0.019796997 -0.028494872 0.039609663 -0.061340913 -0.028578242 -0.06368398 -0.011323156 -0.036031924
-0.025236744 0.004033974 -0.056058336 -0.033727977 -0.008106081 -0.060230542 0.0010616906 -0.032910906
0.004228745 0.035704236 0.052609317 0.08699644 -0.05744721 -0.021574829 -0.044609085 -0.06535753
-0.029492803 -0.011635478 0.07508363 -0.0138451215 0.014442436 0.028314872 0.069031276 0.055803686
0.029993933 0.036474284 0.05547413 -0.06101564 -0.03066407 0.043027196 -0.04927342 0.00028493014
-0.0465046 0.04723649 -0.0037945574 -0.06530074 -0.05202072 -0.054948654 -0.0037160225 -0.03745726
-0.020746363 0.03262401 -0.0767639 0.04765152 -0.06304078 0.0918076 0.040380247 0.03732177
-0.016019713 0.10214278 -0.0075276033 -0.08618623 -0.076092646 0.00057712896 0.06777803 -0.031019833
-0.036505077 0.057108007 0.078090094 0.054757353 -0.06051539 -0.057239994 0.03741272 0.055874705
-0.035089757 -0.0059886947 0.038628016 0.061025623 -0.04563934 0.051480416 0.021374198 0.08139381
-0.077160135 -0.025561025 0.06289442 -0.052248973 -0.06566841 0.04298709 -0.03578087 -0.05754074
0.052779984 -0.041591913 -0.06215331 -0.052480772 -0.006715676 -0.00411011 0.0605805 0.049394794
00000000: 4341 6f3d a225 bd3c 252e c2bc aa1e 64bb
00000010: dc5b 37bd 1115 403d d30c e8bc 7674 7ebd
00000020: aee7 793d 7965 c03c 74b3 a9bd ee72 8b3d
00000030: 7505 d3bb fccf 89bd 56f2 76bd 9721 2f3d
00000040: 0589 8f3d 9bd6 8abc 0b9c 763d a48a e43c
00000050: 6897 23bd 104a ec3c c343 8fbc 96d1 5fbd
00000060: 4e41 06bc 9e87 163d 070f 553d 09e6 813c
00000070: d34f 13bd 5e00 933d 4c12 7cbd 04de 853b
00000080: 99ba 57bd cdc9 0d3d 1d9a 87bc 62bf 8f3d
00000090: ae55 413d 2d53 313c 2085 77bd 91fc d8bc
000000a0: 0b22 52bd 17d3 06bd d972 863c 642d 9d3d
000000b0: 6eb7 96bd 92a3 7b3d e97d 4c3d a3b4 70bc
000000c0: 4763 3fbd 282b a33d d595 2abd b2a0 203d
000000d0: a014 8ebd 1979 d7bc 3e16 423d db66 113b
000000e0: 55ee e93c e4c2 a23c c2ed 94bc f033 adbd
000000f0: c34d 9ebd 2587 51bd eac0 97bc fb46 923d
00000100: 2ade 673d 764e 803d 1cc4 3c3d b875 303d
00000110: fbaf f63c 8e49 c5bc 1d72 193b 4ff3 3cbd
00000120: ef69 92bd da4a 8bbd 9d01 f0b9 41cc cdbc
00000130: 5843 3b3d 68a8 b1bd 917b 93bd 6ed4 1cbc
00000140: 279a 10bd 89a3 163d 2b2e bfbc 8522 813c
00000150: c8d7 d3bc b4bb efbc cb03 d0bc cbd2 be3d
00000160: 0b9b 8e3d 1229 be3c 43ef 97bd b394 03bd
00000170: 8751 3b3d c1b7 b8bd 55bf a03d 183a 383d
00000180: 8a1a 933b 72e2 a2bb 8b89 8dbd 91bb 953c
00000190: ca87 97bd 08a2 e0bc 0aaf 8bbd c453 92bd
000001a0: fe24 8f3d 1719 11bd f6e2 803c 1b7a a8bd
000001b0: e34c 9cbd 902c 8ebc 5e82 593b a23a 2abd
000001c0: 12da 453d 34e0 32bd 89e9 85ba 457f 1b3d
000001d0: c9c2 933c 2fc7 983d 9ec7 75bd 2f9f 86bc
000001e0: ab14 9cbc 76fd 2bbc 9f59 d83c e9aa 683c
000001f0: 3015 5e3d 0b24 2f3d adf0 f3bb f0a1 1cbd
00000200: c5d3 9c3c c5ff 92bc b641 05bd 0e77 9b3d
00000210: 3c91 20bd 075c f6bc 7649 91bc 1158 d7bc
00000220: 8d45 4b3d aea5 34bd 37f1 3a3c beba 133d
00000230: d577 993d 14d4 a3bd 5728 313c 1244 373d
00000240: e43e 393b c5b9 6dbc f6ca 953d 5c9e 79bc
00000250: b40c 473d a689 4a3d 7784 7abd 79d8 143d
00000260: 4d01 183d 10bf 853d 8d20 41bc 5550 b8bb
00000270: 6abc ef3c 1853 99bd a030 8dbd f934 90bc
00000280: 502d a2bc 146e e9bc be3d 223d 9c40 7bbd
00000290: eb1c eabc bf6c 82bd c284 39bc 3696 13bd
000002a0: 4abd cebc 6d2f 843b 6d9d 65bd 5926 0abd
000002b0: 5ecf 04bc 4db4 76bd 6d28 8b3a 96cd 06bd
000002c0: 4991 8a3b 9b3e 123d de7c 573d 312b b23d
000002d0: c44d 6bbd b2bd b0bc 04b8 36bd 2bda 85bd
000002e0: e49a f1bc bba2 3ebc 72c5 993d a6d6 62bc
000002f0: f89f 6c3c 97f4 e73c 4560 8d3d 6892 643d
00000300: d6b5 f53c 0f66 153d d738 633d 89eb 79bd
00000310: 3733 fbbc 493d 303d edd2 49bd ad62 9539
00000320: 9c7b 3ebd 0d7b 413d 1cae 78bb 65bc 85bd
00000330: ae13 55bd d711 61bd 8388 73bb c96c 19bd
00000340: 47f4 a9bc c1a0 053d 6436 9dbd 3e2e 433d
00000350: 861b 81bd 9f05 bc3d c265 253d b6de 183d
00000360: c63b 83bc 3c30 d13d 1daa f6bb 6882 b0bd
00000370: 76d6 9bbd 784a 173a 35cf 8a3d 4e1d febc
00000380: 5986 15bd 16ea 693d b3ed 9f3d 3f49 603d
00000390: fcde 77bd 7c74 6abd 153e 193d e0dc 643d
000003a0: 47ba 0fbd d03c c4bb 6938 1e3d 01f6 793d
000003b0: 51f0 3abd 21dd 523d f118 af3c ccb1 a63d
000003c0: 2206 9ebd 5b65 d1bc cace 803d 0503 56bd
000003d0: 297d 86bd 3b13 303d f68e 12bd d7af 6bbd
000003e0: d32f 583d 485c 2abd 7894 7ebd 14f6 56bd
000003f0: 2c0f dcbb 1aae 86bb 4223 783d 3252 4a3d

mlp1.2.bias f4 [100]
0.0005986528 -0.0257859 -0.056548268 -0.036767565 -0.044026017 -0.03246303 0.034853324 0.02123199
0.09694635 0.054898016 -0.033164456 0.02641628 0.026944302 0.027301867 -0.025658725 -0.02582376
0.028641118 -0.035909053 -0.04626645 -0.025761362 -0.037915785 -0.0371857 0.04542578 0.0090639945
-0.020438133 0.07135306 -0.045244638 -0.026959343 -0.04526351 0.021974906 0.04080445 -0.03234222
0.020118298 -0.0081706615 0.005643923 -0.082153745 0.020443536 0.020105228 0.051945623 -0.014224904
0.07173858 -0.060812496 -0.0851368 -0.046140157 0.10493874 0.0022221 0.017143724 0.0503098
-0.045969773 -0.05912715 -0.057893656 -0.088936985 -0.010202989 0.028086975 -0.053705003 0.05143972
-0.003538456 0.07104383 0.021071434 -0.111203015 0.02893113 0.03391108 0.07301148 -0.031095054
0.0525382 -0.030927429 -0.041030157 0.050119538 -0.101727664 -0.03296296 -0.14459512 0.10044754
0.05120799 -0.036292706 -0.011572907 -0.036902882 0.05999088 -0.045243725 0.06588014 0.005480379
0.00961752 -0.062052984 -0.033815123 -0.06275743 -0.07252907 0.06099038 -0.034233753 -0.0031055599
0.050066184 -0.11716251 0.0089735985 0.039853774 -0.0484238 -0.031025834 0.0457463 0.062995955
-0.07189668 -0.05632923 0.070794135 0.0398369
00000000: e9ee 1c3a f43c d3bc 289f 67bd 9699 16bd
00000010: a054 34bd f4f7 04bd 5cc2 0e3d b6ee ad3c
00000020: cf8b c63d bedc 603d 74d7 07bd f466 d83c
00000030: 4cba dc3c 2aa8 df3c 3f32 d2bc 5a8c d3bc
00000040: c7a0 ea3c 5f15 13bd e481 3dbd 7e09 d3bc
00000050: 954d 1bbd 0850 18bd 6210 3a3d 2681 143c
00000060: df6d a7bc 8e21 923d 7152 39bd d7d9 dcbc
00000070: 3b66 39bd b804 b43c 9122 273d 4779 04bd
00000080: 21cf a43c 3dde 05bc a8f0 b83b 3940 a8bd
00000090: 3479 a73c b8b3 a43c efc4 543d 920f 69bc
000000a0: adeb 923d 8616 79bd 345c aebd 76fd 3cbd
000000b0: 1fea d63d a7a0 113b ff70 8c3c a611 4e3d
000000c0: cd4a 3cbd 4f2f 72bd e621 6dbd 9824 b6bd
000000d0: 702a 27bc a816 e63c c7f9 5bbd 75b2 523d
000000e0: 71e5 67bb 6d7f 913d 009e ac3c 68be e3bd
000000f0: fa00 ed3c 58e6 0a3d 0b87 953d 0ebb febc
00000100: 4c32 573d 855b fdbc 3d0f 28bd 254a 4d3d
00000110: 9856 d0bd 2b04 07bd be10 14be 71b7 cd3d
00000120: 78bf 513d a9a7 14bd 4a9c 3dbc 7a27 17bd
00000130: ffb8 753d 7c51 39bd 2bec 863d c094 b33b
00000140: cd92 1d3c 452b 7ebd ba81 0abd f886 80bd
00000150: 1f8a 94bd 0cd1 793d b138 0cbd a686 4bbb
00000160: 3312 4d3d e6f2 efbd 0006 133c b63d 233d
00000170: 0958 46bd e429 febc 7960 3b3d 0604 813d
00000180: 913e 93bd 7bb9 66bd 84fc 903d 042c 233d

mlp2.0.weight f4 [100, 100]
-0.08270732 -0.088200144 0.08895234 0.019797122 -0.08857439 0.041264426 0.01661024 0.054816835
-0.016232079 -0.02532402 -0.07474333 -0.013464071 0.008201656 -0.11468282 -0.06295239 0.050795227
0.07712972 -0.061204698 -0.083728835 -0.0768785 0.101809226 0.0035708665 0.07677683 -0.0729542
0.044692032 -0.07108518 -0.10001163 0.012497163 -0.12559703 -0.004655904 -0.109475635 0.08173836
-0.016100744 0.12152135 0.03387209 0.02061555 -0.07747451 -0.027866472 -0.07329023 0.024380375
-0.008923945 0.07920792 0.083939776 -4.0733816e-05 0.008635953 0.030247863 0.11930385 -0.0754885
0.09635887 0.0729408 0.027145233 -0.0948672 0.07094153 0.11391556 0.10890617 -0.1273178
0.0039749998 0.04121404 0.030152274 0.09582872 0.05504571 -0.018918559 0.07154743 0.051601697
0.06834589 -0.102052025 0.0063956287 0.018316299 0.027412219 -0.09148082 0.052031353 -0.038853854
0.07628128 0.0014049053 0.033230733 0.07932145 -0.08339898 0.08434133 -0.08582683 0.10555958
-0.028067237 0.06310085 0.05792003 -0.056784675 0.05150932 -0.058310505 -0.025031136 -0.066389784
-0.02282608 0.036743537 0.0074357246 0.02894297 -0.054320596 0.0056193485 0.027595356 0.0117247235
0.06834407 -0.0951226 -0.0059702913 0.06749094 0.06448306 0.060266998 -0.03296778 0.055686295
0.016728839 -0.024465417 -0.067322955 -0.037376553 0.08641015 -0.039889205 0.056958158 0.031799633
0.08886839 0.018744508 -0.039289195 -0.0010484935 -0.09925959 0.0043688663 -0.06342867 -0.075569466
0.05371371 -0.01813556 -0.020866875 0.016156036 0.027426004 0.034416463 -0.011881006 0.091877125
-0.0856593 0.033463545 -0.050981387 -0.062474687 -0.027902255 -0.085539766 -0.021400876 0.011978063
0.06663719 -0.00060968666 -0.041716408 0.024468077 0.0297753 -0.0991793 -0.07242057 -0.031255152
-0.045592207 0.021279586 0.06012601 -0.07750163 -0.05771037 -0.061518233 -0.03516456 -0.01541275
0.07033698 0.024014343 0.025316736 -0.056985095 -0.055131815 -0.053226296 -0.04756633 0.043737818
-0.0140534835 0.05898049 0.050655983 -0.08859401 -0.036583968 -0.06962249 0.05163719 0.07695275
0.052614234 -0.00727078 0.060046744 0.030188603 -0.10633246 -0.08691891 0.0282298 -0.04909416
-0.060758498 -0.0012258133 0.029974073 0.058258526 0.07061786 -0.0020683974 0.008518224 0.059795897
-0.08927849 -0.042233903 -0.094504476 -0.015008643 0.06008512 0.08410783 -0.002508922 -0.08314567
0.050363112 -0.031358793 -0.096584804 -0.050061904 0.06605579 0.09481131 0.04283208 -0.06973019
0.06554447 0.027096897 -0.0047711134 -0.030978877 -0.0030396304 0.106656626 -0.01957793 -0.034590423
-0.03694676 0.0707808 -0.068169095 0.09966775 0.046674415 0.055576965 0.06568646 -0.0005938718
-0.07591988 -0.015025729 0.088762715 0.02032532 0.03868772 0.026692344 0.041507363 0.04824674
0.09749109 -0.05840284 -0.041617636 0.07294593 0.020080663 -0.07802714 -0.0065912516 0.035967533
-0.052760113 -0.058404855 0.06861545 -0.09962379 -0.0011216647 0.08863173 -0.07724601 0.077508986
-0.013354802 0.006918719 -0.059144195 -0.0065543456 0.04906522 0.07436798 0.011654004 0.045773316
0.058590095 0.09858535 0.0709407 0.026135895 -0.062620915 -0.009011743 0.05159389 -0.058372304
00000000: 7562 a9bd 47a2 b4bd a52c b63d 932d a23c
00000010: 7d66 b5bd e304 293d 3312 883c 9e87 603d
00000020: 23f9 84bc 5274 cfbc 0813 99bd 6898 5cbc
00000030: 3d60 063c d4de eabd 2fed 80bd a80e 503d
00000040: 30f6 9d3d c7b1 7abd 067a abbd 7a72 9dbd
00000050: 5b81 d03d 3305 6a3b 2c3d 9d3d 0369 95bd
00000060: fe0e 373d 1b95 91bd e6d2 ccbd e7c0 4c3c
00000070: 829c 00be 8e90 98bb c334 e0bd 7166 a73d
00000080: b5e5 83bc 30e0 f83d 76bd 0a3d f1e1 a83c
00000090: f5aa 9ebd 3a48 e4bc 3019 96bd 5ab9 c73c
000000a0: bd35 12bc c337 a23d 9ee8 ab3d 9ad9 2ab8
000000b0: d07d 0d3c 5eca f73c 9455 f43d b799 9abd
000000c0: cd57 c53d fc61 953d ae5f de3c bc49 c2bd
000000d0: cb49 913d 904c e93d 330a df3d 995f 02be
000000e0: b740 823b 0ed0 283d e701 f73c d941 c43d
000000f0: 9c77 613d 18fb 9abc 7587 923d 4d5c 533d
00000100: eef8 8b3d a700 d1bd 6c92 d13b 100c 963c
00000110: 978f e03c 4c5a bbbd d41e 553d 3825 1fbd
00000120: 5c39 9c3d cd24 b83a f31c 083d 4973 a23d
00000130: 16cd aabd 26bb ac3d fac5 afbd 9f2f d83d
00000140: 43ed e5bc 053b 813d 8e3d 6d3d 0c97 68bd
00000150: 70fb 523d ffd6 6ebd 190e cdbc 5ef7 87bd
00000160: c2fd babc 6480 163d 61a7 f33b cf19 ed3c
00000170: 467f 5ebd 8322 b83b a80f e23c 0e19 403c
00000180: faf7 8b3d a3cf c2bd 6fa2 c3bb b138 8a3d
00000190: b20f 843d 87da 763d 3909 07bd 5017 643d
000001a0: eb0a 893c b36b c8bc 9ee0 89bd 2818 19bd
000001b0: cef7 b03d dd62 23bd f54c 693d 5540 023d
000001c0: a100 b63d 158e 993c b5ed 20bd 9b6d 89ba
000001d0: 9d48 cbbd b528 8f3b e4e6 81bd 2ac4 9abd
000001e0: e802 5c3d 0791 94bc 02f1 aabc aa59 843c
000001f0: 80ac e03c 47f8 0c3d 8da8 42bc 132a bc3d
00000200: 256e afbd 1211 093d dcd1 50bd 75e5 7fbd
00000210: 4593 e4bc 792f afbd e450 afbc a33f 443c
00000220: 1479 883d 61d3 1fba d3de 2abd 4771 c83c
00000230: 54eb f33c 841e cbbd 3c51 94bd 6705 00bd
00000240: e5be 3abd 8752 ae3c b146 763d 2db9 9ebd
00000250: b561 6cbd 8bfa 7bbd b708 10bd c285 7cbc
00000260: d60c 903d bab9 c43c 0b65 cf3c 3469 69bd
00000270: e6d1 61bd d103 5abd e9d4 42bd 6d26 333d
00000280: 9540 66bc 8795 713d a67c 4f3d c770 b5bd
00000290: 12d9 15bd 3c96 8ebd 8581 533d 6799 9d3d
000002a0: 0682 573d b93f eebb 93f3 753d 174e f73c
000002b0: d5c4 d9bd 8b02 b2bd 2e42 e73c f516 49bd
000002c0: e7dd 78bd 78ab a0ba 308c f53c 7ea0 6e3d
000002d0: 19a0 903d f38d 07bb 0590 0b3c 8bec 743d
000002e0: a4d7 b6bd 75fd 2cbd 908b c1bd d0e6 75bc
000002f0: d11b 763d ba40 ac3d ba6c 24bb 4748 aabd
00000300: 8d49 4e3d 1472 00bd 41ce c5bd b60d 4dbd
00000310: 4248 873d 6f2c c23d b170 2f3d b4ce 8ebd
00000320: 2e3c 863d 50fa dd3c 0057 9cbb 6ac7 fdbc
00000330: 8934 47bb ca6e da3d e561 a0bc b0ae 0dbd
00000340: 7c55 17bd 86f5 903d 3d9c 8bbd 9b1e cc3d
00000350: ac2d 3f3d aca4 633d 9f86 863d 10ae 1bba
00000360: e27b 9bbd 7a2e 76bc 3ac9 b53d 4981 a63c
00000370: 0477 1e3d e7a9 da3c a003 2a3d 609e 453d
00000380: 69a9 c73d d137 6fbd 4177 2abd ad64 953d
00000390: 3480 a43c b1cc 9fbd 6dfb d7bb b152 133d
000003a0: fd1a 58bd ee39 6fbd 4286 8c3d 8f07 ccbd
000003b0: d204 93ba 8d84 b53d 2833 9ebd 08bd 9e3d
000003c0: 19ce 5abc 6cb6 e23b 2f41 72bd d6c5 d6bb
000003d0: 9df8 483d 3d4e 983d 70f0 3e3c cd7c 3b3d
000003e0: 2bfc 6f3d 1ee7 c93d 5c49 913d f21a d63c
000003f0: 653f 80bd fda5 13bc 1d54 533d cc17 6fbd

mlp2.0.bias f4 [100]
-0.06407937 -0.12781492 0.034836147 0.08027405 0.04639548 0.02443981 -0.040904216 0.09407383
-0.052444093 -0.047040388 0.0004566016 -0.12443569 0.12433641 -0.025923537 0.08323032 0.037339613
0.024667213 0.0757444 -0.08231615 0.033027846 -0.009892504 -0.043309417 0.078568175 -0.052852094
-0.027868519 -0.042851776 -0.051784772 0.062745295 0.10544113 0.15386096 -0.082679056 0.027336564
0.056099474 -0.081803724 0.016116276 -0.021600204 -0.0020594222 0.024498032 0.10747853 0.005063287
0.008141829 0.076740526 0.073023826 0.14481921 -0.05919959 0.076306276 0.009387571 -0.01433356
0.08674408 0.034278583 0.06629626 0.041012347 0.023661897 0.049633954 0.022852927 -0.16905427
0.05156441 0.06335268 0.09241334 -0.05998642 0.0035709918 0.060329497 -0.021379115 0.10191727
0.06812161 0.07718208 0.04147867 0.06032607 -0.024864636 -0.07229639 0.04840665 -0.0086407075
0.06242239 0.077267244 -0.0059086047 0.01249448 -0.010278149 0.03669972 0.035118803 0.04158935
-0.05126978 -0.07124111 0.07490996 -0.043504044 0.07421114 -0.031582925 0.13876288 0.04816208
0.18750702 0.02881008 0.028747952 -0.05380617 0.012901277 0.037594736 0.002427957 -0.024284553
0.08718722 -0.03467815 0.18609121 0.007671984
00000000: 0b3c 83bd eae1 02be 59b0 0e3d b966 a43d
00000010: 3009 3e3d ff35 c83c 2e8b 27bd c8a9 c03d
00000020: 9ecf 56bd 6cad 40bd 0864 ef39 24d8 febd
00000030: 16a4 fe3d 995d d4bc a874 aa3d 6cf1 183d
00000040: e512 ca3c e11f 9b3d 5f95 a8bd 3548 073d
00000050: 2b14 22bc 3765 31bd 5ae8 a03d 707b 58bd
00000060: 854c e4bc 5885 2fbd 451c 54bd 9b80 803d
00000070: 85f1 d73d ba8d 1d3e a353 a9bd eef0 df3c
00000080: 90c8 653d b688 a7bd 4806 843c e9f2 b0bc
00000090: 5ff7 06bb 19b0 c83c b41d dc3d eee9 a53b
000000a0: 4e65 053c 232a 9d3d 848d 953d 7d4b 143e
000000b0: 457b 72bd 7746 9c3d 54ce 193c 4fd7 6abc
000000c0: e1a6 b13d b367 0c3d 55c6 873d 90fc 273d
000000d0: 98d6 c13c f94c 4b3d 1036 bb3c 901c 2dbe
000000e0: 3435 533d 0dbf 813d 3543 bd3d 52b4 75bd
000000f0: 4d07 6a3b 101c 773d 4123 afbc 00ba d03d
00000100: 5883 8b3d a311 9e3d 8ae5 293d 7818 773d
00000110: ecb0 cbbc 2110 94bd 0d46 463d c191 0dbc
00000120: 9fae 7f3d 4a3e 9e3d f89c c1bb a6b5 4c3c
00000130: ae65 28bc 7252 163d bcd8 0f3d 9859 2a3d
00000140: 4300 52bd dce6 91bd 656a 993d 4c31 32bd
00000150: 03fc 973d 195d 01bd db17 0e3e 9a45 453d
00000160: d701 403e 1e03 ec3c d380 eb3c dc63 5cbd
00000170: e15f 533c f0fc 193d 5c1e 1f3b 66f0 c6bc
00000180: 378f b23d ad0a 0ebd b28e 3e3e 4465 fb3b

mlp2.2.weight f4 [50, 100]
0.08306028 0.021133188 0.05946371 0.083354294 0.047577295 0.033794094 0.047991063 -0.086074404
-0.08242379 -0.099016674 -0.033682592 -0.08221016 0.06992244 -0.027436959 -0.079309225 -0.08971116
0.036411617 0.054974947 -0.05069066 -0.059690323 -0.04928992 0.034107078 -0.010205405 0.07377675
-0.07527729 0.06282794 -0.018826485 -0.002536728 -0.08628149 -0.049297072 -0.05908758 0.08204543
-0.07439643 -0.044176117 -0.01328051 0.08777583 0.00544204 -0.07484028 0.04124676 0.013821807
-0.041921906 -0.028505746 0.07219441 0.036747653 -0.02931171 0.011545593 0.08873093 -0.07106317
-0.00880947 -0.034422506 0.096632645 0.020995703 0.08389655 -0.030338114 -0.08309129 -0.04430773
-0.028410355 0.016028622 -0.03158857 -0.012658213 0.05959774 0.008191121 -0.03361165 0.010691294
-0.062646024 0.0855086 0.029425485 -0.021801088 -0.024943871 0.0398288 -0.07551575 -0.02348433
-0.100821026 -0.0022166937 0.020710433 -0.021697005 0.14182143 0.008079708 0.016242396 0.04578421
-0.081896804 -0.010042869 0.062672675 0.06920855 0.0679019 -0.021271046 -0.11462558 0.095900804
-0.026016504 0.056972444 -0.039826192 -0.0908008 0.025381185 -0.02935455 0.011562676 0.06286299
-0.08043316 -0.07827926 -0.098860934 -0.10495514 0.13082024 -0.031878065 -0.07854687 0.102671266
0.06852907 -0.05106862 0.07236518 0.0146287875 -0.08925395 -0.08659063 -0.0055971937 0.08077764
-0.004047022 -0.029251922 0.021614954 -0.041856345 0.033681523 0.016170226 0.07482136 0.056192
0.057165634 -0.0013659924 -0.06620671 -0.09895788 -0.04885598 0.018437363 -0.02401192 0.09271913
-0.06024952 -0.0074482956 0.090908125 -0.024737122 -0.064508885 0.043210298 -0.08420063 -0.06690617
0.05551783 0.09665155 0.03353351 0.015435372 -0.0054577435 -0.100683704 -0.044948086 -0.058864128
-0.047863696 -0.01795958 -0.050315246 0.06714125 0.06497581 0.057634793 -0.046246085 0.07986091
0.006798214 0.075740434 0.059001967 -0.04754131 -0.110656954 0.07127889 0.019945089 0.0956897
0.07078151 0.06825377 -0.0037994692 -0.0035558718 -0.012141917 0.030373849 -0.023180766 -0.05864574
0.08464932 0.060513403 0.0178661 0.0956119 0.07308705 -0.0804506 0.064349994 -0.031030083
0.0966086 0.092617646 0.0070932647 -0.05834322 0.06933606 -0.08058913 -0.02174664 0.061596394
-0.040505566 -0.093016736 0.038243655 -0.07890997 -0.06615857 0.06367328 -0.07489569 0.04218173
-0.011126244 -0.06614993 -0.08003836 -0.09371628 -0.04736534 0.07066761 -0.035420272 0.06192225
-0.01433914 -0.020350134 0.049501058 0.009526848 0.030540243 -0.040944967 0.12684563 0.01725951
0.042919885 0.039277516 -0.09165081 0.058293324 0.13021857 -0.01827304 0.042319424 -0.10885587
-0.021079002 -0.040237512 -0.0152718825 0.10460166 0.08551204 -0.08078522 0.013211126 0.08695227
0.12401377 -0.027839659 -0.13586082 0.00084330526 -0.03597703 0.018131115 -0.13029958 0.095299944
-0.018019585 -0.056104712 0.013649781 -0.047459684 0.08050379 -0.109630615 0.045086425 0.08922341
0.025164003 -0.039361548 0.01740259 0.031246016 -0.037739936 -0.01615849 -0.11460464 -0.02794506
0.072870694 0.03505574 0.037649207 0.03245105 0.026139818 0.011464233 0.023646267 0.061693385
00000000: 821b aa3d 821f ad3c 3890 733d a8b5 aa3d
00000010: 69e0 423d ad6b 0a3d 4792 443d c747 b0bd
00000020: cecd a8bd 41c9 cabd c2f6 09bd cd5d a8bd
00000030: 7f33 8f3d 79c3 e0bc e06c a2bd 7cba b7bd
00000040: 5924 153d 692d 613d 02a1 4fbd d77d 74bd
00000050: 3ae4 49bd ddb3 0b3d 9234 27bc 4418 973d
00000060: fb2a 9abd efab 803d 003a 9abc 3c3f 26bb
00000070: 5ab4 b0bd baeb 49bd d105 72bd 6f07 a83d
00000080: 285d 98bd 04f2 34bd 7f96 59bc d0c3 b33d
00000090: 2453 b23b dc45 99bd 5df2 283d dc74 623c
000000a0: 4eb6 2bbd e284 e9bc aada 933d b584 163d
000000b0: 1c1f f0bc ba29 3d3c 90b8 b53d 9189 91bd
000000c0: 9855 10bc 9dfe 0cbd 56e7 c53d 2eff ab3c
000000d0: f4d1 ab3d a387 f8bc c42b aabd 067c 35bd
000000e0: d5bc e8bc 754e 833c 0463 01bd 6564 4fbc
000000f0: c31c 743d 0d34 063c 5fac 09bd 8a2a 2f3c
00000100: 8f4c 80bd 221f af3d b70d f13c 3298 b2bc
00000110: 1757 ccbc 8623 233d 00a8 9abd 3662 c0bc
00000120: 417b cebd f345 11bb eda8 a93c ebbd b1bc
00000130: a339 113e c060 043c c60e 853c 3988 3b3d
00000140: 83b9 a7bd d88a 24bc 885a 803d 36bd 8d3d
00000150: 2710 8b3d 9e40 aebc d1c0 eabd a467 c43d
00000160: 9020 d5bc f05b 693d ca20 23bd c5f5 b9bd
00000170: 34ec cf3c f478 f0bc 6171 3d3c 50be 803d
00000180: 24ba a4bd e050 a0bd 9a77 cabd b8f2 d6bd
00000190: bef5 053e 9392 02bd 2edd a0bd 5045 d23d
000001a0: f858 8c3d 542d 51bd 3234 943d 95ad 6f3c
000001b0: c6ca b6bd 6e56 b1bd aa68 b7bb bf6e a53d
000001c0: e29c 84bb baa1 efbc d811 b13c 8f71 2bbd
000001d0: a3f5 093d 6c77 843c f13b 993d 9529 663d
000001e0: 8326 6a3d 190b b3ba 6297 87bd 6eaa cabd
000001f0: 351d 48bd f409 973c a5b4 c4bc 87e3 bd3d
00000200: 33c8 76bd d510 f4bb 0a2e ba3d 81a5 cabc
00000210: 3c1d 84bd 48fd 303d 6171 acbd 1a06 89bd
00000220: aa66 633d 3ff1 c53d 6f5a 093d a4e4 7c3c
00000230: dfd6 b2bb 4233 cebd 7c1b 38bd 831b 71bd
00000240: b90c 44bd f81f 93bc 5c17 4ebd 5a81 893d
00000250: 0a12 853d 7612 6c3d 896c 3dbd 1e8e a33d
00000260: 8dc3 de3b cd1d 9b3d 0cac 713d adba 42bd
00000270: 1da0 e2bd abfa 913d e263 a33c f6f8 c33d
00000280: e5f5 903d a2c8 8b3d 8400 79bb a109 69bb
00000290: e4ee 46bc 94d2 f83c 97e5 bdbc 8436 70bd
000002a0: 9f5c ad3d e7dc 773d ed5b 923c 2cd0 c33d
000002b0: aaae 953d 49c3 a4bd eec9 833d cd32 febc
000002c0: bbda c53d 52ae bd3d 9e6e e83b 4df9 6ebd
000002d0: 1000 8e3d ea0b a5bd 0226 b2bc 804c 7c3d
000002e0: 2ae9 25bd 8f7f bebd 61a5 1c3d 8d9b a1bd
000002f0: 257e 87bd 2367 823d e962 99bd c0c6 2c3d
00000300: da4a 36bc 9d79 87bd 27eb a3bd 52ee bfbd
00000310: 2902 42bd 2eba 903d d914 11bd 2fa2 7d3d
00000320: b6ee 6abc 53b5 a6bc 9fc1 4a3d 7f16 1c3c
00000330: 882f fa3c e9b5 27bd d2e3 013e d163 8d3c
00000340: c3cc 2f3d 76e1 203d 6bb3 bbbd fbc4 6e3d
00000350: 0458 053e 58b1 95bc 2257 2d3d d4ef debd
00000360: dfad acbc 17d0 24bd eb36 7abc 6539 d63d
00000370: f020 af3d b972 a5bd 7b73 583c 0814 b23d
00000380: eefa fd3d ff0f e4bc 191f 0bbe 4211 5d3a
00000390: a65c 13bd b487 943c 416d 05be 9e2c c33d
000003a0: cf9d 93bc 0ece 65bd 55a3 5f3c 1665 42bd
000003b0: 2cdf a43d 0486 e0bd 8bac 383d c3ba b63d
000003c0: bd24 ce3c 9339 21bd e08f 8e3c a5f7 ff3c
000003d0: 3195 1abd cf5e 84bc d6b5 eabd 0aed e4bc
000003e0: 3b3d 953d 9c96 0f3d 0e36 1a3d 64eb 043d
000003f0: 2c23 d63c 7ad4 3b3c d1b5 c13c 34b2 7c3d

mlp2.2.bias f4 [50]
0.03342596 -0.046858024 -0.09989816 -0.07464412 0.10124807 0.14597104 0.057619117 0.03479783
0.040285513 -0.093158595 0.10320499 -0.022118596 0.14862435 0.045241065 0.038147483 0.052770548
-0.067475714 -0.041628685 -0.08379984 0.11600185 0.06507125 -0.0013805233 0.042044677 0.0448626
0.020190839 -0.110127695 -0.04727833 0.04454982 0.01978729 0.030468302 -0.019252263 0.10776495
-0.015508841 -0.04639555 0.13067329 -0.056930944 0.06392412 0.024372777 0.011367944 0.0817165
-0.07633212 0.098176196 -0.06129835 -0.023846399 0.022051549 0.059427597 0.10715599 -0.028838836
-0.010364383 0.07062068
00000000: a9e9 083d 33ee 3fbd 6897 ccbd 04df 98bd
00000010: 265b cf3d 6f79 153e 0602 6c3d 2b88 0e3d
00000020: 6c02 253d efc9 bebd 235d d33d 0f32 b5bc
00000030: fb30 183e b24e 393d 8940 1c3d ee25 583d
00000040: b530 8abd d782 2abd 409f abbd 6192 ed3d
00000050: 1344 853d adf2 b4ba 0a37 2c3d d8c1 373d
00000060: 4267 a53c a18a e1bd eca6 41bd df79 363d
00000070: f418 a23c a998 f93c ecb6 9dbc dfb3 dc3d
00000080: cb18 7ebc 4309 3ebd 38cf 053e 6c30 69bd
00000090: a6ea 823d 6ba9 c73c 9d40 3a3c fb5a a73d
000000a0: 0454 9cbd 9a10 c93d fb13 7bbd 8659 c3bc
000000b0: 73a5 b43c 5a6a 733d 9a74 db3d 6c3f ecbc
000000c0: 60cf 29bc 93a1 903d

attention.0.weight f4 [100, 200]
-0.05780143 0.03342715 0.053481057 -0.03309844 0.013426418 -0.04716481 0.0061243745 -0.043181416
-0.040556114 -0.058773432 0.052078955 -0.060816403 0.018186884 0.05769475 -0.046665154 0.03171881
-0.033929605 -0.056699835 0.061205078 -0.032929946 0.032674976 0.018192098 -0.060361076 -0.06771939
-0.040179513 0.06488092 -0.010843659 -0.059382956 0.06721782 -0.06515596 0.037586346 0.035800654
-0.056230396 -0.06514902 -0.0037852332 0.040239554 -0.010743805 0.018906366 0.04311087 -0.06746471
-0.072436586 -0.061289474 0.04094459 -0.0013448866 0.043633524 0.038314752 -0.065455616 0.030028785
0.06442424 -0.034870926 0.037324272 0.023491085 -0.014058419 0.03699866 0.062203508 -0.059088293
-0.0320749 0.0048177075 -0.006894497 0.06076374 0.04180384 0.020027315 -0.0032856876 0.011037374
-0.050834853 0.01317029 0.06614908 0.040662866 0.07162399 -0.030890847 0.067744985 0.03661908
0.06466004 -0.06310074 -0.024553297 0.044753432 -0.05620746 0.053088434 0.060298827 -0.017126558
0.023017922 -0.058637034 0.004146478 -0.0016961079 -0.032888494 0.013453564 -0.023774136 -0.038184132
0.03977191 -0.054504067 -0.06192075 -0.055987682 -0.06859062 -0.061357398 -0.03764079 0.020629257
-0.017087545 -0.04629867 0.017051894 -0.034939002 -0.01819874 0.064027384 -0.038314175 0.059765477
0.02884241 -0.05023667 -0.033554714 -0.005022002 -0.036067095 -0.031857304 0.038975384 0.046893075
-0.004872517 0.027115306 -0.034099434 0.075000726 0.059450332 0.044425473 -0.045718316 -0.051012374
-0.041431207 0.044349957 0.0115914475 0.027711552 0.02956516 -0.06312615 -0.009389268 -0.02194149
-0.015540028 -0.061393127 0.0028443797 -0.059802826 -0.030534394 0.05113485 -0.049378626 0.019157875
-0.05239113 -0.048769213 0.055668216 -0.054193698 0.05622451 0.00019489652 0.057393283 -0.0060695545
-0.04231603 0.037876464 0.0045068995 -0.051777024 -0.0020929326 0.07004734 -0.048427958 -0.022553084
0.054476805 -0.053729646 -0.070320986 0.036969602 0.0044746217 -0.07040154 -0.056217972 -0.054262187
-0.031187944 0.059254237 -0.03326125 0.060568403 -0.041450992 -0.038981665 0.040632676 0.02370826
0.029102216 -0.037468106 -0.04002907 0.0034521627 -0.040676866 -0.055890366 -0.06167431 0.06067963
-0.060809776 0.02710914 -0.06444627 0.0129790045 -0.053112313 -0.015190318 -0.02173414 -0.06921075
0.003278706 -0.06176205 0.06368966 0.02332952 0.04266149 0.02732451 -0.051971644 -0.05323308
-0.06278728 0.05411272 -0.013299695 -0.029614832 0.062695175 -0.04586053 -0.017081356 0.021267852
0.045104433 0.07300362 -0.011974929 -0.048913416 0.095537126 0.04992749 -0.0049094893 0.033551987
0.01377736 0.054177232 -0.010043287 0.020054534 0.07419992 -0.034656517 -0.004502195 0.05683469
-0.0043245195 0.0337977 0.056369558 -0.044110864 -0.02768368 -0.031033417 0.017979637 0.0017086196
-0.0030392332 0.012227341 0.028750574 0.020015066 0.046589173 0.029446553 0.024459532 0.065523304
0.0072052074 0.061674498 -0.04921356 -0.0459281 -0.049066093 0.061480623 -0.07006402 0.031253442
0.051295348 0.015353928 -0.049912695 0.058371946 -0.024618763 -0.035749108 0.0335213 0.023562282
-0.030867968 0.007128943 -0.03187718 0.009948551 -0.051974244 0.062419884 0.049068294 0.036702186
00000000: 31c1 6cbd e8ea 083d f40e 5b3d 3b92 07bd
00000010: 7bfa 5b3c e32f 41bd faae c83b ffde 30bd
00000020: 2b1e 26bd 69bc 70bd be50 553d 9f1a 79bd
00000030: a9fc 943c 5551 6c3d f623 3fbd 95eb 013d
00000040: c5f9 0abd 163e 68bd 2db2 7a3d 8de1 06bd
00000050: 32d6 053d 9807 953c 2d3d 77bd 77b0 8abd
00000060: 4693 24bd 4ae0 843d 9aa9 31bc 8b3b 73bd
00000070: 7fa9 893d 7d70 85bd 24f4 193d b5a3 123d
00000080: d851 66bd d96c 85bd ad11 78bb 3bd2 243d
00000090: c906 30bc 86e1 9a3c 0695 303d f02a 8abd
000000a0: a259 94bd ac0a 7bbd 84b5 273d e846 b0ba
000000b0: 11b9 323d eeef 1c3d 980d 86bd edfe f53c
000000c0: dbf0 833d d1d4 0ebd 56e1 183d 6070 c03c
000000d0: 4855 66bc e88b 173d 1bc9 7e3d 9106 72bd
000000e0: f860 03bd dcdd 9d3b 3ceb e1bb 66e3 783d
000000f0: 813a 2b3d 5310 a43c b154 57bb 1ad6 343c
00000100: 3538 50bd 33c8 573c 2b79 873d 1b8e 263d
00000110: 99af 923d cd0e fdbc e2bd 8a3d e3fd 153d
00000120: 7c6c 843d f63a 81bd ff23 c9bc 604f 373d
00000130: cb39 66bd 4273 593d e7fb 763d ff4c 8cbc
00000140: 1590 bc3c 632d 70bd 2edf 873b f04f deba
00000150: 16b6 06bd 566c 5c3c fac1 c2bc f766 1cbd
00000160: dfe7 223d a83f 5fbd 9da0 7dbd 5753 65bd
00000170: 3d79 8cbd e551 7bbd 3b2d 1abd b0fe a83c
00000180: 2efb 8bbc ada3 3dbd 6ab0 8b3c 331c 0fbd
00000190: 8615 95bc ca20 833d 53ef 1cbd a5cc 743d
000001a0: eb46 ec3c f7c4 4dbd ab70 09bd 9b8f a4bb
000001b0: 17bb 13bd ce7c 02bd a7a4 1f3d f412 403d
000001c0: a3a9 9fbb eb20 de3c d9ab 0bbd fb99 993d
000001d0: 3182 733d 7cf7 353d 2143 3bbd 5af2 50bd
000001e0: c5b3 29bd 4da8 353d 0eea 3d3c 5603 e33c
000001f0: a232 f23c 4848 81bd 72d5 19bc a4be b3bc
00000200: 9a9b 7ebc 5c77 7bbd c668 3a3b cff3 74bd
00000210: 4423 fabc c772 513d 3e41 4abd faf0 9c3c
00000220: 1598 56bd 3ac2 47bd 5b04 643d 36fa 5dbd
00000230: ac4b 663d 235d 4c39 3815 6b3d 1de3 c6bb
00000240: 9353 2dbd 5a24 1b3d 9dae 933b 2514 54bd
00000250: 9529 09bb fb74 8f3d 655c 46bd 3fc1 b8bc
00000260: 1223 5f3d 9e13 5cbd 7304 90bd 706d 173d
00000270: d99f 923b af2e 90bd d144 66bd 0742 5ebd
00000280: dc7d ffbc 92b4 723d f33c 08bd 9316 783d
00000290: 84c8 29bd 3dab 1fbd 736e 263d d337 c23c
000002a0: c567 ee3c 2878 19bd 86f5 23bd ae3d 623b
000002b0: c99c 26bd 4ced 64bd 349e 7cbd 348b 783d
000002c0: ac13 79bd fd13 de3c 68fc 83bd e4a5 543c
000002d0: 4c8c 59bd d0e0 78bc cc0b b2bc 5ebe 8dbd
000002e0: 8fdf 563b 34fa 7cbd b96f 823d 8d1d bf3c
000002f0: d1bd 2e3d a7d7 df3c 38e0 54bd ee0a 5abd
00000300: 9e96 80bd 4da5 5d3d f7e6 59bc ce9a f2bc
00000310: 5466 803d 40d8 3bbd 33ee 8bbc eb39 ae3c
00000320: 6dbf 383d ec82 953d 7e32 44bc 6f59 48bd
00000330: f8a8 c33d c580 4c3d c8df a0bb cf6d 093d
00000340: 70ba 613c f2e8 5d3d 998c 24bc 6849 a43c
00000350: 21f6 973d fef3 0dbd 2687 93bb 7ecb 683d
00000360: b3b4 8dbb 756f 0a3d c4e3 663d 98ad 34bd
00000370: e3c8 e2bc cb39 febc 084a 933c c3f3 df3a
00000380: df2d 47bb 2f55 483c 5386 eb3c a3f6 a33c
00000390: 4ad4 3e3d e639 f13c 5b5f c83c 1531 863d
000003a0: a919 ec3b 669e 7c3d 2894 49bd 1a1f 3cbd
000003b0: 87f9 48bd 1bd3 7b3d ba7d 8fbd 9c03 003d
000003c0: 121b 523d 0b8f 7b3c 4171 4cbd 6c17 6f3d
000003d0: 4aad c9bc a86d 12bd a14d 093d b005 c13c
000003e0: d2de fcbc e999 e93b a591 02bd 3fff 223c
000003f0: f2e2 54bd feab 7f3d d6fb 483d 0855 163d

attention.0.bias f4 [100]
-0.01802214 0.06071813 -0.013787204 0.05131617 -0.01694775 -0.028911276 0.0102581885 0.02841254
-0.017885342 -0.056103695 -0.006080659 -0.05223803 -0.035143767 0.000686692 -0.062155735 0.082550846
0.024499228 0.011248797 0.04751799 -0.055919982 0.042191703 0.07276505 -0.06104636 0.03975975
-0.013622039 -0.052642204 0.019166244 0.020948058 -0.06350488 0.046048123 0.077527516 -0.042627525
0.060542215 -0.03648579 0.0017931843 0.029339096 -0.023979343 -0.03922155 0.0010923647 0.07631201
0.04446377 -0.0572688 0.06774737 -0.048633102 0.0016791135 0.013726067 -0.049501844 0.007977875
0.011825634 -0.008737523 -0.018024042 -0.05010071 0.009393004 0.006433326 0.04172365 0.031385403
0.008304166 0.05316131 -0.02857274 -0.046736605 -0.06290015 0.03832657 0.0147411795 -0.068972334
-0.030706963 0.060306773 -0.055624563 -0.059660666 0.07158229 -0.003354665 0.015723176 -0.0431461
-0.03559617 -0.068073794 -0.029912084 -0.06412825 0.046618525 0.032318186 -0.030187866 -0.021920845
0.050979976 0.06771039 -0.030409131 0.07883019 0.002866185 -0.040852368 0.05097044 0.060317848
0.056833375 0.07658611 0.022289796 -0.050269835 -0.04222111 -0.0077007283 -0.05057812 -0.05180052
0.016766207 0.043460008 0.07886532 -0.0021694002
00000000: 2ba3 93bc 93b3 783d bae3 61bc e730 523d
00000010: 02d6 8abc 57d7 ecbc f611 283c 6ac1 e83c
00000020: 4884 92bc fdcc 65bd 4440 c7bb 8bf7 55bd
00000030: e9f2 0fbd 1f03 343a 0397 7ebd 6b10 a93d
00000040: 9bb2 c83c e04c 383c 39a2 423d 5a0c 65bd
00000050: 35d1 2c3d d805 953d bf0b 7abd 1fdb 223d
00000060: f92e 5fbc 5a9f 57bd 8702 9d3c 439b ab3c
00000070: d90e 82bd f59c 3c3d bfc6 9e3d 339a 2ebd
00000080: 1dfb 773d 2072 15bd 4809 eb3a 8b58 f03c
00000090: 5470 c4bc c7a6 20bd ad2d 8f3a 7949 9c3d
000000a0: a41f 363d b092 6abd 22bf 8a3d 8133 47bd
000000b0: b315 dc3a 4ce3 603c 72c2 4abd a2b5 023c
000000c0: 4ec0 413c d427 0fbc 28a7 93bc 6736 4dbd
000000d0: 1de5 193c a6ce d23b 6be6 2a3d fb8d 003d
000000e0: 320e 083c acbf 593d 6111 eabc e26e 3fbd
000000f0: cbd1 80bd 52fc 1c3d fd84 713c 5e41 8dbd
00000100: 2b8d fbbc 3c04 773d 95d6 63bd be5e 74bd
00000110: bc99 923d f0d9 5bbb e4cd 803c f7b9 30bd
00000120: 4acd 11bd 466a 8bbd 300a f5bc ac55 83bd
00000130: 11f3 3e3d 1360 043d 8b4c f7bc 5893 b3bc
00000140: 61d0 503d bfab 8a3d 921c f9bc b971 a13d
00000150: 9bd6 3b3b d054 27bd 61c6 503d d90f 773d
00000160: 1dca 683d 2ed9 9c3d 1799 b63c bee7 4dbd
00000170: 0bf0 2cbd 6456 fcbb 012b 4fbd c82c 54bd
00000180: 4959 893c 1f03 323d 2484 a13d 7f2c 0ebb

attention.2.weight f4 [100, 100]
-0.07065184 -0.011496866 -0.063794635 0.015239344 -0.06370714 0.06785739 -0.08764309 0.09647478
0.0036656498 -0.011516946 0.0030623944 -0.0222556 -0.09053016 0.081483684 0.027753899 -0.012345189
0.03991939 -0.024769142 0.051354226 -0.050378703 -0.01659924 -0.010624989 -0.095401585 0.041290693
0.019137455 -0.020834466 0.092939414 0.019246481 0.07931027 -0.09459483 0.054618873 0.038834866
0.028255321 0.053185116 -0.076498546 -0.09447853 -0.086033136 0.041006833 -0.040262442 0.0741712
0.011417888 0.09403564 -0.087085575 0.027397934 0.01063405 0.09702897 0.048228893 0.052208994
0.055468626 0.062131625 0.070020854 0.087750144 -0.0655629 -0.010561337 -0.0041387742 0.09787102
-0.06863569 0.08248661 -0.08138203 0.09683206 0.043171596 -0.053442623 -0.09340284 0.002391529
-0.07873848 -0.048761476 -0.08809679 -0.08067094 0.078606434 -0.06192405 -0.024699539 0.029434817
0.015924908 -0.01889916 -0.021251809 0.008987642 -0.09415277 0.036200035 0.077296905 -0.027416386
-0.0076273503 0.0732805 0.0760795 -0.02711763 0.029085068 -0.058820702 0.013394975 -0.06046846
-0.0025112927 -0.09327355 -0.07901795 0.04676355 -0.054047458 -0.00087322237 -0.021083945 0.0024994682
-0.034193926 -0.07054626 -0.046558995 0.0467198 0.051948857 0.0072431313 -0.047603574 0.076135024
-0.05600596 0.08712735 -0.015839467 0.08342939 -0.055658482 0.014498889 0.031480614 0.0039630043
0.046343792 -0.07506803 0.03364846 -0.077935874 0.041255742 -0.05437912 -0.01981676 -0.046695013
-0.08460476 -0.10782551 0.076820165 -0.042599764 0.034498334 0.027129134 -0.04616582 0.0034371072
0.09377789 0.08535317 -0.050670784 -0.007190509 0.07425508 0.10633772 -0.013595999 0.057403844
-0.042290375 0.09781909 0.0020909335 0.05165316 0.032740388 -0.08429118 -0.04147298 0.08535447
-0.029048905 -0.05871186 0.08231037 0.09314563 0.061841376 -0.023794468 -0.029667608 0.061074436
-0.038381737 -0.044328228 -0.025635185 0.080601886 0.10271933 -0.07436759 0.02311678 0.0850365
-0.082549766 -0.09637792 0.0582566 0.019238198 -0.07751461 -0.031179417 0.0036345338 0.06913063
-0.012237877 0.019396814 -0.011328265 -0.032608125 -0.06704246 0.07980807 0.05922726 0.06507662
-0.0017835709 0.059738472 -0.034954548 0.07795282 0.079063475 0.06641252 -0.038278703 -0.049088944
-0.052200537 0.068254195 0.07749772 0.10963346 0.041832753 0.04501824 0.04543223 -0.083745025
-0.062400956 0.07502032 0.04986627 -0.009580361 0.010831576 -0.0075871274 0.0153355105 0.07417667
0.042594314 -0.093570255 0.038580813 0.0055986526 -0.026085353 -0.005733645 -0.004953754 -0.03640579
-0.07616987 0.08822151 0.043325342 0.012744141 0.031520106 0.04033661 -0.07771277 -0.02438786
-0.016724123 0.038964428 0.009924591 -0.080767475 0.038613882 0.04726206 -0.031559613 0.052506577
-0.026978148 0.044157613 -0.0846469 -0.071662165 0.03798312 -0.07775547 -0.020754386 0.09015005
-0.051102985 -0.06440318 0.09452969 0.023935461 0.014588273 0.034249593 -0.0059371353 -0.084601276
0.027921354 -0.029626166 -0.052336194 0.035250105 0.071778074 0.08046981 0.00766834 -0.041397046
-0.0005687952 0.026085377 -0.0060703517 0.055846583 0.013062477 0.01814673 -0.073309734 -0.0710186
00000000: e9b1 90bd 5a5d 3cbc c3a6 82bd 71ae 793c
00000010: e478 82bd d1f8 8a3d 387e b3bd 9294 c53d
00000020: 663b 703b 93b1 3cbc 74b2 483b 6051 b6bc
00000030: e067 b9bd ebe0 a63d 255c e33c 7a43 4abc
00000040: 8482 233d a8e8 cabc cf58 523d e659 4ebd
00000050: 21fb 87bc 6f14 2ebc e861 c3bd 6e20 293d
00000060: 27c6 9c3c 0bad aabc 0557 be3d ccaa 9d3c
00000070: 6c6d a23d efba c1bd 0ab8 5f3d 4f11 1f3d
00000080: b477 e73c a3d8 593d 45ab 9cbd f67d c1bd
00000090: 2432 b0bd c8f6 273d 3bea 24bd 12e7 973d
000000a0: 1812 3b3c c295 c03d ec59 b2bd a271 e03c
000000b0: 703a 2e3c 20b7 c63d a98b 453d 19d9 553d
000000c0: 1233 633d bb7d 7e3d 1867 8f3d 59b6 b33d
000000d0: d745 86bd 7509 2dbc 8e9e 87bb 9a70 c83d
000000e0: de90 8cbd bdee a83d 9fab a6bd e34f c63d
000000f0: b3d4 303d a7e6 5abd fd49 bfbd 33bb 1c3b
00000100: a441 a1bd 1dba 47bd 176c b4bd ce36 a5bd
00000110: 69fc a03d 13a4 7dbd b056 cabc 4921 f13c
00000120: f474 823c 69d2 9abc 4618 aebc e740 133c
00000130: 2bd3 c0bd 7d46 143d d74d 9e3d 5498 e0bc
00000140: daee f9bb 1614 963d 92cf 9b3d cb25 debc
00000150: cf43 ee3c faed 70bd 9976 5b3c c7ad 77bd
00000160: 8094 24bb 3406 bfbd 2ad4 a1bd 238b 3f3d
00000170: de60 5dbd f6e8 64ba 3db8 acbc 1ece 233b
00000180: ee0e 0cbd 8f7a 90bd a5b4 3ebd 435d 3f3d
00000190: 53c8 543d ca57 ed3b f7fb 42bd aeec 9b3d
000001a0: 8166 65bd d36f b23d c5c1 81bc 07dd aa3d
000001b0: 26fa 63bd c08c 6d3c d1f1 003d 17dc 813b
000001c0: fdd2 3d3d 44bd 99bd f8d2 093d d89c 9fbd
000001d0: c8fb 283d a4bc 5ebd c256 a2bc 4543 3fbd
000001e0: 4345 adbd 9fd3 dcbd e453 9d3d 177d 2ebd
000001f0: 204e 0d3d eb3d de3c 5f18 3dbd 1741 613b
00000200: 9f0e c03d a5cd ae3d 2b8c 4fbd 5c9e ebbb
00000210: 0c13 983d 97c7 d93d c1c1 5ebc 4b20 6b3d
00000220: ac38 2dbd 6055 c83d 0b08 093b 4492 533d
00000230: c91a 063d dba0 acbd 92df 29bd 53ce ae3d
00000240: f8f7 edbc d97b 70bd 5792 a83d 23c3 be3d
00000250: 624d 7d3d 9eec c2bc 7c09 f3bc 3029 7a3d
00000260: 2b36 1dbd 8491 35bd e100 d2bc 9a12 a53d
00000270: 835e d23d 094e 98bd 675f bd3c 9e27 ae3d
00000280: da0f a9bd c961 c5bd 799e 6e3d 6d99 9d3c
00000290: fbbf 9ebd fa6b ffbc 5c31 6e3b 5c94 8d3d
000002a0: 6081 48bc 11e6 9e3c 309a 39bc 1990 05bd
000002b0: 8f4d 89bd 6a72 a33d 4998 723d e446 853d
000002c0: b5c6 e9ba 54b0 743d 802c 0fbd baa5 9f3d
000002d0: 08ec a13d 4a03 883d 21ca 1cbd 7d11 49bd
000002e0: 3bd0 55bd dbc8 8b3d 20b7 9e3d 8287 e03d
000002f0: d258 2b3d 0c65 383d 2517 3a3d 8382 abbd
00000300: 2598 7fbd 41a4 993d 9340 4c3d f2f6 1cbc
00000310: ec76 313c 709d f8bb cb41 7b3c f0e9 973d
00000320: 6077 2e3d c3a1 bfbd ea06 1e3d e774 b73b
00000330: f3b0 d5bc 4de1 bbbb 1a53 a2bb 3d1e 15bd
00000340: f3fe 9bbd 7bad b43d ea75 313d cdcc 503c
00000350: 3a1b 013d 0038 253d df27 9fbd 0dc9 c7bc
00000360: 0701 89bc 2a99 1f3d c09a 223c 6b69 a5bd
00000370: 9729 1e3d dd95 413d a744 01bd 2311 573d
00000380: 4701 ddbc 9dde 343d 5b5b adbd 9dc3 92bd
00000390: 3094 1b3d 433e 9fbd 1a05 aabc 97a0 b83d
000003a0: 5d51 51bd d0e5 83bd c898 c13d 4d14 c43c
000003b0: a703 6f3c 4d49 0c3d 4d8c c2bb 6f43 adbd
000003c0: 53bb e43c 93b2 f2bc 7a5e 56bd 6a62 103d
000003d0: 6200 933d 5bcd a43d b346 fb3b f38f 29bd
000003e0: 331b 15ba 00b1 d53c cde9 c6bb 63bf 643d
000003f0: 0004 563c 73a8 943c 6a23 96bd 3372 91bd
