result/2robots_1000_hose/rl_model.pth (torch, 392547 bytes, 20 tensors)

mlp1.0.weight f4 [150, 13]
00000000: 1083 2d3c e4f7 9fbd fe0e b8bd a28d 7abe
00000010: 2a96 e5bc dbeb 593a 8361 6c3e 2a8e 84be
00000020: e216 01be c039 a33e 1d9d 413e d931 07be
00000030: f084 50be 7bd1 853c dcfc 86be e878 113e
00000040: 486f 64bd 9aab 9abc ca4e 86be e4a3 ef3d
00000050: 28d9 a4be c3f2 5a3d 80ac 49bd b793 3d3d
00000060: 8228 883d 63db 6c3e bd31 883d 0a45 4bbe
00000070: 2aa0 56bc 1e0e e4bd 5a77 2b3e fde3 50be
00000080: e4e6 b03d 5e38 4f3c 78e0 5c3e 83f9 9b3d
00000090: ec1e eebd e312 febd 1831 8fbe 5b48 a4bd
000000a0: 9df8 c33d c8a0 69bd 9592 02be 7b74 dbba
000000b0: df10 e8bd bffe b2bb 6371 083e 1c98 75be
000000c0: 0016 cf3d 7c92 1dbe fb77 8abd c706 e6bd
000000d0: 4346 163e 98f3 48be 50d8 51be 2b77 06be
000000e0: 4b06 293e 218b 00be b162 433b ca5e 823e
000000f0: 4132 e7bd fb4d 31be 4df7 823e 927e f9bd
00000100: 2d85 b4bd a680 49bd 07e0 873c e77b 8abe
00000110: ba71 1ebd 88e1 8e3d ae75 483e c78d 81be
00000120: f338 413e 155c f2bd 0957 01be 9ba5 2a3e
00000130: 18df 5fbe 63f8 28bd bf0e 5f3e 6cb4 12be
00000140: f21e ae3c a9be fb3d cabb 8b3d b84e 2c3d
00000150: 2279 4fbe b958 413e 58fc 903d 4699 363e
00000160: a0cf e9bd c22a 1d3e 62e4 aebc 2609 f9bd
00000170: dfe4 1fbe 9d97 2c3e a16d 3a3e 8129 0fbe
00000180: f27e 7cbe 2203 823e 6809 5a3d 56aa a1bd
00000190: f619 603e 6592 7d3e 7eb9 003e 1452 083e
000001a0: a1bd 843e 4a8f c93d 1b0f 873e e4fb 82be
000001b0: b8d2 4b3e 565a 2abd e243 93be ff4f 753e
000001c0: 8ab4 773e 6f2c 023e f0a5 0bbe 5ba5 57be
000001d0: 4f5b ddbd fe4e 243d d656 653d e5d1 9839
000001e0: ac03 483d 6385 36be 294a 8a3e 1f35 8f3e
000001f0: 93f9 cfbd 6402 403e 5c26 c53d 150f 0a3e
00000200: 3b86 e53d 58e1 19be 7444 243d f193 8abe
00000210: 7144 23be f9be fcbc 2253 11be 560f 12be
00000220: 884d abbe 8cb2 0b3e bb29 29be 9600 aa3e
00000230: 604a 6f3e a5a8 e43d 9fae 61be 66f3 353e
00000240: 66d2 553e 1464 323e 2bab 7f3d e468 753e
00000250: 8fb1 31be f240 993d 0d54 13be 88b0 b03e
00000260: 906e 5ebd c9f6 edbc 2842 f23d d9a4 1f3e
00000270: 7145 5dbe d110 b13d b95a cdbd dd08 8cbe
00000280: 1de5 64be 7b07 7bbe 2303 50be 5046 fd3d
00000290: 5795 01bc dbda 92bc 879e 77bd 0028 9cbd
000002a0: 82eb 6cbe 2c1a bc3d 566e 84be 3179 13be
000002b0: b6a5 3d3e eddc c0bd 4a19 17be d435 2ebd
000002c0: 8cd6 cbbd a7d8 23be 47ca 75be 94b4 67bd
000002d0: e4ac e73d a188 8fbe 4783 393e 3ee9 cabd
000002e0: ee84 f13d ef2d 613e 9b99 523d 7843 3bbe
000002f0: e16b ff3d bace 9cbd 807a 0fbe efca b6bd
00000300: 08d1 733e b8bc 813d 8644 383d ec3b 873d
00000310: 2ba3 5cbe a0c9 86be 181f 44be d4f2 883e
00000320: c382 313d 635a 36bd 028f a3be 0947 cd3c
00000330: 1aa8 26be d5ce fe3c fed9 aebd 1448 333e
00000340: 9365 883e 4571 823e ddb5 ebbd c793 7b3d
00000350: 7eb6 15be 2c94 2cbe 6be6 e4bd fb66 96be
00000360: 46c3 9b3e c6b1 ec3d 12aa 03be 17c2 98bd
00000370: a725 3b3e 4106 debc 1ccd e5bd ba80 c3bd
00000380: 3294 7dbd 2383 803d e034 2fbe 3388 293e
00000390: 009e 3d3e 6085 823e 2d41 103e 00b0 50bd
000003a0: bf49 4a3e 82f7 3b3c 6de2 91be 26e7 463e
000003b0: ff4e f2bd f8e6 88bd faed b53d 36ec 513d
000003c0: c219 aebd 5453 8ebe f7df 38be 15fb b7bd
000003d0: d458 4c3e 8bb9 b23c 69ea 08bd 2296 1a3c
000003e0: fcf3 27be ca06 683e 2776 91bd 85c6 10be
000003f0: f7b1 243e 0750 b9bb 684a 96be c061 083e
0.01059033 -0.07810953 -0.089872345 -0.24468091 -0.028025705 0.0008313038 0.23084073 -0.25889713
-0.12606385 0.31879997 0.1890759 -0.13202609 -0.20363212 0.01633524 -0.2636479 0.14206278
-0.05577019 -0.018880654 -0.26231986 0.117011815 -0.32196927 0.053454172 -0.049236774 0.04628345
0.06648351 0.23130564 0.06650112 -0.19850555 -0.0130997095 -0.11135505 0.16744748 -0.2039947
0.08637789 0.012647716 0.21570003 0.0761595 -0.11626992 -0.12405946 -0.27967143 -0.08021613
0.095689036 -0.0570381 -0.12751229 -0.0016743088 -0.11331343 -0.005462497 0.13324504 -0.23983806
0.10111618 -0.1538791 -0.06761166 -0.112317614 0.1467524 -0.19624174 -0.20492673 -0.13131396
0.16506307 -0.12553073 0.0029813463 0.25462943 -0.11288882 -0.17314903 0.255793 -0.121823445
-0.08814464 -0.049194954 0.016586317 -0.27047655 -0.038682677 0.069766104 0.19576141 -0.2530348
0.1886938 -0.118339695 -0.12630858 0.16664736 -0.21862447 -0.041252505 0.21782969 -0.14326638
0.02125499 0.12292225 0.06822927 0.04206726 -0.20261052 0.18881501 0.07079381 0.17831907
-0.114165545 0.15348342 -0.021349136 -0.12159948 -0.15614651 0.16854711 0.18205883 -0.13980676
-0.24657801 0.25393015 0.053231627 -0.07893817 0.21884903 0.24762876 0.1257076 0.1331256
0.25925925 0.09841783 0.26378712 -0.25582802 0.19904602 -0.041590057 -0.28762728 0.23956297
0.24189964 0.12712263 -0.13637519 -0.21059172 -0.10808431 0.040114395 0.055991016 0.00029148083
0.048831627 -0.1782432 0.27009705 0.27970216 -0.101550244 0.18750912 0.09626457 0.13482316
0.11207243 -0.15027368 0.040104344 -0.27065995 -0.15944077 -0.030852782 -0.14191869 -0.14263663
-0.3345759 0.13642329 -0.16519825 0.33203572 0.23368216 0.11164979 -0.22039269 0.1776863
0.20881042 0.1742099 0.062419098 0.23965794 -0.1735289 0.074830905 -0.14387532 0.34509683
-0.05430466 -0.02904834 0.118290246 0.15590228 -0.21608521 0.086457856 -0.100270696 -0.27350512
-0.22353025 -0.24514572 -0.20313697 0.12366927 -0.007909141 -0.017926624 -0.060453918 -0.07624817
-0.23136714 0.091846794 -0.2586543 -0.144017 0.18520245 -0.09417138 -0.14755741 -0.042531803
-0.09953031 -0.16000615 -0.24002944 -0.056568697 0.11312273 -0.28033927 0.18116485 -0.09907769
0.117929325 0.21990179 0.05141602 -0.18287456 0.12471748 -0.076566175 -0.14011574 -0.08925425
0.23810208 0.06334823 0.044987224 0.06603226 -0.21546619 -0.26325703 -0.19152486 0.26747763
0.043337595 -0.044519793 -0.31945044 0.025058286 -0.16275063 0.031104485 -0.085376725 0.17507964
0.26639995 0.25477043 -0.11509297 0.06142023 -0.14620396 -0.16853398 -0.11176761 -0.29375443
0.3042242 0.11557345 -0.12857845 -0.07458895 0.18276082 -0.027102591 -0.11220762 -0.09546037
-0.06190891 0.06275012 -0.17110014 0.16555862 0.18517303 0.25492382 0.14087363 -0.050949097
0.19754694 0.011472585 -0.28493062 0.19424114 -0.118314736 -0.06684679 0.08883281 0.05125066
-0.08501007 -0.2779795 -0.18054186 -0.08983437 0.1995576 0.02181699 -0.033426676 0.0094352085
-0.16401666 0.2265884 -0.07102614 -0.14138229 0.16083513 -0.005655292 -0.29353642 0.13318539

mlp1.0.bias f4 [150]
00000000: 7b7c 443e 40a7 2bbe 5de6 26be b4c1 1c3e
00000010: a431 dd3d 03a2 dc3d dadd 2abb ddef b4bc
00000020: c9c3 96bd 416f 683e a4e2 95bd 732f abbc
00000030: 0126 83be 21cd 6b3d be9d 7e3e c595 82be
00000040: 291b a7ba a5a0 83be 4b68 873e bd64 533e
00000050: 5c31 77bd 4e03 7abe dcdc 74be be6b 183d
00000060: d160 de3d 097d 893e 3799 8dbd d157 3f3e
00000070: b3d1 aabd 7029 da3d 3b0a 44be 879d 213e
00000080: c4e1 1ebe e382 19be 9b24 a6be e8aa e8bd
00000090: 2c73 bbbb 1005 1ebe d98b 1abe b19f 003e
000000a0: aec8 f4bc 4fdd 7bbe 5e71 abbd 4258 11be
000000b0: 3d6c 31be c24a 43be 387b 263e f162 483e
000000c0: 2ccb 3a3e cb50 ea38 e439 8abd 86a5 173e
000000d0: 8a06 6a3e bb64 003d bca6 b0bc 0dc9 83be
000000e0: 3309 3ebe 69b9 38be 9eea 953e 0f22 81bd
000000f0: d92b 483d 9db9 373e acf8 7fbd cd0a d53d
00000100: 0f63 39be 7af4 3bbd b8ff e93d 3a58 743e
00000110: be20 3b3e b0bb 1ebe 1c41 08bd fa91 1e3d
00000120: 3886 283e 8e3b f83d 7752 80be 7844 d5bd
00000130: f9d3 1cbd 6fdc d83c b571 1d3e 8816 f6bd
00000140: eee0 8ebd 155c 63bd 1256 c03d 2f29 89bd
00000150: 6f6e 973d 8e3e 163d d0af 943e 1f21 52be
00000160: 12f6 c63d 542e 0bbe 38ac 8b3c 7867 7d3e
00000170: 8de3 bbbc 3b4a 9f3c 92d6 0fbe 006a 313e
00000180: c11b 23bd 3a5c 8e3d cc3b 54be ad1f 233c
00000190: 29d6 c4bd 45f1 b83d 700c 8a3e 3a6e 06be
000001a0: 969f 61be f53a 58be 68ad edbd 7bf3 1cbe
000001b0: a176 61be d710 ffbc fce1 0bbe 5af2 2dbe
000001c0: 1feb 023e c236 873e e0b0 f7bd 4d04 63bd
000001d0: e472 30bd bfad 50be 91b4 083d 3d19 e63d
000001e0: 01d5 85be 5204 0b3e b0fb 303e 9851 823d
000001f0: 5983 15be 06e6 803e 607d 10be 05cb 023e
00000200: c650 89bd 8705 7ebd b55c 603e e565 18be
00000210: 8477 893e 85b1 d93c 55f9 f1bd 99a6 cf3d
00000220: e251 f13d 252b 1b3e 6d0b 69be 764a 1ebe
00000230: 2560 4f3e de3d 413c e4e5 76be 4c92 81be
00000240: 4396 4dbd 3b64 803c 0127 713e 1211 d3bd
00000250: cc82 14be a4fe 7fbd
0.1918811 -0.1676302 -0.16298814 0.15308267 0.10800484 0.10773089 -0.0026072175 -0.022087032
-0.07361562 0.2269869 -0.07318619 -0.020896649 -0.25614932 0.057568673 0.24864861 -0.2550489
-0.0012749183 -0.257085 0.26446757 0.20643897 -0.060349807 -0.24415323 -0.23912376 0.037212126
0.1085831 0.26853207 -0.06913989 0.18685843 -0.08340778 0.10652435 -0.19144528 0.15782748
-0.1551581 -0.14991336 -0.32449803 -0.11360723 -0.0057205167 -0.15431619 -0.1509241 0.12560917
-0.029880848 -0.24596141 -0.083712325 -0.14193824 -0.17326446 -0.19071487 0.16257942 0.19568993
0.18241566 0.000111730384 -0.06749323 0.14809236 0.22854057 0.031346064 -0.02156388 -0.25739327
-0.18558197 -0.18039478 0.2928056 -0.06305324 0.04886994 0.179419 -0.06249301 0.10402451
-0.18104194 -0.045887448 0.114257276 0.23861781 0.18274209 -0.15501285 -0.03326522 0.038713433
0.1645745 0.12120734 -0.25062916 -0.1041345 -0.03828809 0.026472298 0.15375407 -0.12016016
-0.06976496 -0.05550774 0.093914166 -0.06697308 0.073941104 0.03668075 0.29040384 -0.20520447
0.09714903 -0.13591892 0.017049894 0.24746501 -0.022935653 0.019444576 -0.14046696 0.17325592
-0.03982139 0.069511846 -0.20725936 0.009956283 -0.0961116 0.090303935 0.26962614 -0.13127986
-0.22033533 -0.2111624 -0.1160534 -0.15327255 -0.2201791 -0.03113596 -0.13660425 -0.16986981
0.12785004 0.26408964 -0.12094283 -0.055424023 -0.04307832 -0.20378779 0.033375327 0.112352826
-0.26139072 0.13575867 0.17283511 0.06363219 -0.14600886 0.25175494 -0.14110327 0.12772758
-0.067048594 -0.06201699 0.21910365 -0.1488262 0.26848996 0.026573906 -0.118151344 0.10139198
0.11783196 0.15153177 -0.22758265 -0.15458092 0.2025152 0.011794535 -0.24111134 -0.25306928
-0.05019213 0.015672794 0.23550035 -0.1030599 -0.1450302 -0.062498704

mlp1.2.weight f4 [100, 150]
00000000: 0842 693d 0a64 ba3c c74d c0bc a9e5 63bb
00000010: 96a1 3cbd 78f5 3f3d 718b f5bc c0a8 82bd
00000020: 36d7 723d a712 ed3c 06f3 abbd bbb1 8a3d
00000030: 7505 d3bb 7380 89bd 118c 7bbd a16b 2c3d
00000040: 9581 8f3d 5bab 6abc 435a 733d 6ff9 df3c
00000050: 6897 23bd 2d13 f33c c343 8fbc 60cf 69bd
00000060: 93d0 1ebc 590a 093d 3d17 553d 046e 803c
00000070: 6faa 17bd 0ecb 923d 64f1 7fbd fb4c fe3a
00000080: 7636 59bd df05 fe3c d3c7 62bc 2f64 903d
00000090: 6c65 393d 791b 583c a8cc 7ebd ddfe d8bc
000000a0: 4fd6 4bbd 9153 fbbc dfe0 b83c 1631 a23d
000000b0: 88bc 96bd 9a37 843d ee6d 463d c4e6 80bc
000000c0: 84bd 52bd eaf1 af3d e133 2abd 46c7 1b3d
000000d0: 0596 8ebd cc5a d9bc 3c26 433d 71c9 453b
000000e0: 55ee e93c a495 8a3c 2d55 a2bc 469a b4bd
000000f0: c65e 9ebd 86bb 52bd cc41 98bc ee56 963d
00000100: b290 673d 6806 813d 06c4 3c3d 8694 383d
00000110: c5a2 f63c 9884 babc 8d1d 163b 960c 3fbd
00000120: 312b 97bd da4a 8bbd 694a 0139 bc15 c6bc
00000130: 65a2 293d dc90 b2bd 013b 96bd c450 17bc
00000140: 8489 10bd a24d 183d bc11 c0bc 5f64 8d3c
00000150: 8bfb e2bc 9838 debc eeb8 e3bc 5461 c23d
00000160: 0b9b 8e3d e1bc b93c 926e 98bd 1ed3 12bd
00000170: 2ddd 3a3d 1f8d bcbd cfb3 a83d ab86 3b3d
00000180: 8a1a 933b 6e16 45bb e04f 8abd 5725 8c3c
00000190: cfd0 a0bd 6dd9 c0bc e281 8cbd 8569 92bd
000001a0: b2ca 8d3d 136d 15bd ca36 983c ad1b a9bd
000001b0: 9de1 9ebd 902c 8ebc 1d9d 573b 5f00 22bd
000001c0: 9a40 3f3d 2db4 41bd 77d0 dfba 457f 1b3d
000001d0: 52c5 933c 2aef 963d e4e4 75bd bd8d 67bc
000001e0: ab14 9cbc db68 4bbc 11b6 d33c 3637 533c
000001f0: b230 673d bc81 1e3d aac2 bfbb 478e 28bd
00000200: c5d3 9c3c 339c a0bc 8c5a 0ebd 01c5 9b3d
00000210: 2297 21bd f970 f6bc 7649 91bc b012 fabc
00000220: 2a92 4a3d 42e8 35bd c9f8 4d3c 72dd 133d
00000230: e270 993d 14d4 a3bd a625 403c 9613 4e3d
00000240: 46d2 ba3a 4b75 4dbc cfc7 943d c240 90bc
00000250: b1d4 443d ceba 4c3d 6ff0 80bd 7a57 1a3d
00000260: fc4b 163d 1e42 863d 9a7a 35bc 7a87 e8bb
00000270: 0fa6 f43c c189 91bd 1029 90bd c624 90bc
00000280: 875b 99bc f124 f5bc 1177 1f3d dfba 81bd
00000290: f060 ebbc e5a1 81bd 9c5b a6bc 57e2 0cbd
000002a0: add9 c9bc 7099 273b a7d1 65bd 3105 f8bc
000002b0: 5ecf 04bc 09dc 73bd 7a92 1d3b 728c 09bd
000002c0: 1927 943b 9f7b 103d 9271 5d3d 1d9f ab3d
000002d0: b852 68bd 6727 dabc 9769 41bd bd94 82bd
000002e0: 9410 dfbc 08b6 54bc 7391 983d 74e4 75bc
000002f0: 80a8 953c 6fb4 f23c 79e8 963d 9383 573d
00000300: 2f3d d63c cf18 1d3d f9e9 603d 5875 8fbd
00000310: 2c42 09bd e47a 353d 98cf 45bd 8be3 55bb
00000320: f2eb 4cbd 6650 433d 0553 3abb a281 84bd
00000330: 2ab7 46bd d527 78bd 3678 76bb 8126 0ebd
00000340: ae05 acbc ac7a 073d 6fe2 9fbd 5026 493d
00000350: f606 80bd 921a be3d 8690 293d 8ec9 123d
00000360: 4c2d 83bc a3ce d43d 90c0 bfbb b941 b3bd
00000370: 3980 9ebd 0eba 133b 19c3 903d 653a febc
00000380: a794 1fbd 5e3e 603d 3e9c a13d a36f 653d
00000390: 22fa 7dbd eca5 78bd 6765 1d3d db23 6a3d
000003a0: 712c 19bd 2169 94bb 20f8 233d cfa3 7b3d
000003b0: 2d5e 3cbd d9f9 4a3d 6476 af3c c0f1 a73d
000003c0: 9454 9dbd b635 c9bc 1774 813d 90f9 4ebd
000003d0: 2e09 8bbd 64c9 213d 04b7 14bd bc96 61bd
000003e0: dc05 583d ddb6 26bd d615 78bd 80fa 57bd
000003f0: fa58 10bc f7b0 37bb 1f94 843d 2b18 533d
0.056947738 0.02275278 -0.023474587 -0.003477434 -0.046052538 0.046864957 -0.029973717 -0.06379843
0.059287272 0.028939558 -0.083959624 0.06772181 -0.0064398595 -0.06713953 -0.061412875 0.04209483
0.07007138 -0.014323081 0.059412252 0.027340619 -0.039939314 0.02967223 -0.017488366 -0.057082534
-0.009693283 0.033457134 0.052024115 0.01567746 -0.037027773 0.07167636 -0.062486067 0.0019401604
-0.053030454 0.031008659 -0.013841587 0.070503585 0.04526274 0.013190144 -0.062206894 -0.026488716
-0.049764927 -0.030679496 0.022568164 0.07919519 -0.07360178 0.06455918 0.04844468 -0.015735038
-0.051450267 0.08591063 -0.04155338 0.03803184 -0.06962208 -0.026532553 0.047643885 0.0030179883
0.028556028 0.016917057 -0.019816006 -0.08818488 -0.0773292 -0.051448368 -0.018586062 0.07340799
0.056534477 0.0630005 0.04608538 0.045063518 0.030106911 -0.022768304 0.0022905797 -0.046642862
-0.07381285 -0.06801386 0.00012330119 -0.024180286 0.041414637 -0.08719036 -0.07335473 -0.009235565
-0.035287395 0.03718341 -0.023445956 0.017259775 -0.027707836 -0.027126595 -0.027798142 0.0949122
0.06963166 0.022673072 -0.074429646 -0.03584587 0.045621086 -0.09206604 0.08237421 0.045782726
0.0044892477 -0.0030073184 -0.06753516 0.017107649 -0.07852327 -0.023541177 -0.06860711 -0.071490325
0.06923427 -0.036480974 0.018580813 -0.08257232 -0.07757876 -0.017355233 0.0032900043 -0.039551135
0.04669247 -0.04729097 -0.0017075677 0.03796317 0.018038426 0.07369836 -0.06003274 -0.014132914
-0.019052824 -0.012415136 0.025843652 0.012891581 0.056442924 0.038697943 -0.005852063 -0.04115131
0.019143948 -0.019605732 -0.03475432 0.07605935 -0.039450772 -0.030083166 -0.017735224 -0.030526489
0.0494558 -0.04441095 0.012571522 0.03609986 0.07492234 -0.07999435 0.011727726 0.050311647
0.001425334 -0.012540172 0.07264673 -0.017609004 0.0480544 0.04998284 -0.06295859 0.03768108
0.036693558 0.065555796 -0.011076594 -0.007096228 0.02986434 -0.071063526 -0.07039082 -0.01759566
-0.018720401 -0.029924842 0.03893191 -0.06334471 -0.028732747 -0.06329707 -0.020307355 -0.034395542
-0.024639929 0.0025573634 -0.056108143 -0.030275913 -0.008106081 -0.059536014 0.0024043606 -0.033581205
0.0045212624 0.035274144 0.054063387 0.08379958 -0.05671951 -0.026630117 -0.04721984 -0.06376026
-0.027229585 -0.012982853 0.07449617 -0.015008081 0.018268824 0.029627053 0.073685594 0.052615713
0.026152221 0.038353737 0.054910634 -0.070048034 -0.033510372 0.04430665 -0.04829368 -0.0032636847
-0.050029702 0.047684096 -0.002843083 -0.06470038 -0.048514523 -0.06058486 -0.0037608272 -0.03470469
-0.020998802 0.033075973 -0.07806861 0.049108803 -0.06251328 0.09282412 0.041397594 0.03583675
-0.01601281 0.10390975 -0.0058518127 -0.0875277 -0.077393 0.0022541317 0.07068462 -0.031033704
-0.038960125 0.054746978 0.07891129 0.05601467 -0.062006123 -0.06070511 0.038426783 0.0571631
-0.0373959 -0.004529134 0.040031552 0.061435517 -0.04598825 0.04955468 0.021418758 0.08200407
-0.076821476 -0.024561744 0.063209705 -0.05053097 -0.0678886 0.0394987 -0.03630735 -0.055075392
0.052739963 -0.040701736 -0.0605677 -0.05272913 -0.008810276 -0.0028029063 0.06473564 0.05153672

mlp1.2.bias f4 [100]
00000000: 6aab 18bb 7f7d c6bc 81ed 52bd ead6 16bd
00000010: ce95 42bd a6c5 f2bc 463a 133d aa41 a53c
00000020: 4888 d03d af43 5f3d ad28 0ebd 109c e13c
00000030: d0e8 ca3c 3109 ec3c 179a d4bc 295e d7bc
00000040: c7a0 ea3c ce3e 14bd b6c6 2bbd 57ed e2bc
00000050: 577e 20bd 0850 18bd 6df5 4a3d de0a 373c
00000060: c3ec a7bc 8a4e 8f3d 9661 33bd d7d9 dcbc
00000070: 5879 3bbd 55ff a03c d846 273d 1a74 08bd
00000080: 27ac ba3c 7612 e7bb 3d22 bd3b 2dea a8bd
00000090: ef79 aa3c 87ba 9c3c 22dc 543d 1dbc 68bc
000000a0: 2bfe 873d e043 7ebd 805d a9bd 6b0f 3cbd
000000b0: 1e49 eb3d 883f a33a 8a3c 8c3c 7b5f 4c3d
000000c0: 8437 3bbd 540f 78bd c490 5ebd 397b b7bd
000000d0: c2ca 42bc 5fb6 ec3c 9471 4abd 3637 693d
000000e0: e75f 37bb 271b 943d 1a66 8c3c 54de e5bd
000000f0: 2bac e43c af97 203d d240 a73d 4c2c 19bd
00000100: 2933 623d 815c 0abd 01ff 28bd c509 473d
00000110: 0f2c ddbd 0dbd 05bd 9864 21be 31f1 d73d
00000120: 081a 5f3d 57a7 14bd 97db 37bc a5ee 10bd
00000130: 0b9d 853d 9077 39bd 7377 7b3d 2442 f83b
00000140: 5edf 093c 0189 84bd 2231 11bd ca2e 76bd
00000150: 96f9 96bd 7bd6 8c3d e6ea fbbc d3cb 8ebb
00000160: 41f9 5e3d 9e1a ffbd 368f 263c 312c 253d
00000170: f91e 48bd 2def edbc 7a44 433d 81a9 823d
00000180: d9f8 92bd ff92 67bd 2af8 a93d 6c9c 283d
-0.002329553 -0.024229763 -0.051496033 -0.03682605 -0.047506146 -0.029635262 0.035944246 0.020172913
0.101822436 0.054507907 -0.03470676 0.027540237 0.024769217 0.028812977 -0.025952382 -0.026290016
0.028641118 -0.036192708 -0.041937552 -0.027701063 -0.039182987 -0.0371857 0.049550463 0.0111720245
-0.020498639 0.06997402 -0.043794237 -0.026959343 -0.04577002 0.019653002 0.040839046 -0.033313848
0.022787167 -0.0070517613 0.005771904 -0.082477905 0.020810096 0.019131912 0.051967748 -0.014205006
0.066402756 -0.06207645 -0.08269787 -0.04591314 0.11488555 0.0012454847 0.017118711 0.049895745
-0.04570724 -0.060561493 -0.054337278 -0.0895905 -0.011889162 0.028895555 -0.049424723 0.05693742
-0.0027980746 0.072317414 0.01713853 -0.11224046 0.027914127 0.039207157 0.0816666 -0.03739576
0.05522457 -0.033779625 -0.041258816 0.0485933 -0.10799419 -0.032650996 -0.1576103 0.105440505
0.054468185 -0.0362924 -0.011221788 -0.03538384 0.06524094 -0.04528004 0.061393213 0.007576244
0.008415071 -0.06471444 -0.035447247 -0.060103215 -0.073718235 0.068768464 -0.030751657 -0.004357794
0.054436926 -0.12456249 0.01016598 0.040325347 -0.048857663 -0.029044712 0.047672726 0.063799866
-0.0717637 -0.05653667 0.08299287 0.0411648

mlp2.0.weight f4 [100, 100]
00000000: 388e a5bd 517b afbd b756 ae3d 932d a23c
00000010: 945c b9bd 0ec7 293d 109b 883c 59f7 663d
00000020: 8af2 67bc 5719 ebbc df53 acbd 02b8 35bc
00000030: 7cc6 2e3b dd66 e3bd 2bed 80bd 00bf 2c3d
00000040: 30f6 9d3d 2f8c 74bd 9e2a a8bd 4d1d 9fbd
00000050: 7c6c d43d 3305 6a3b 55ea 993d 851e 95bd
00000060: 5bda 363d 4eca 98bd 5932 d8bd e7c0 4c3c
00000070: 5528 fdbd f189 feb9 7926 e6bd e421 a03d
00000080: 25ea 93bc c447 f73d febb 0a3d 34f4 b23c
00000090: 08e7 9dbd 3a48 e4bc 3019 96bd 5ab9 c73c
000000a0: 29d4 4bbc c0c7 a13d f96b ad3d 9ad9 2ab8
000000b0: aca2 f43b 2ef8 053d 7870 f23d 75b0 9ebd
000000c0: ea57 c53d f972 933d 0fa6 e83c 030c c0bd
000000d0: ce11 953d a05d ee3d 5b50 e53d 5977 05be
000000e0: 36f5 823b 3907 203d 5890 fb3c 88a5 b23d
000000f0: d62c 683d fd45 7dbc 5c3b 9a3d 7d47 483d
00000100: 9a7b 8a3d c78e ddbd 6c92 d13b 2838 873c
00000110: a372 ee3c 1be2 bdbd 25e8 3a3d 575d 26bd
00000120: 342e 953d cd24 b83a 9133 063d 3929 a83d
00000130: 9a32 b6bd 26bb ac3d 504b babd b4b0 d63d
00000140: 360c f0bc b7f6 793d 48ef 743d 0456 6abd
00000150: 70fb 523d ed4a 6ebd c5c0 e8bc 518d 82bd
00000160: 5926 99bc 586e 0b3d 4589 183c c17a f63c
00000170: 4822 5abd 4b12 853b e453 c33c e921 253c
00000180: faf7 8b3d a3cf c2bd a896 c2bb b138 8a3d
00000190: 24d3 843d a4db 773d d8be 07bd 0607 643d
000001a0: b3d3 8f3c 8438 cabc e7b8 8abd 2771 17bd
000001b0: 2222 b03d 36b2 26bd 6ba8 613d 920e 023d
000001c0: 56df b43d f21f 9c3c b5ed 20bd 7332 92ba
000001d0: 9d48 cbbd 53b5 aa3b ef05 7cbd 54f3 9abd
000001e0: 5736 603d 0791 94bc 854c aebc f7a2 683c
000001f0: 80ac e03c 24e7 0b3d bf78 38bc 132a bc3d
00000200: bd91 b3bd a276 0c3d efcf 4abd 3170 80bd
00000210: cde3 e3bc e740 b2bd 6c14 afbc 8749 423c
00000220: c331 883d 8998 8ab9 d3de 2abd 4771 c83c
00000230: bebf df3c 8f41 cbbd 78b0 93bd c834 00bd
00000240: e61a 3cbd 57a0 b43c bce3 763d 06c5 9ebd
00000250: 6ec8 6bbd 2e38 7ebd 91c7 0abd 0b61 7fbc
00000260: b299 8f3d 84e9 c23c f785 cd3c 3c4f 6bbd
00000270: e6d1 61bd 8b06 6dbd 300e 41bd c77c 353d
00000280: 2ef5 6cbc 7820 733d def3 4f3d 8e8a b8bd
00000290: 87ed 1fbd 6b98 93bd 8581 533d 0a30 9d3d
000002a0: 44b3 573d 4882 e2bb 31f8 743d acd6 f43c
000002b0: 35ba dabd 8b02 b2bd 5fc1 e43c cabc 48bd
000002c0: c7e4 78bd 78ab a0ba c684 df3c f719 703d
000002d0: c3a8 8b3d 028f e1ba 4365 d53b 8ab4 743d
000002e0: 6591 b6bd f905 2cbd 4133 c1bd 6397 91bc
000002f0: e85f 7d3d 8bb7 af3d e288 25bb 6460 a8bd
00000300: 7f7b 4d3d 82df 01bd 409b c6bd a892 4cbd
00000310: 2720 873d 6f2c c23d c75a 2d3d d6d0 8ebd
00000320: eaa7 893d 531d d83c 669a b7bb d292 fdbc
00000330: d5d5 1ebb 556c cf3d 76cb 97bc 0ec8 0cbd
00000340: d503 07bd ef5e 8b3d 6551 93bd 5aaf cf3d
00000350: 929b 3e3d 5b43 633d a186 863d 60f0 c0bb
00000360: e27b 9bbd b556 91bc 6426 b53d a423 af3c
00000370: 1f65 163d e7a9 da3c 91a4 2b3d 7167 563d
00000380: 7ac0 c73d 977f 76bd 4346 30bd ad64 953d
00000390: d158 ac3c cc65 9cbd 6bcd 08bc 3c5e 133d
000003a0: a501 66bd 0bd5 5ebd 2488 8d3d 08a5 bebd
000003b0: 9b01 acb9 572c b53d 2833 9ebd 41bd 9e3d
000003c0: 7973 58bc 1d45 ef3b 3762 70bd a327 cebb
000003d0: 7cf5 4b3d 8540 9f3d 36d6 3f3c eea4 343d
000003e0: a973 723d fb80 c23d 6db8 8f3d 27ce d13c
000003f0: a897 80bd 9d5f cebb 6c9f 4d3d d96d 6fbd
-0.08083767 -0.085684426 0.08512633 0.019797122 -0.09050861 0.0414496 0.016675502 0.056388233
-0.014156947 -0.028698606 -0.08414435 -0.011091234 0.00266686 -0.11103604 -0.06295236 0.04217434
0.07712972 -0.059704002 -0.082112536 -0.077692606 0.10372254 0.0035708665 0.075153984 -0.07281212
0.044641834 -0.074604616 -0.10556478 0.012497163 -0.12361208 -0.0004854943 -0.11237807 0.07818964
-0.018055985 0.12074235 0.03387069 0.02184496 -0.07710081 -0.027866472 -0.07329023 0.024380375
-0.01244072 0.078994274 0.0846786 -4.0733816e-05 0.007465681 0.032707386 0.11837858 -0.077485
0.09635909 0.07199664 0.028399495 -0.09377291 0.072787866 0.11638951 0.11196967 -0.13033809
0.0039965166 0.039069388 0.030708477 0.08722979 0.056683384 -0.015458581 0.07530853 0.0488963
0.067618564 -0.10818248 0.0063956287 0.01650627 0.029107397 -0.09271642 0.045631547 -0.04061636
0.07284203 0.0014049053 0.03276402 0.082109876 -0.0889637 0.08434133 -0.09096396 0.10482922
-0.029302698 0.0610263 0.05979851 -0.057210937 0.05150932 -0.058176924 -0.028412232 -0.0637461
-0.018695043 0.03404078 0.009310071 0.03008783 -0.05325535 0.0040610186 0.023843713 0.010078886
0.06834407 -0.0951226 -0.00593837 0.06749094 0.064855844 0.0605122 -0.033140987 0.05567076
0.017557 -0.024685152 -0.067735486 -0.036973145 0.0860026 -0.0406973 0.055092257 0.031752177
0.088316604 0.019058201 -0.039289195 -0.0011153951 -0.09925959 0.005209604 -0.061529096 -0.075659424
0.054739323 -0.01813556 -0.021276722 0.01419901 0.027426004 0.03415598 -0.011259257 0.091877125
-0.08768032 0.034292825 -0.049514707 -0.06271399 -0.027818585 -0.087037854 -0.021372043 0.011858351
0.06650116 -0.0002643506 -0.041716408 0.024468077 0.02731311 -0.09924614 -0.07211393 -0.031300336
-0.04592409 0.022049112 0.06027578 -0.07752423 -0.05756419 -0.062065296 -0.033881728 -0.015587102
0.07011737 0.02379299 0.025088293 -0.05744861 -0.055131815 -0.057867568 -0.04713267 0.04430845
-0.014462752 0.059357136 0.05076968 -0.09010802 -0.039044883 -0.07206806 0.05163719 0.07675178
0.052661195 -0.0069125034 0.059807006 0.02988752 -0.106800474 -0.08691891 0.027924238 -0.04900817
-0.060765054 -0.0012258133 0.027284991 0.058618512 0.06819298 -0.0017208757 0.0065123155 0.059742488
-0.089144506 -0.041997883 -0.09433604 -0.017772382 0.06185904 0.0857993 -0.002525859 -0.0822151
0.050166603 -0.031707294 -0.0969758 -0.04994455 0.065979294 0.09481131 0.0423229 -0.06973426
0.0672148 0.02638117 -0.0056031225 -0.030953798 -0.002423634 0.101280846 -0.018529635 -0.034370475
-0.03296264 0.068052165 -0.07193259 0.101408675 0.046535082 0.055484157 0.06568647 -0.00588803
-0.07591988 -0.01774154 0.08845213 0.0213793 0.03671753 0.026692344 0.04190499 0.052344743
0.09753509 -0.060180273 -0.043035757 0.07294593 0.021038445 -0.07636604 -0.008349757 0.03597854
-0.056153912 -0.054402392 0.069107324 -0.09308821 -0.00032807593 0.08846348 -0.07724601 0.07750941
-0.013211125 0.00730194 -0.058687415 -0.006291346 0.04979466 0.07775978 0.011708787 0.0441026
0.059192333 0.09497257 0.07017598 0.025610996 -0.06278926 -0.006298019 0.050200865 -0.05845437

mlp2.0.bias f4 [100]
00000000: 4ab0 87bd 414f 09be 2524 243d 8156 aa3d
00000010: ec95 313d b8ad e83c 9245 21bd 0c65 c23d
00000020: 7b1e 5fbd 33d4 41bd 771f 23bc 2caf 00be
00000030: 3a21 0c3e 63db e9bc ecf7 b63d d41c 143d
00000040: 2018 ee3c f117 9d3d cd7a a8bd d45e fe3c
00000050: 56ed 3dbc eff1 35bd 6b5a 9d3d 81c3 62bd
00000060: 90c9 e3bc 0d21 44bd 8757 41bd 6bfb 7a3d
00000070: dc19 e63d a4ce 283e 4186 a5bd aaf3 023d
00000080: e33b 673d 42a3 a9bd 29c9 6b3c 92fb d4bc
00000090: 9adc 6abb 4de7 b53c 0e15 e73d 3be3 b93b
000000a0: 0d3a 2f3c 515a 953d b897 943d 6770 1f3e
000000b0: e27c 72bd 03ea 9d3d f9ea 8b3c 6d47 1ebc
000000c0: 2eee ab3d 1a63 013d 60fc 8d3d 69f7 2c3d
000000d0: 8e0b 9d3c 8c68 453d 6f98 df3c 9bf4 2fbe
000000e0: c919 553d 8a0f 883d 7dd3 b93d bb0a 69bd
000000f0: e074 ff3b 804e 773d e0ae b0bc b938 d53d
00000100: 634b 903d 854a a03d 555c 1e3d 6f77 6b3d
00000110: 6bfb bfbc 836e 8fbd 0d46 463d 46bf bebb
00000120: 8e22 763d 907b be3d 304f a9bb 8855 803c
00000130: bd05 83bc 05e9 153d c047 1c3d 8311 103d
00000140: 57d8 6abd ccb8 90bd ac40 9a3d 560c 45bd
00000150: d60e 963d cb33 01bd 6063 0c3e 9eab 813d
00000160: 1c3e 4c3e 5b6d f23c d8de 073d a0ed 56bd
00000170: 8f40 013c 6d33 2a3d ed56 7f3b 66f0 c6bc
00000180: 86ea ac3d 241b 0fbd 06e5 393e 278c c43b
-0.06625421 -0.13409139 0.040073533 0.083172806 0.043355867 0.028403148 -0.039372988 0.094919294
-0.054472428 -0.04732151 -0.009956232 -0.12566823 0.1368455 -0.028546995 0.08934006 0.036160305
0.029064238 0.07670582 -0.082265474 0.031051077 -0.01159223 -0.04442018 0.076832615 -0.05536223
-0.027806073 -0.047883082 -0.047202613 0.061274927 0.11235401 0.16485077 -0.080822475 0.031970657
0.056453597 -0.08283092 0.014391222 -0.025998864 -0.0035837055 0.02220502 0.11283313 0.00567284
0.010694993 0.07292617 0.072555006 0.15570222 -0.05920113 0.0771065 0.017079817 -0.009660584
0.083950385 0.03158865 0.06932902 0.042228136 0.019170549 0.048195407 0.027294366 -0.17183153
0.052026544 0.06643589 0.09073541 -0.056895 0.007795915 0.060377598 -0.021567762 0.104112096
0.07045629 0.078267135 0.038662273 0.057486948 -0.023435315 -0.070035 0.04840665 -0.0058211414
0.060091548 0.093009114 -0.0051669106 0.015665784 -0.015993947 0.036599178 0.038154364 0.03517295
-0.057335224 -0.07066497 0.075318664 -0.048107468 0.073270485 -0.031543534 0.13709784 0.063315615
0.19945568 0.02959316 0.033171505 -0.05247271 0.007888927 0.04155295 0.0038961724 -0.024284553
0.08443169 -0.034937993 0.18153772 0.005998153

mlp2.2.weight f4 [50, 100]
00000000: 9661 af3d 089c b43c 3f3a 793d 7041 a93d
00000010: 98ba 3d3d 2620 0a3d 199b 3c3d 5869 a9bd
00000020: 812f a5bd 41c9 cabd c08b 0cbd bf2f a9bd
00000030: 9c21 9a3d ffa6 c6bc ec75 9dbd f053 b2bd
00000040: ad9a 1a3d cc36 543d 2555 58bd ed7c 68bd
00000050: 0b4a 48bd 95b4 0b3d 7cb9 20bc c32d 973d
00000060: fbd9 9bbd 3611 723d 76c8 9cbc 5371 3fbb
00000070: a51c b0bd 73f1 3ebd b03c 6dbd 0058 b33d
00000080: 7cb0 97bd 022c 34bd 73fb 17bc 9349 af3d
00000090: a7c1 0336 c6c5 9cbd c5ad 173d 55a5 653c
000000a0: 1d2c 27bd 963b cbbc eca1 9b3d 0996 103d
000000b0: 1c1f f0bc 98bc 3a3c 6344 b73d b39e 9cbd
000000c0: 992a 54bb 82ec 0cbd 487f c33d 083d c53c
000000d0: bbd3 b53d 5d20 f2bc 3ded a8bd f8c5 3bbd
000000e0: e839 c0bc b154 3d3c c570 00bd c47f 1dbc
000000f0: 0d66 793d 56ce 973c 2a44 18bd 0818 8a3c
00000100: 4174 7dbd a0dd c23d 2284 ee3c 479e 8cbc
00000110: ce92 70bc 922e 263d 00a8 9abd 4836 bebc
00000120: d2b2 c7bd bed1 083a 807b c03c f1b9 72bc
00000130: 9626 1b3e 8c48 043c 99f6 5d3b d549 493d
00000140: 7e6f 98bd 1974 23bc db41 8b3d a218 a13d
00000150: c846 8b3d 7467 aebc 0230 e4bd d108 cb3d
00000160: f526 c6bc 585e 693d b184 2ebd 2e11 b9bd
00000170: eb35 fc3c 4422 b9bc d63f 163c 50be 803d
00000180: 1fd3 99bd 6dd2 a0bd 78c7 c6bd 45b8 e5bd
00000190: e641 043e 51e5 08bd 7725 a0bd 48f4 d43d
000001a0: 125a 8f3d 22f4 51bd e8e5 943d 7016 743c
000001b0: e3ba b2bd 5756 b1bd 4485 ffba 9b04 a93d
000001c0: 5dd2 30bc ef55 e7bc 5b4a 9c3c 968d 28bd
000001d0: 5a02 0c3d 813b 953c 6471 973d 48c5 783d
000001e0: 17fe 6b3d 48fb b2ba 3819 87bd 7b62 cbbd
000001f0: 8f71 44bd 92b9 863c 77bc dbbc 4bb3 c43d
00000200: f08c 68bd 9228 38bc 917e b53d 60cd d7bc
00000210: 7f85 83bd 6b4d 303d 9662 b1bd 2137 95bd
00000220: f414 6b3d ecfd c33d 04fd 043d 81b2 7d3c
00000230: b755 11bc 1830 d2bd a9c6 44bd 71b2 6fbd
00000240: b90c 44bd 420d 92bc 319d 4cbd 980d 843d
00000250: 87e1 8e3d 45ab 6a3d bfcd 46bd 2d08 a73d
00000260: 4e11 923a e221 9f3d 1977 703d ed42 39bd
00000270: 6fe1 dfbd ca68 8a3d cb80 9e3c 3ea9 c43d
00000280: 227b 8e3d b11c 883d b9e7 c1bb a7d5 91bb
00000290: ef61 fcbb 664a d03c b0a0 bdbc 1b41 79bd
000002a0: aa3d b33d f6ba 753d ed5b 923c 5f5e c53d
000002b0: 9c95 9a3d b3af 9bbd cdc6 7a3d 0a01 02bd
000002c0: 3a6d bf3d 2a9b bd3d 0d6c 053b d044 66bd
000002d0: ef1e 8f3d 9c42 a5bd 5ceb a7bc f467 6a3d
000002e0: a58d 26bd 3c92 bebd b224 1f3d 0ec0 a1bd
000002f0: fb48 89bd fb48 833d f37d 9abd f225 1f3d
00000300: ae7f 43bc f2e7 8abd 82ff acbd 52ee bfbd
00000310: 57e6 30bd 3221 933d 5733 0fbd 9830 773d
00000320: 3242 39bc 81ae 91bc 9482 473d f4c1 9e3b
00000330: 368d fe3c 7da6 30bd fd6a 053e cd6a 5b3c
00000340: 293c 2e3d cbdc 203d 1a66 c1bd bf35 883d
00000350: 6b0f 123e 80d5 84bc b49b 463d c543 dfbd
00000360: b62e babc 6bc4 42bd cdef 2bbc 68b8 e83d
00000370: 3594 ae3d 9e68 a5bd 1426 2f3c 57e9 b23d
00000380: eb39 013e 8526 f4bc 0629 0ebe 0910 073b
00000390: 11f6 28bd b097 b93c 8b85 04be 1b51 c73d
000003a0: 3db4 98bc 1f82 62bd 7ad2 3a3c 301e 34bd
000003b0: 680f 983d 566b dcbd 0597 4f3d 15ba b53d
000003c0: 3204 023d 385d 32bd 339b 8a3c 1018 0c3d
000003d0: 3195 1abd 27ae 90bc 50cf eebd 8673 d0bc
000003e0: 6e90 903d 16c6 123d dc14 283d b6e7 0c3d
000003f0: 217c fb3c 6d54 513c ead2 c13c 9114 8b3d
0.08563535 0.022047058 0.060846563 0.08264434 0.046320528 0.033722065 0.04604635 -0.08272046
-0.08065701 -0.099016674 -0.034312963 -0.0826106 0.07525942 -0.024249552 -0.076885074 -0.08707416
0.037745167 0.05181007 -0.052815575 -0.056759764 -0.048898738 0.034107763 -0.009809848 0.07381775
-0.07609936 0.059098445 -0.019138556 -0.0029211834 -0.085992135 -0.046616983 -0.057919204 0.08757019
-0.074067086 -0.04398728 -0.009276259 0.08558955 1.9633242e-06 -0.0765491 0.037030954 0.014016469
-0.040813554 -0.024808686 0.075992435 0.035299335 -0.02931171 0.011397503 0.089485906 -0.07647457
-0.0032374023 -0.03440524 0.09545761 0.024076954 0.08878275 -0.029556448 -0.082483746 -0.045843095
-0.023465112 0.011555837 -0.031357545 -0.009612981 0.06088834 0.018531006 -0.03717438 0.016857162
-0.061878446 0.09514928 0.02911574 -0.017165316 -0.014683438 0.040571757 -0.07551575 -0.023219243
-0.09750904 0.00052192423 0.02349639 -0.01481484 0.15151438 0.008073937 0.0033868907 0.049142677
-0.074431404 -0.00997641 0.0679967 0.078660265 0.0680061 -0.021289565 -0.11141969 0.09913791
-0.024188498 0.05697474 -0.042607013 -0.0903648 0.030787429 -0.022599347 0.009170493 0.06286299
-0.07510971 -0.078526355 -0.097060144 -0.11216787 0.12915763 -0.03342182 -0.07819646 0.103981555
0.069996014 -0.051258214 0.07270414 0.014897928 -0.08727052 -0.08659046 -0.0019494672 0.082528315
-0.010792342 -0.028239219 0.019078424 -0.041150652 0.03418193 0.01821685 0.073946744 0.060735017
0.057615366 -0.001365521 -0.06596607 -0.09930893 -0.04795986 0.016445909 -0.026823265 0.0960451
-0.056775033 -0.0112401415 0.08862031 -0.026343048 -0.06421947 0.04304258 -0.08661382 -0.07285906
0.05739303 0.09569916 0.032467857 0.015484453 -0.008870534 -0.102630794 -0.04804102 -0.058519784
-0.047863696 -0.017828587 -0.049954597 0.06447905 0.0697661 0.05729224 -0.04853606 0.08155856
0.0011144073 0.077701345 0.05870733 -0.04522984 -0.1093167 0.06758268 0.019348523 0.09602593
0.069570795 0.066460975 -0.005917516 -0.004450518 -0.0077021043 0.025426101 -0.02314791 -0.060853105
0.08751996 0.059992753 0.0178661 0.096371405 0.07548067 -0.07601871 0.061224747 -0.031739272
0.09347005 0.09258111 0.0020358593 -0.05621797 0.06988322 -0.08069345 -0.02049797 0.057228044
-0.040662427 -0.09305236 0.038853355 -0.0789796 -0.06703373 0.06410404 -0.07543554 0.038854547
-0.011932297 -0.06782521 -0.08447172 -0.09371628 -0.04318842 0.07184066 -0.03496107 0.060349077
-0.011307286 -0.017783405 0.048708513 0.0048448984 0.031073194 -0.043127526 0.13029094 0.0133921625
0.042537842 0.039273065 -0.094433025 0.06650876 0.14263694 -0.016215086 0.048488334 -0.10901598
-0.022727352 -0.0475506 -0.010494185 0.11363298 0.08524362 -0.08076595 0.010690231 0.08735912
0.1261975 -0.029803524 -0.13882837 0.0020608923 -0.041250292 0.022655338 -0.12941568 0.097322665
-0.018640632 -0.055299874 0.011402721 -0.0439741 0.074248135 -0.1076266 0.050681133 0.08873383
0.031742282 -0.04354593 0.016919708 0.034202635 -0.037739936 -0.017661167 -0.116606355 -0.02544571
0.07058798 0.03583344 0.041035518 0.034400664 0.030698838 0.012776476 0.023660142 0.06791032

mlp2.2.bias f4 [50]
00000000: 1985 303d f1ae 39bd bdaf e6bd 93c6 7fbd
00000010: ebc6 c83d faa6 2b3e b25b 4c3d 945b 253d
00000020: c528 6d3d e7b3 b3bd d593 d33d 8c38 f3bc
00000030: 9b23 223e 4b0f 273d 1daa ef3c 80c9 563d
00000040: cb87 83bd 94ca 43bd d160 afbd 559e f73d
00000050: e255 7a3d 853b e0bb 136d 3a3d 2e13 4f3d
00000060: 4cea 893c 084a e8bd 4d45 2ebd 8fc2 2b3d
00000070: 7677 443c f4c4 133d 5522 81bc d08f db3d
00000080: 2c24 adbc 432f 5dbd 2dd9 0d3e ee28 78bd
00000090: a3c7 863d f76b ea3c bddc d03c c973 a73d
000000a0: dfe4 9bbd db3b c23d 1ac5 80bd a824 e4bc
000000b0: 5876 993c da82 6f3d 0b6b d83d d4c0 cbbc
000000c0: 17f6 f6bb 690c 8a3d
0.04309568 -0.045332853 -0.11263988 -0.062445235 0.098035656 0.16762915 0.049892135 0.04037054
0.05790021 -0.08774548 0.10330931 -0.02969005 0.15833895 0.04078607 0.029255921 0.05243826
-0.06422385 -0.047800615 -0.08563388 0.12090746 0.06111706 -0.006843033 0.045514178 0.0505554
0.016835354 -0.11342245 -0.04254656 0.041933592 0.011991372 0.0360765 -0.015763441 0.107207894
-0.021135412 -0.05400015 0.13852377 -0.06058591 0.065810464 0.028615935 0.025495881 0.08176381
-0.07612013 0.09484073 -0.06287594 -0.02784951 0.018733189 0.0584744 0.10567292 -0.024872221
-0.0075366604 0.06740648

attention.0.weight f4 [100, 200]
00000000: 4dd4 6bbd d51d 073d 43e9 593d 3a92 07bd
00000010: 06c6 623c f389 41bd 8b59 c83b 532f 30bd
00000020: 415d 22bd 9bde 6cbd 70c0 5c3d 57e1 7cbd
00000030: 5f32 9c3c b36b 713d f623 3fbd e914 f43c
00000040: c5f9 0abd 1637 6cbd c8ed 7a3d 92e2 06bd
00000050: 920c 053d 9807 953c 7e67 7abd 1c0c 8dbd
00000060: 628e 24bd 39ab 843d 6a84 26bc 8b3b 73bd
00000070: cc6e 8a3d 7093 86bd 9007 1b3d b0d1 0d3d
00000080: e010 6bbd ea40 87bd 5be6 76bb 3848 273d
00000090: b637 30bc 5e4d 9b3c 0695 303d f02a 8abd
000000a0: a30c 97bd 6a22 7bbd 7538 253d adb3 b0ba
000000b0: b492 333d 5ee1 173d 4477 8bbd 69e6 f53c
000000c0: 7902 843d 0fad 1abd bb8f 183d 6070 c03c
000000d0: 89de 54bc 7f3c 123d fe26 7b3d 9ed4 6fbd
000000e0: f860 03bd 9ddf c93b 441b ddbb 862e 743d
000000f0: c1e9 293d 696b a33c ed39 74bb 32f0 383c
00000100: 5b32 51bd f699 763c 2b79 873d 16f5 253d
00000110: 0ef1 923d 4f12 edbc b214 8d3d bc06 103d
00000120: 9940 813d f63a 81bd c8a3 d7bc 3bcb 323d
00000130: df95 67bd 4273 593d dae7 7d3d 8ad9 92bc
00000140: f126 bb3c 3cd7 72bd 5bff 7f3b 5f20 51bb
00000150: 1cb6 06bd 55d8 573c b955 cbbc 1775 18bd
00000160: ca90 223d ca48 6cbd 779c 7dbd 3f48 61bd
00000170: 3a7c 8cbd f554 83bd 1c15 1abd 634e a83c
00000180: a4f9 8bbc ada3 3dbd ed93 603c e238 0fbd
00000190: c766 96bc 04fc 863d 5197 1ebd f8c6 743d
000001a0: 7dcc ed3c 2051 4fbd 4874 09bd cba3 8fbb
000001b0: 9b2d 17bd b021 05bd c78f 243d 906a 3d3d
000001c0: d235 a9bb 4100 ee3c d9ab 0bbd cf6b 9b3d
000001d0: 3182 733d 4979 433d 47e1 38bd f49d 50bd
000001e0: 5fec 26bd 4da8 353d d918 273c e90c e53c
000001f0: 892c f23c cbdc 80bd e46e 22bc a4be b3bc
00000200: fe16 5ebc b7a9 76bd 8f90 2f3b 8ae1 72bd
00000210: ccec edbc a4af 523d ff4f 4abd 030b 963c
00000220: fa9e 56bd 0eb2 47bd 5b04 643d 36fa 5dbd
00000230: f9e0 6a3d 6870 ec37 517d 703d 23e5 c6bb
00000240: 04fd 30bd 2865 193d 2f00 4b3b 7424 54bd
00000250: 5166 0cbb 123c 933d 25f9 42bd 8a16 b9bc
00000260: a779 613d 4ab6 5fbd 9ad1 91bd 5228 173d
00000270: c49f 923b 5bb6 93bd 3d0f 67bd 0f05 65bd
00000280: c68f 00bd ba51 733d fe59 07bd 9333 793d
00000290: 4687 2bbd 8d34 1cbd 736e 263d 5b9e bf3c
000002a0: 9b9f e23c 0e9d 19bd 67a4 27bd dd73 853b
000002b0: b843 2cbd 4ced 64bd 1332 80bd e3e0 753d
000002c0: d009 7bbd fd13 de3c 3631 84bd 2b23 4b3c
000002d0: 111e 59bd 732b 82bc a050 babc e303 8fbd
000002e0: 16de 553b 63c3 7cbd 9881 813d ecc3 b93c
000002f0: de40 363d 6c95 ea3c e9e1 56bd b24b 5fbd
00000300: aab1 80bd 2b49 603d a499 62bc c6bf f2bc
00000310: f572 803d 86d8 3bbd 646a 94bc 5234 ae3c
00000320: 74c8 3b3d b03f 953d 7ca5 3cbc 7255 48bd
00000330: 20c3 c13d 178c 523d 76ac abbb 2956 073d
00000340: b278 6f3c baf0 5b3d 6b6c a8bb 659a 9a3c
00000350: ba4e 953d 3df1 00bd eb83 93bb ff87 6f3d
00000360: b3b4 8dbb fce5 033d 39a2 5f3d 3ac6 32bd
00000370: d101 febc cb39 febc 2492 aa3c a77b 1c3a
00000380: a358 43bb 2b66 1c3c f833 d23c a3f6 a33c
00000390: 80f2 463d 8c57 ef3c 2aea aa3c 67b2 863d
000003a0: 92a4 b23b b877 783d 0884 48bd 9fa0 36bd
000003b0: b714 4abd 069f 7d3d ba7d 8fbd 4404 003d
000003c0: c1b1 523d 33b8 883c 1865 49bd b7fd 6e3d
000003d0: 43b0 d6bc 9a17 08bd b01a 193d f2c7 bc3c
000003e0: 3c6b fabc 2a99 0e3c d944 08bd ab8b 253c
000003f0: 6a54 52bd 950e 823d 884e 493d 9c5e 1b3d
-0.057575513 0.032987434 0.05320097 -0.033098437 0.013841158 -0.0472507 0.00611419 -0.043013882
-0.039639715 -0.05782948 0.05389446 -0.06173834 0.019066988 0.0589406 -0.046665154 0.029795127
-0.033929605 -0.05766972 0.061261922 -0.032930918 0.03248269 0.018192098 -0.061133854 -0.06887075
-0.04017485 0.06477971 -0.010163406 -0.059382956 0.06759414 -0.0657109 0.03784901 0.0346238
-0.05738914 -0.06604178 -0.0037673924 0.040840358 -0.01075547 0.01895779 0.04311087 -0.06746471
-0.07375457 -0.061312117 0.040337045 -0.0013481282 0.04384108 0.03708016 -0.068098575 0.030017095
0.06445784 -0.037762698 0.037246447 0.023491085 -0.01299251 0.035702225 0.061316483 -0.058552377
-0.0320749 0.00616069 -0.006747635 0.05961468 0.04148269 0.019948678 -0.0037265972 0.011287736
-0.051073413 0.015051356 0.06614908 0.040516935 0.07174884 -0.028939394 0.06888713 0.035162672
0.06311149 -0.06310074 -0.026323214 0.043650847 -0.056539413 0.053088434 0.06198869 -0.017925996
0.022845717 -0.059287295 0.0039062116 -0.0031910164 -0.032888517 0.013174136 -0.02482115 -0.03722104
0.039688863 -0.057686605 -0.061916795 -0.05500054 -0.06859632 -0.06412689 -0.037617788 0.02054519
-0.017086811 -0.04629867 0.013707143 -0.034966357 -0.018359555 0.06591037 -0.038718525 0.059760064
0.029028172 -0.050614476 -0.03355816 -0.0043835393 -0.036908727 -0.03250283 0.04017618 0.046244204
-0.0051638866 0.029052855 -0.034099434 0.07588922 0.059450332 0.04772309 -0.045136716 -0.050931886
-0.040752765 0.044349957 0.010198795 0.027960258 0.029562252 -0.06292113 -0.009914134 -0.02194149
-0.013555286 -0.060220446 0.0026789044 -0.059297122 -0.029043578 0.051437035 -0.049392696 0.018315798
-0.052397706 -0.04875379 0.055668216 -0.054193698 0.057343457 2.8185736e-05 0.05871326 -0.0060697957
-0.043210045 0.037449986 0.0030975451 -0.051792577 -0.002142329 0.07189192 -0.047600884 -0.022593755
0.055047657 -0.054617204 -0.071200565 0.036903687 0.004474612 -0.07212516 -0.056411017 -0.055913027
-0.031387113 0.059404112 -0.033044808 0.0608402 -0.041877054 -0.038136054 0.040632676 0.02339094
0.027663996 -0.037503295 -0.04092827 0.00407265 -0.04205677 -0.055890366 -0.06259551 0.06002892
-0.061288655 0.02710914 -0.06454699 0.012398521 -0.05300719 -0.015889859 -0.022743523 -0.06983163
0.0032633594 -0.061709773 0.06323546 0.02267643 0.044495456 0.028635703 -0.05246154 -0.054515548
-0.06283887 0.05475728 -0.013830576 -0.02963246 0.06271926 -0.04586079 -0.018117137 0.021265183
0.045845464 0.07287538 -0.011514064 -0.048909612 0.09461045 0.05140313 -0.005239065 0.033041153
0.014616178 0.05369637 -0.0051398776 0.01887245 0.072904065 -0.031480063 -0.00450181 0.058479305
-0.0043245195 0.032201752 0.054598067 -0.043646075 -0.031006726 -0.031033417 0.020821638 0.00059693534
-0.002980747 0.009545843 0.025659546 0.020015066 0.04857111 0.02921655 0.020863611 0.06576996
0.005451747 0.060661048 -0.04895404 -0.044586774 -0.04933616 0.061919235 -0.07006402 0.031254068
0.05143905 0.016689396 -0.049168676 0.05834743 -0.026207095 -0.033225633 0.037378967 0.02304456
-0.030568711 0.008703509 -0.033268783 0.0101041 -0.051350035 0.063504376 0.04914716 0.037932023

attention.0.bias f4 [100]
00000000: fe16 99bc 4a72 713d d817 62bc 8505 503d
00000010: e540 65bc a048 ddbc a719 213c 356c e53c
00000020: a17e 8dbc e499 6bbd 0899 dfbb e501 56bd
00000030: 3dec 16bd ef96 1f39 509f 81bd 911e b53d
00000040: 239c c43c baea 2d3c 2408 3b3d ff01 5dbd
00000050: 3e0f 423d d5d1 973d 447d 7fbd 7e76 293d
00000060: f92e 5fbc ffc5 57bd adc6 963c d6b6 a63c
00000070: f2eb 81bd eb71 433d c443 a33d 4be4 2fbd
00000080: 07d0 773d e74c 14bd 9049 b53a 9cfb f83c
00000090: d477 c4bc 2658 2ebd d85d c63a 26d6 9d3d
000000a0: c2f6 263d 094e 77bd 8f6a 8c3d 196e 47bd
000000b0: 60c0 213b bb5d 743c 528c 4bbd 320a 1b3c
000000c0: b6ae 663c 0d72 21bc f8c9 83bc 5d68 4dbd
000000d0: 1c42 183c a532 e93b c65a 293d 578b 003d
000000e0: dd6b 0c3c 91a0 583d 1528 dfbc da0b 4abd
000000f0: 9bd0 80bd 6c59 203d 5e5f 613c 6640 8dbd
00000100: 578a f2bc 3b7c 7a3d 0e1a 6abd 5ec9 75bd
00000110: 028a 9a3d 07da 5bbb ccbb 733c 04af 32bd
00000120: c194 12bd 3ce8 8bbd 0b1f f3bc 98ae 81bd
00000130: 95ba 4c3d dcf0 0c3d bf38 f7bc c570 c6bc
00000140: 0aef 503d ce87 843d db8e 01bd 7336 a93d
00000150: e948 af3b eee7 25bd 0a02 513d 4291 6e3d
00000160: ab8c 6d3d 4644 9f3d 6184 ac3c 8fa0 55bd
00000170: 575b 2cbd 0fa1 9cbb a5c1 4dbd dec1 57bd
00000180: 5e7b 8c3c 88d7 313d 8a7c a83d e35b b139
-0.018687721 0.058946885 -0.01379963 0.050786514 -0.013992523 -0.02701217 0.009832776 0.028005699
-0.017272295 -0.05751981 -0.0068236627 -0.0522479 -0.036846388 0.00015219649 -0.063292146 0.08843721
0.024000233 0.010615045 0.04566206 -0.05395698 0.047377817 0.07413069 -0.062375322 0.04137277
-0.013622039 -0.05267906 0.018405283 0.020350855 -0.06343831 0.047716063 0.0797191 -0.042942327
0.060501125 -0.036206152 0.0013831127 0.030393414 -0.02398292 -0.042564534 0.0015134169 0.07706861
0.04076267 -0.060377154 0.06856262 -0.04868898 0.0024681315 0.014914925 -0.049694367 0.00946288
0.01407974 -0.009853852 -0.016087517 -0.050148357 0.009293105 0.007116633 0.041346334 0.031382885
0.0085706385 0.052887503 -0.027240792 -0.04932771 -0.06289788 0.03914778 0.013755647 -0.06897049
-0.029606981 0.06115363 -0.057153754 -0.06000649 0.07545854 -0.0033546702 0.014876317 -0.04362394
-0.035786394 -0.068314046 -0.029677888 -0.06332129 0.049982626 0.03440939 -0.030178426 -0.024223695
0.051009215 0.06471215 -0.03163038 0.082623385 0.0053492677 -0.04050439 0.051027335 0.058243997
0.05799548 0.07776694 0.021059217 -0.052155074 -0.042079296 -0.004779942 -0.050233502 -0.05267512
0.01714867 0.043418437 0.08226879 0.00033828532

attention.2.weight f4 [100, 100]
00000000: e9b1 90bd 5972 3cbc c3a6 82bd 0c5c 793c
00000010: ba8f 82bd cbde 8a3d 6f7e b3bd 9294 c53d
00000020: a680 703b 2a05 3dbc 4ad9 483b 6051 b6bc
00000030: 1b76 b9bd 3ddf a63d f259 e33c 8333 4bbc
00000040: b87c 233d a9c1 cabc b05b 523d 6496 4ebd
00000050: 0d58 88bc c0f8 2dbc 9b62 c3bd 8310 293d
00000060: 27c6 9c3c 3ac5 aabc 0754 be3d fda5 9d3c
00000070: d053 a23d 4bc4 c1bd db85 5f3d 9c0f 1f3d
00000080: fc44 e73c a5fd 593d 45ab 9cbd 527e c1bd
00000090: c846 b0bd 000e 283d 3aea 24bd 90db 973d
000000a0: 48a0 3b3c 4d94 c03d f869 b2bd a271 e03c
000000b0: 0500 2e3c 05b7 c63d 3091 453d 90d0 553d
000000c0: ae34 633d e078 7e3d 4965 8f3d 59b6 b33d
000000d0: d845 86bd 7509 2dbc ae1a 88bb 9a70 c83d
000000e0: 24a3 8cbd 68d1 a83d 4eac a6bd 243b c63d
000000f0: dbd3 303d 01e8 5abd fa5a bfbd 33bb 1c3b
00000100: 6b3f a1bd 2bc9 47bd 186c b4bd 1c44 a5bd
00000110: 21de a03d 13a4 7dbd 924b cabc 4921 f13c
00000120: f76e 823c 69d2 9abc 7817 aebc e740 133c
00000130: 6ae1 c0bd 990c 143d d74d 9e3d e7ea e0bc
00000140: bd7a fabb f70e 963d f5ca 9b3d f489 debc
00000150: 830f ee3c cb0f 71bd 0044 5b3c cfcb 77bd
00000160: ab55 24bb 5601 bfbd 2ad4 a1bd c36c 3f3d
00000170: a88b 5dbd 9124 6aba 7d08 adbc 8259 233b
00000180: 1d27 0cbd 957a 90bd 0ec4 3ebd 4b58 3f3d
00000190: b96e 5c3d a859 043c 4bfd 42bd 7787 9e3d
000001a0: 9b06 6dbd 75f2 b03d 9356 78bc a10b aa3d
000001b0: 1486 63bd 9369 6a3c e60c 033d feda 813b
000001c0: 86dc 3e3d 8f05 9bbd d58d 083d fa69 a6bd
000001d0: 047a 293d 7f1f 5bbd 7e52 9fbc 831a 3dbd
000001e0: cc61 aebd ae0c debd 5ffb 9e3d 966d 2fbd
000001f0: 204e 0d3d 88b0 e43c adb3 38bd 34c5 723b
00000200: 6184 bd3d b6e9 ae3d 1db6 4cbd 3c09 d1bb
00000210: edc8 9a3d f7b8 dd3d 022e 51bc b4ae 683d
00000220: 513e 2abd 37c3 c93d a8ac 103b 0282 553d
00000230: b79d 0f3d a6ea acbd d239 29bd 25ce ae3d
00000240: 5f5a f5bc 9c4a 6dbd e179 ab3d d355 bc3d
00000250: 9023 803d b1bf c0bc a0bf f1bc 1427 7a3d
00000260: 3ac6 1ebd b594 33bd 0ba1 d5bc 9a12 a53d
00000270: 4940 d43d 3837 98bd 2f0f be3c 36f0 aa3d
00000280: 6ef9 a9bd 22dd c8bd b708 703d 6d99 9d3c
00000290: 5f04 9cbd 57a4 fbbc b008 893b 2d29 8d3d
000002a0: 40c3 51bc 11e6 9e3c b646 32bc 6858 0abd
000002b0: 8bbc 88bd 6a72 a33d 448f 733d 376c 853d
000002c0: 87cc 46bb 3b9d 7a3d 612d 0fbd 82ef a03d
000002d0: 5290 a23d 5312 873d f4d6 18bd 47af 4bbd
000002e0: f467 59bd 09d7 883d 5b38 9e3d 6263 e13d
000002f0: cf61 2e3d f0e5 3b3d 4214 383d 9dbb afbd
00000300: dff7 7cbd 2ab9 953d 034a 523d 4428 21bc
00000310: 9069 2c3c c85b f9bb 6466 7f3c 9ef6 973d
00000320: 6077 2e3d c3a1 bfbd ea06 1e3d e774 b73b
00000330: f3b0 d5bc 5ae1 bbbb 1a53 a2bb 3d1e 15bd
00000340: f3fe 9bbd 7bad b43d ea75 313d cdcc 503c
00000350: 391b 013d 0038 253d df27 9fbd 0dc9 c7bc
00000360: 0701 89bc 2a99 1f3d b89a 223c 6b69 a5bd
00000370: 9729 1e3d dd95 413d a744 01bd 2311 573d
00000380: 4701 ddbc 9dde 343d 5b5b adbd 9dc3 92bd
00000390: 3094 1b3d 433e 9fbd 1d05 aabc 97a0 b83d
000003a0: 5d51 51bd d0e5 83bd c898 c13d 4d14 c43c
000003b0: 9503 6f3c 4d49 0c3d 4d8c c2bb 6f43 adbd
000003c0: 53bb e43c 93b2 f2bc 7a5e 56bd 6a62 103d
000003d0: 6200 933d 5bcd a43d 9946 fb3b f38f 29bd
000003e0: 341b 15ba 00b1 d53c cde9 c6bb 63bf 643d
000003f0: 0004 563c 73a8 943c 6a23 96bd 3372 91bd
-0.07065184 -0.011501872 -0.063794635 0.0152197 -0.0637507 0.06780776 -0.0876435 0.09647478
0.0036697774 -0.011536876 0.0030647092 -0.0222556 -0.0905573 0.08148048 0.02775285 -0.012402418
0.039913863 -0.024750547 0.05135697 -0.050436392 -0.016643548 -0.010618389 -0.09540292 0.041275512
0.019137455 -0.020845998 0.09293371 0.019244188 0.07926142 -0.09461268 0.054571014 0.038833246
0.028231137 0.05322041 -0.076498546 -0.09447922 -0.086072505 0.041028976 -0.04026244 0.07414925
0.011451788 0.09403286 -0.08711618 0.027397934 0.010620122 0.09702877 0.048234165 0.052200854
0.05547016 0.062126994 0.070017405 0.087750144 -0.065562904 -0.010561337 -0.004153571 0.09787102
-0.06867054 0.08243066 -0.08138333 0.09679249 0.04317079 -0.053443912 -0.09343524 0.002391529
-0.07873424 -0.048775833 -0.0880968 -0.080696315 0.07854868 -0.06192405 -0.024694238 0.029434817
0.015922053 -0.01889916 -0.021251425 0.008987642 -0.09417994 0.036144827 0.077296905 -0.02745576
-0.007644026 0.07327073 0.0760707 -0.02716539 0.029060131 -0.058852952 0.013382912 -0.0604971
-0.0025075476 -0.09326427 -0.07901795 0.046734583 -0.054088265 -0.00089318404 -0.021122212 0.0024925177
-0.03421699 -0.07054631 -0.04657369 0.046715062 0.05381653 0.008078016 -0.04760484 0.077406816
-0.057867628 0.08639995 -0.01515736 0.08302999 -0.05554779 0.014307397 0.031994723 0.0039628735
0.046597026 -0.075694196 0.033338387 -0.08125682 0.04137613 -0.053496834 -0.019448515 -0.04616786
-0.08514747 -0.10842262 0.07762789 -0.04282912 0.034498334 0.027916208 -0.045093227 0.0037043812
0.09253765 0.085406706 -0.049978364 -0.0063792747 0.07557855 0.10826295 -0.012767317 0.056807235
-0.041563336 0.098516874 0.0022075567 0.05212594 0.035062518 -0.08443193 -0.041314907 0.08535413
-0.029950319 -0.05793248 0.08372856 0.09196057 0.06256783 -0.023528906 -0.02951032 0.061072424
-0.038763262 -0.04384299 -0.026077768 0.080601886 0.10363824 -0.07432407 0.0232006 0.08346598
-0.08299528 -0.09807803 0.05860206 0.019238198 -0.07618021 -0.030718012 0.004181944 0.06892619
-0.012802899 0.019396814 -0.010881117 -0.033775717 -0.06676587 0.07980807 0.0594628 0.06514781
-0.003033431 0.061185103 -0.034955386 0.078581825 0.07937683 0.06595292 -0.03731437 -0.049727704
-0.053077653 0.0668164 0.07725593 0.11005284 0.042573746 0.045873582 0.044941194 -0.08580706
-0.061759826 0.07310708 0.051340114 -0.00983626 0.010523215 -0.007609818 0.015588377 0.07420085
0.042594314 -0.093570255 0.038580813 0.0055986526 -0.026085353 -0.005733651 -0.004953754 -0.03640579
-0.07616987 0.08822151 0.043325342 0.012744141 0.031520102 0.04033661 -0.07771277 -0.02438786
-0.016724123 0.038964428 0.009924583 -0.080767475 0.038613882 0.04726206 -0.031559613 0.052506577
-0.026978148 0.044157613 -0.0846469 -0.071662165 0.03798312 -0.07775547 -0.020754391 0.09015005
-0.051102985 -0.06440318 0.09452969 0.023935461 0.014588256 0.034249593 -0.0059371353 -0.084601276
0.027921354 -0.029626166 -0.052336194 0.035250105 0.071778074 0.08046981 0.007668328 -0.041397046
-0.00056879525 0.026085377 -0.0060703517 0.055846583 0.013062477 0.01814673 -0.073309734 -0.0710186
