result/2robots/rl_model.pth (torch, 392355 bytes, 20 tensors)

mlp1.0.weight f4 [150, 13]
000000 a8 2e f0 3d ec cf ae 3d 7b 5d 28 3e 8b a3 47 3c
       0.11727649 0.08535752 0.1644191 0.012184988
000010 5a 92 4a 3e 71 21 91 3e b0 64 71 3e 16 c3 9b 3e
       0.19782391 0.28345826 0.23573565 0.30422276
000020 65 8c 20 bd 88 6a 7f be 7f fc 02 3e 7b db bf bd
       -0.03919639 -0.24942982 0.12791632 -0.093680345
000030 6b ae 2b be 68 ce 88 3e 38 57 dd 3b 18 4a 54 3e
       -0.16765754 0.26719975 0.006754782 0.2073139
000040 63 c6 88 be 32 fa 55 be 5f ab 2a 3d c8 77 85 be
       -0.26713857 -0.20896223 0.04166734 -0.26067948
000050 12 72 14 be d7 8b 32 3a b4 c1 2c 3e 0f 75 0f be
       -0.1449664 0.0006810999 0.16870767 -0.14009498
000060 5e 32 5f 3d df 4d a3 39 12 cb 10 be 2c 4d 8e 3c
       0.054491393 0.000311478 -0.14139965 0.017370783
000070 96 31 59 bd 51 67 62 be 6a 4c 41 be e0 35 8a 3e
       -0.053025804 -0.22109725 -0.18876806 0.26994228
000080 8f b3 a6 3d 88 4d ea 3d 3a 13 92 3e 11 67 4d 3e
       0.08139717 0.11440569 0.28530294 0.20058848
000090 ed a5 e2 3c dc 44 8a bd ff 8b c0 3b c0 8a 95 3e
       0.02766701 -0.06751415 0.005876064 0.2920742
0000a0 79 c3 a5 bd dd ac 29 be d9 ac 80 3e 0c fd 88 be
       -0.08093924 -0.16569848 0.25131872 -0.2675556
0000b0 21 11 70 be 28 0f 3c be 82 27 80 be fb 63 2b 3e
       -0.23444034 -0.18365157 -0.25030142 0.16737358
0000c0 da 94 04 be 3b bb 04 3d d8 fa 9d be 34 27 50 be
       -0.12947407 0.03240512 -0.3085544 -0.20327455
0000d0 9b 08 7c be f4 35 24 3e f7 fc 6f 3e a7 cb 8b 3e
       -0.24612658 0.16036206 0.23436342 0.27303812
0000e0 12 82 33 be 23 af 20 3e e7 c3 1f 3d 82 77 92 be
       -0.17530087 0.1569181 0.039005186 -0.28606802
0000f0 e9 d2 1e be 25 1b 90 3e f8 14 44 3d 54 f2 3a 3c
       -0.15510143 0.2814571 0.04787156 0.011410315
000100 50 5f 11 be 46 80 8a be 32 8f b8 bc 6b 26 6c 3d
       -0.14196515 -0.2705099 -0.022529218 0.057653826
000110 08 19 1b be f2 8d 14 3e 7d 40 87 3c 32 90 8c 3e
       -0.15146267 0.14507273 0.016510243 0.27453762
000120 c9 02 e2 3d fc 51 3c 3e b9 d3 13 3e 53 55 4e be
       0.110356875 0.1839065 0.14436235 -0.20149736
000130 44 f8 35 be b7 8c 84 3d bb c4 94 bd 7c 24 94 3d
       -0.17770487 0.06472152 -0.07264086 0.07233521
000140 2f ff 99 bd ef b5 d4 bd 8d 26 a1 bd dd 31 86 3c
       -0.075193755 -0.103862636 -0.07868681 0.016381199
000150 5b 20 5c be 5b f6 8b 3e 17 81 6f 3e 73 e5 9b bd
       -0.21496718 0.27336392 0.23389088 -0.07612123
000160 5d 5d 8c be 0f 62 a6 bd 31 65 9f be a5 6e 35 be
       -0.2741498 -0.08124172 -0.3113189 -0.17717989
000170 8e 04 7b be 40 41 7e 3d 2b fe 20 3d 32 17 19 bd
       -0.24513456 0.062073946 0.039304893 -0.037375636
000180 97 28 7c 3e d1 04 2b 3e 94 d5 2f be 64 b1 db bc
       0.24624859 0.16701056 -0.17171317 -0.026817985
000190 68 7e 23 3d be cf 6a be 24 be 51 3c 06 90 4d 3d
       0.039915472 -0.2293081 0.012801681 0.05018618
0001a0 32 90 85 be ef cf 9a bd d7 59 b8 bd 5d 4e d5 3d
       -0.26086575 -0.075591914 -0.090015106 0.10415337
0001b0 1a b8 78 3d 88 0d 80 be 2d 3b 13 3c 68 d8 91 bd
       0.060722448 -0.25010324 0.008986277 -0.07121354
0001c0 2c 01 82 be b4 cd 7c be 69 1b f3 bb 0d 3e 24 3e
       -0.2539152 -0.24687845 -0.007419039 0.16039295
0001d0 45 98 78 bc c3 d8 12 3d 17 26 70 be 88 15 3d bd
       -0.015173023 0.03585125 -0.2345203 -0.046163112
0001e0 3f 1d 2e be c7 69 69 3e 77 56 f8 3c a5 ad 1a be
       -0.17003344 0.22794257 0.030314667 -0.15105303
0001f0 de 17 6a bd ee 89 14 3e 96 2c 50 be 88 f2 79 3e
       -0.057151668 0.14505741 -0.20329508 0.24408925
000200 55 5e 5e be 52 7e 4a be a4 e2 1a bd 93 8d 69 3e
       -0.21715672 -0.1977475 -0.037813798 0.22807913
000210 d5 52 65 be 0d 53 46 3e f8 b8 80 3e b1 df 6a be
       -0.22394879 0.19367619 0.2514112 -0.22936894
000220 bc 57 63 be 93 d9 ee 3d e8 76 87 be 07 c9 f7 3d
       -0.22201437 0.11662593 -0.26457906 0.1209889
000230 c0 fd 84 bd 7d 4f 42 be 29 eb ee bd 91 4e 0b 3c
       -0.064937115 -0.18975635 -0.11665947 0.008502618
000240 3d 67 a8 bd 87 75 88 bd ff cb 2a bd ba 6d 8a bc
       -0.08222816 -0.066630416 -0.041698452 -0.016898025
000250 a3 c7 e6 3d 84 be 52 3e 7a 5d 9a be 5b 7d 67 3e
       0.112685464 0.20580488 -0.30149442 0.22606413
000260 59 d4 93 3e 09 8a a3 bd 93 06 25 be 02 ac 82 3e
       0.28872946 -0.079853125 -0.16115789 0.25521857
000270 2c 7c 87 3e 6c 05 2e be 39 3a 48 be b4 84 e0 bd
       0.26461923 -0.16994256 -0.1955346 -0.10962811
000280 14 d5 61 bc c4 5b 97 be eb d5 16 3d 92 2d 10 be
       -0.013783712 -0.295622 0.0368251 -0.14079884
000290 04 90 4a 3e ca 41 92 be 94 a2 07 be 65 c7 06 be
       0.197815 -0.28565818 -0.13245612 -0.13162
0002a0 3e ce 89 be 4d 33 80 bd 3b c3 de 3d 91 b8 20 be
       -0.26915163 -0.06259785 0.10877081 -0.15695406
0002b0 9a 73 75 be 42 d1 e2 bd 83 a5 8b 3e cc 06 95 bd
       -0.2396988 -0.11075069 0.27274713 -0.07276687
0002c0 7e 2f e5 3d 92 32 d3 bd 25 b0 be be 21 8e 2d be
       0.11190699 -0.1031238 -0.37243763 -0.16948749
0002d0 4a 4c 51 3d 5d e6 90 bc ff f9 6d 3d bd 41 a3 bd
       0.051098146 -0.01768797 0.058099743 -0.07971523
0002e0 68 22 39 be 93 e5 9a 3d 9e 58 1a be 57 d8 60 3e
       -0.18079531 0.07563319 -0.15072867 0.21957527
0002f0 bc fc a4 be 51 1a 6d bd 7d 51 39 3e 4f d8 f1 be
       -0.3222407 -0.057886425 0.18097492 -0.47235343
000300 f0 de 39 bd 0f 06 e0 bd b1 42 30 3e 48 6e 20 3e
       -0.045378625 -0.109386556 0.17212941 0.15667069
000310 1c 66 fd 3d 7b 5e 82 be c3 b0 63 bc eb f2 80 be
       0.123729914 -0.25462708 -0.013897124 -0.25185332
000320 18 7b 2a be 92 27 7e be 6e c4 35 be 31 35 78 3e
       -0.16648519 -0.24819782 -0.17750713 0.24239041
000330 f4 76 09 be ea 49 10 bd 95 04 b3 be de 58 69 be
       -0.13424283 -0.03522674 -0.34964433 -0.22787806
000340 bf 3c 44 bd 86 28 00 be a6 ad 5b 3e 78 2b b7 3d
       -0.047909494 -0.12515458 0.2145296 0.08943838
000350 8c 3a b5 3d 5f 2a 40 3e 67 c5 cf 3d 09 4a a5 be
       0.088490576 0.18766163 0.101450734 -0.32283047
000360 87 f5 84 3e 88 12 87 be c9 3d 3b 3e b5 a4 95 bd
       0.25968572 -0.26381326 0.18285288 -0.07306806
000370 5d 09 c2 3c ef a1 a7 3c 98 59 86 bd 06 31 0f be
       0.023686105 0.020462958 -0.065600574 -0.13983545
000380 c8 91 7c 3e 3a 68 18 3e 43 ae 3b be a5 12 3b 3e
       0.24664986 0.1488351 -0.18328194 0.18268831
000390 0a c5 ba 3e 0a 4c 27 3d ce 50 18 3e 62 8c 8e 3d
       0.36478454 0.040844 0.14874575 0.0696037
0003a0 1d 2a 88 be 71 11 4c 3d cb c7 d6 3d e2 54 fd 3d
       -0.2659463 0.04982132 0.10487326 0.12369706
0003b0 7b 3b 57 3e c4 6e 41 3e e0 1f 2b be 13 2f 48 be
       0.21018784 0.1888991 -0.16711378 -0.19549207
0003c0 ce c4 7c 3e 7f 4a 9e bd c4 7e 20 3e d3 8c 91 bd
       0.2468445 -0.07729053 0.15673357 -0.07106938
0003d0 2c 74 1e 3e f8 f1 49 3c 79 d0 58 be 59 e9 2a 3d
       0.15474004 0.012325756 -0.21173276 0.041726444
0003e0 bc 10 5f be 10 07 d7 bd 46 f2 f7 bc d4 8b 3d be
       -0.21783727 -0.10499394 -0.030266892 -0.18510371
0003f0 5b 87 18 be 0b 26 df bd 5d 34 f8 bd 42 df 08 3e
       -0.14895384 -0.10895928 -0.121193625 0.13366416

mlp1.0.bias f4 [150]
000000 bf 92 a2 3d 7f 76 e8 3c 41 93 48 bd b5 ab e9 bd
       0.07938146 0.028376816 -0.048968557 -0.11409704
000010 7f e3 7f bd 42 67 4a 3e 14 e7 07 3d 86 00 33 3e
       -0.062472817 0.19765952 0.033179358 0.17480668
000020 46 29 09 be 10 05 68 be 31 8c 48 3e c3 04 33 be
       -0.13394651 -0.22658181 0.19584729 -0.17482285
000030 cc 68 5d be 3c f8 b6 3d 83 18 13 3e a3 07 98 3d
       -0.21622008 0.08934066 0.14364819 0.074233316
000040 df d1 4c 3e 05 45 9b 3e 07 b8 69 be 8e 54 07 be
       0.20001934 0.30326095 -0.22824107 -0.13215849
000050 2f a2 15 be 03 66 58 3e a3 d1 38 3e 2f 1a a4 be
       -0.1461265 0.21132664 0.1804872 -0.32051226
000060 80 65 38 3e 6c a8 94 3b 0c 19 10 3e a5 ee c0 bd
       0.18007469 0.004536679 0.14072055 -0.09420518
000070 31 91 d5 3d 7c e6 4e 3e 52 1c f9 3e aa 91 7f 3e
       0.10428084 0.2020511 0.4865442 0.2495791
000080 c5 63 9d be fc 8c 9f 3d f9 75 59 3e 3b 15 3b 3e
       -0.3074018 0.077905625 0.21236409 0.18269818
000090 47 57 cc 3d 8e fb 79 3e 19 8b 57 be 46 cf 4c be
       0.09977584 0.24412367 -0.21049155 -0.20000944
0000a0 60 78 4a be 4a 7e a0 3d 3c ab 91 be 93 f2 9e 3e
       -0.19772482 0.07836588 -0.28450954 0.31044444
0000b0 0b 96 82 3d 09 2e fe 3d d5 11 97 bd 73 de 64 3c
       0.06376275 0.12411124 -0.07376448 0.013969052
0000c0 0c 8a ab 3d 12 5e d0 3d dc bf b5 3d 31 26 74 3e
       0.0837594 0.101741925 0.08874485 0.23842694
0000d0 dd f6 d4 3d e5 c6 a5 3d f7 b4 bc bd 08 b5 bf 3d
       0.10398648 0.08094577 -0.09214204 0.09360701
0000e0 16 91 10 be d9 69 93 be e6 5d 24 3d cb ff 65 3e
       -0.14117846 -0.28791693 0.04012861 0.22460859
0000f0 db 22 91 bc c9 7c 0c 3d 1c f5 c0 bd c2 8b fb bb
       -0.017716816 0.034298692 -0.09421751 -0.0076765725
000100 53 93 42 3e 76 e2 13 3e 1c 5d 6a be 23 66 3b 3e
       0.19001512 0.14441857 -0.22887081 0.18300681
000110 57 24 4a 3e e0 be 93 3e df d1 7b be cd c2 cf 3d
       0.19740425 0.28856564 -0.24591778 0.10144577
000120 52 f3 83 3e fe f3 99 3e 80 c9 83 be 2c 3e 9c 3e
       0.25771576 0.30068964 -0.2573967 0.30516183
000130 d6 04 83 be 1e ef 20 be 33 81 8d 3d 8f 99 3d be
       -0.25589627 -0.15716216 0.069094084 -0.18515609
000140 fb 37 11 be fe 1d 3e 3a fa 44 97 bd 28 5b f0 bd
       -0.14181511 0.0007252394 -0.07386203 -0.11736137
000150 b2 01 d3 bd 74 3a a5 bd 73 43 7d 3e 26 ef ca bc
       -0.10303058 -0.0806779 0.24732761 -0.024772238
000160 24 41 30 3e 8e 4b 6c be f0 50 88 3e b2 2f 8f 3e
       0.17212349 -0.23075697 0.2662425 0.27966076
000170 e3 a6 91 3e d3 e9 e8 be b8 89 af 3e 23 94 12 3e
       0.28447637 -0.45490894 0.3428476 0.14314322
000180 c0 b4 99 bd 4a 86 75 be 67 dc 73 be b3 d5 37 3e
       -0.075051785 -0.23977008 -0.23814546 0.17952614
000190 6a 70 ed 3d dd 21 84 be 61 66 95 bd 4b 31 5a bd
       0.11593707 -0.25807086 -0.07294918 -0.053269666
0001a0 80 a9 78 be 60 6d cd 3d 0e 2b 59 be 8b cd 7a be
       -0.24283409 0.10030627 -0.2120783 -0.24492471
0001b0 d3 78 d8 bd e1 c8 34 3e 81 f1 1a be a4 f3 5a be
       -0.105699204 0.17654754 -0.15131189 -0.21382004
0001c0 97 ae 02 bd ca 7d 9a 3d 0f ac 06 be b3 c4 1b 3c
       -0.031904783 0.075435236 -0.13151573 0.009507346
0001d0 19 20 48 3e f6 24 c5 be 2e 89 af bd c9 63 4e be
       0.19543494 -0.3850476 -0.08571087 -0.20155253
0001e0 d9 49 37 bd 39 f2 7d bd 12 31 42 be cd 39 a5 be
       -0.04474816 -0.06199858 -0.18964031 -0.3227066
0001f0 40 93 95 bd b8 18 92 3e 70 2e 56 be fe 1b 15 3e
       -0.07303476 0.28534484 -0.20916152 0.1456146
000200 e4 8f 94 be 33 1c 0f be d8 b7 9f 3d 2d e1 20 3e
       -0.2901603 -0.13975601 0.07798737 0.15710898
000210 7f 20 36 3d 3c c8 88 3d 6b b4 45 be f8 51 93 bd
       0.044464584 0.06678817 -0.19307105 -0.07193369
000220 f6 79 36 3e fb 24 1e 3d 76 d6 3d 3e 54 07 3d be
       0.17819962 0.038609486 0.18538842 -0.18459827
000230 72 c1 04 be 08 f0 fd bd f4 c5 94 bd b8 0d b0 3d
       -0.12964419 -0.12399298 -0.07264319 0.08596367
000240 f8 02 34 be 36 0b a5 bd 9c ef 61 be 72 53 c0 3d
       -0.17579257 -0.08058779 -0.2206406 0.09390916
000250 d8 33 b4 3d bc 6d 81 be
       0.08798951 -0.25279033

mlp1.2.weight f4 [100, 150]
000000 38 72 1c 3c 8b 55 7c bd 7d 07 35 bd 94 8d b9 bd
       0.009548716 -0.061605018 -0.044196595 -0.09060207
000010 29 80 06 3d ea 81 b3 3d b8 bd a8 bd 66 74 74 3c
       0.032837067 0.087650135 -0.08239311 0.01492033
000020 fc 4f 26 bc 33 d4 97 3d ed dc 79 bd 06 a5 8a 3d
       -0.010150906 0.07413521 -0.061001707 0.06769757
000030 03 c9 af 3d 74 cb ba bd 5d 3e e5 bd 9e 9f 92 3b
       0.08583262 -0.09120837 -0.111935355 0.0044745943
000040 b0 06 88 bd 83 5c ea 3d ed 6e 35 3d 4e d0 c0 3c
       -0.066419005 0.114434265 0.04429524 0.023536827
000050 f3 a6 44 3d 9a fb 76 bd 3d 99 97 3c 3f 27 50 3c
       0.048010778 -0.06029854 0.018505687 0.0127046695
000060 94 88 05 3d cf 4a a4 bd 7c 67 38 bd d6 1d b0 bd
       0.032600954 -0.08022081 -0.045020565 -0.08599441
000070 cf ef ee 3d f9 e1 a9 bd d7 82 34 3d b7 98 6d bd
       0.116668336 -0.08295054 0.04407009 -0.05800697
000080 04 93 24 3c 5e 86 b8 3d 67 19 e8 bc 28 23 03 bd
       0.010044817 0.090100035 -0.028332425 -0.03201595
000090 a4 63 8d bd 5c b7 4d 3c 7b 67 7e 3d b4 7e a9 bd
       -0.069037706 0.012555923 0.062110405 -0.0827612
0000a0 40 96 eb 3c 2d 42 88 bc e3 1e d3 bc 68 70 0c bd
       0.028758168 -0.016633118 -0.025771564 -0.034286886
0000b0 ad b4 5a 3d 61 9d 95 bc 7c 79 96 3d 0b 73 26 3d
       0.053394962 -0.01826352 0.0734739 0.040637057
0000c0 0e 0b 95 bd 81 2b a9 3c 98 54 a8 3d f1 b2 0f ba
       -0.07277499 0.020650627 0.0821926 -0.00054816814
0000d0 a8 89 95 bd 59 5b 84 bd 31 ae 98 bd 1b 30 f0 bd
       -0.073016465 -0.06462736 -0.074550994 -0.117279254
0000e0 c0 34 86 bd 3c 50 95 bd 0b 57 e5 bb 5f fc 8a 3d
       -0.0655303 -0.07290694 -0.0069989017 0.06786417
0000f0 da ef 7e 3b 4b 16 9c bd 20 ac 81 bb 76 87 d0 bd
       0.0038900287 -0.076214395 -0.0039572865 -0.10182087
000100 01 3c 8d bd 84 cc c9 3c 24 2b ae bd f0 d1 e4 3c
       -0.068962105 0.024633653 -0.08504322 0.027932137
000110 5c c1 93 3c 9d 2f d2 bc 97 16 86 bd aa 8a 22 bd
       0.018036537 -0.02565747 -0.065472774 -0.03968302
000120 6c c8 8c 3d c9 84 61 bd 6c bc cf bd 02 0b 75 bd
       0.06874165 -0.055058274 -0.101433605 -0.05982495
000130 c1 5d ac 3c c1 f4 9a bd 3a b1 c4 bd 69 71 0a be
       0.0210408 -0.07566214 -0.09604116 -0.13519825
000140 f3 9e 8a 3c d6 a8 00 3b 38 43 9f bd f7 3b 85 3d
       0.016921496 0.0019631884 -0.07776493 0.06505578
000150 6e 44 92 3d ae c8 83 3d e3 b4 c7 bd fe c6 69 3c
       0.07141958 0.06434761 -0.09751298 0.014268635
000160 c0 51 9b bd 5c dd c4 bb d9 0a a8 bd d4 22 05 3d
       -0.07583952 -0.0060078334 -0.08205194 0.032503918
000170 2e 52 2f 3d a1 57 cb b9 cd 10 87 bd 08 1b 93 bc
       0.042802982 -0.00038784466 -0.06595001 -0.017957225
000180 8f f8 d0 3d 4f 93 45 bc c5 5a 65 3c d8 c8 9a bd
       0.10203659 -0.012059047 0.013998692 -0.07557839
000190 8a 0b 4b bc 6a 57 f2 3c c6 ab 91 3d 3a 3e 85 3d
       -0.012392888 0.029582698 0.07112841 0.065060094
0001a0 f9 47 31 3d 25 06 20 3d db 2c 59 3d e5 c8 5a 3d
       0.04328153 0.03906836 0.053021293 0.053414244
0001b0 85 2c 2d 3d 00 18 ed 3b ff d3 25 bd 01 fa e8 3c
       0.042278785 0.007235527 -0.04048538 0.028439524
0001c0 ce b2 d9 bc 3d 22 65 bd c3 69 75 3d 8e fd 89 3d
       -0.026574519 -0.055940855 0.059915315 0.06737815
0001d0 20 aa b5 3c 23 23 05 3d a8 da b4 bd b7 0e 55 bc
       0.022175848 0.032504212 -0.08830768 -0.013003997
0001e0 61 80 5f 3d a7 e6 5a bd 15 e8 5a 3c 0b 30 57 bd
       0.05456579 -0.053442623 0.013360997 -0.05253605
0001f0 1d 16 2c bc ae 59 be 3c 29 f7 99 bc 21 91 15 3c
       -0.010503319 0.023236122 -0.018794613 0.00912884
000200 91 d3 9d bd 45 61 96 bd a6 a0 15 3c ca 6c 81 3d
       -0.07706369 -0.073427714 0.00913254 0.06319578
000210 33 32 bf 3d 2d d7 a2 bd 79 74 1e bc 90 ed 6c bd
       0.093357466 -0.07951198 -0.009671324 -0.057843745
000220 eb d5 50 3b 1d 5f 2b 3d 53 bb 80 bd d1 c8 7a 3d
       0.0031865786 0.041838754 -0.06285729 0.06122667
000230 97 2a 72 bd 95 68 a6 bd 4e 8d 4c 3d fe fc 03 bd
       -0.059122648 -0.08125416 0.049939446 -0.032223694
000240 c3 47 9a bc a9 51 bf 3c 49 81 0d bd 9f 03 13 bd
       -0.018833047 0.023354368 -0.034547124 -0.035892125
000250 3c 74 81 3d 03 32 47 bc 13 56 85 3d 6f 85 bb 3d
       0.06320998 -0.01215792 0.06510558 0.0915631
000260 13 11 80 3d 85 3c 46 3d 24 9e 0e 3d b4 47 a8 bd
       0.06253257 0.04839756 0.034818783 -0.08216801
000270 04 58 8d bd d5 73 35 3d 0d 00 bd bd 8f 83 6b bd
       -0.06901553 0.04429992 -0.09228525 -0.05749851
000280 85 04 bd bb 6e 13 39 bd 60 90 8b 3d 19 e9 8b 3d
       -0.005768361 -0.045184545 0.06814647 0.06831569
000290 21 21 9f 3d 30 ff 35 bd df c3 ce bc 3c 47 e3 3c
       0.07769991 -0.04443282 -0.025239883 0.027743928
0002a0 c9 25 42 bd 47 b6 26 bd 5e 42 9b bd 7a fb 42 3d
       -0.047399316 -0.040701177 -0.07581018 0.047603108
0002b0 b3 31 7a 3d 1e b4 a7 bc 6f 2d 2c 3d 17 31 0a bd
       0.061082553 -0.020471629 0.042035516 -0.033738222
0002c0 47 1b f9 ba 55 12 59 3d 3a 34 8c 3d 36 f0 1a 3b
       -0.0019005322 0.052996 0.06845899 0.0023641712
0002d0 82 c5 e3 bc 4a 97 04 bd e2 9c c6 3b 09 6e 3d bd
       -0.02780414 -0.032370843 0.0060611824 -0.046247516
0002e0 9f 58 7b 3d 8f 95 86 3d d3 ac c9 bb 7f d9 85 bd
       0.061363813 0.06571495 -0.0061546355 -0.06535625
0002f0 20 8d 1c 3c e7 61 3a 3d 09 3b 42 bd 05 ce 1a 3d
       0.009555131 0.045503523 -0.04741958 0.03779413
000300 29 27 94 3c bc 32 8b bc 40 fd 46 3d 92 62 bd bd
       0.01808508 -0.016991965 0.04858136 -0.092473164
000310 7e 2f ed bc cd de 07 3d 50 d9 3e 3d 99 42 15 bc
       -0.02895331 0.033171464 0.046593964 -0.009110116
000320 f5 ff f5 bc 98 e8 d2 bc 31 28 7e 3d 9f 34 70 bd
       -0.030029276 -0.025745675 0.06205005 -0.058643933
000330 6c a1 a6 bd 3d 01 56 bc e9 af 25 3d 73 21 2b 3d
       -0.081362575 -0.013061819 0.040450964 0.041779947
000340 0e 5c b8 bd 95 92 91 3d 0d 7d 32 3d ae e5 2d bc
       -0.09001933 0.071080364 0.04357629 -0.010613842
000350 85 8b 85 bd 41 ea 1c bb 35 5f 8a bc 66 05 73 3d
       -0.06520752 -0.0023943337 -0.016891101 0.05933132
000360 aa 16 ab bd 2e 96 de bd 07 61 40 3d d8 65 bb bd
       -0.08353932 -0.10868488 0.046967532 -0.091502845
000370 90 9a 81 bd 42 68 2f 3d 83 5f 8d 3d e0 24 4a 3d
       -0.063283086 0.042824037 0.06902983 0.049351573
000380 7c 90 ad bd 53 c5 93 3d 5a ee 83 bd 6c 6c c8 bd
       -0.08474824 0.07215371 -0.06441946 -0.09786305
000390 06 9e 38 3d d8 5e 12 3d 1e 59 3d bd c0 eb d2 bd
       0.045072578 0.03573498 -0.046227567 -0.10298872
0003a0 a7 2d b3 3c 3b 29 13 3c 28 e9 d2 3c 60 c8 47 3c
       0.021872355 0.008981998 0.025745943 0.012193769
0003b0 d0 61 c2 3c c2 e3 7b 3d 56 3e 9d 3c e3 6e 31 3d
       0.023728281 0.061496504 0.019194763 0.04331864
0003c0 e8 63 59 3c 43 5e bf bb 29 3b 6d bd 79 00 af 3b
       0.013268448 -0.0058400943 -0.057917748 0.0053406325
0003d0 44 a2 14 bb 1c 83 8f 3b 5e 0b 2c 3a 9c d9 97 bd
       -0.0022679726 0.004379643 0.0006562973 -0.074145526
0003e0 64 c6 b8 3d 81 7f 8d bd 4f dd 75 3d f9 e6 bc 3d
       0.09022215 -0.06909085 0.06002551 0.09223742
0003f0 4a b6 46 bd 55 06 68 3c 9f 44 0c 3d 31 07 83 bd
       -0.04851369 0.014161666 0.03424513 -0.06397856

mlp1.2.bias f4 [100]
000000 fe d2 4e ba 4a 3c 69 3d a9 cd 5b 3d ab 48 0e bd
       -0.00078897167 0.05694226 0.05366293 -0.03473727
000010 15 52 c4 bd fd c0 28 bc 25 39 d7 3a 17 46 8a bd
       -0.095859684 -0.010299918 0.0016420229 -0.0675165
000020 8d 50 92 bd 16 c6 89 bd fd 67 58 3e ed 3e 19 3e
       -0.0714427 -0.06727235 0.21133418 0.1496541
000030 af 83 9f bc a0 36 5b bc 23 5c c1 3d ad de 54 3d
       -0.019471971 -0.013379723 0.09441402 0.051970173
000040 d1 a8 8a 3d e8 8e 0b 3d 0f fa 95 bd 80 41 75 bd
       0.067704804 0.034071833 -0.073230855 -0.05987692
000050 ad 2e cb 3d d7 c0 41 3d ab 18 dc bd 44 73 4e 3d
       0.09921012 0.047303047 -0.107468925 0.050402895
000060 3b fa e8 3c bb a5 d2 bc 8c 22 e5 3c 52 4d 35 bd
       0.028439632 -0.025713792 0.027970575 -0.04426319
000070 35 88 b7 3c 09 83 01 be 5d 60 f6 bd b9 95 70 bc
       0.022403816 -0.12647642 -0.120300986 -0.014684134
000080 fb d0 95 be be 85 6f 3c ce a3 71 bd 1b e9 54 be
       -0.29261002 0.014619289 -0.058994107 -0.20792048
000090 c5 73 2a 3d 94 6e 8c 3d fd 81 96 bd 23 1e ce 3c
       0.041614313 0.068570286 -0.07349012 0.025160855
0000a0 1a 96 1d be 25 ec 86 bc 86 a3 b7 3d fb c4 06 3d
       -0.1538929 -0.016470024 0.089667365 0.0329027
0000b0 e3 dd 45 be 86 ea 6e bd 9f ff 56 be 34 be 8c 3d
       -0.19322924 -0.058329128 -0.20995949 0.06872216
0000c0 c1 3a a2 3d 96 7e a7 bc ea 3d 09 be 8b d6 cd bd
       0.07921363 -0.020446103 -0.13402525 -0.100506864
0000d0 b3 66 da 3c e5 a3 84 bc df 0a 2c bd e3 8f 14 be
       0.026660299 -0.016191432 -0.042002555 -0.14508013
0000e0 c4 ac b4 bc e5 f9 af 3d 58 c6 58 3d 8c a2 ec bd
       -0.022055037 0.085925855 0.05292353 -0.11554441
0000f0 ce b3 25 be bb 7c 2b bc 9f de 1e 3e 8a af c4 3d
       -0.16181871 -0.01046675 0.1551461 0.09603794
000100 72 0e b0 bd 89 93 b6 bd 5c b5 dd 3d a5 d5 e9 3b
       -0.08596505 -0.08914859 0.10825607 0.007136064
000110 4b 78 b5 3b df 74 a3 3c 7e 1a f6 3c f1 e9 8e 3d
       0.0055380217 0.01995319 0.03004193 0.069782145
000120 c9 13 1c 3e 03 75 54 3c f1 a7 2a 3d 7e ec 75 3c
       0.15241922 0.012967351 0.041664068 0.015009997
000130 6b 02 f8 3d 98 79 c0 3c 04 49 ee 3d a3 a2 cf 3b
       0.12109836 0.02349548 0.116350204 0.0063365265
000140 cf b4 16 3c d9 4d a8 3d c4 3e a8 3d e8 1a 85 bd
       0.009198382 0.08217973 0.082150966 -0.064992726
000150 29 26 e7 3d 5c 37 6f bd af 3e d8 bd e4 34 1b 3c
       0.11286575 -0.058402404 -0.10558831 0.009473059
000160 49 65 62 bc 76 b0 29 3d 35 1a 4d bd 00 6d 70 bd
       -0.013818094 0.041428052 -0.05007382 -0.0586977
000170 db 21 06 3d 39 f3 36 be ac 89 4b bd e4 2f c8 3d
       0.03274713 -0.1786622 -0.04969184 0.097747594
000180 0d e6 9e 3c 7b 09 b1 bd f8 7a 5f 3d f6 b1 b0 3c
       0.019396806 -0.086443864 0.05456063 0.021569233

mlp2.0.weight f4 [100, 100]
000000 26 dc a2 3d e9 7b a5 bd 83 50 b6 3d ee d1 a9 3d
       0.07952146 -0.080802746 0.08902075 0.08291994
000010 e0 40 91 bd 09 18 f7 3d a6 1f bc bd 2a b0 c3 bc
       -0.07092452 0.12065131 -0.09185724 -0.023887713
000020 55 6a d5 bd be d5 c5 bd be 82 96 3d 18 0f a7 3b
       -0.10420672 -0.09659909 0.07349156 0.005098235
000030 2a 62 39 bd e5 c7 c8 3d 87 d7 1c 3c 48 db 8a 3d
       -0.045259632 0.09803752 0.00957287 0.06780106
000040 a1 e4 73 bd 2f 27 88 bd ee 3d d7 3c 58 3e 35 be
       -0.05954421 -0.06648099 0.026274648 -0.17699564
000050 dc 30 c8 bd 6d 79 c6 3d 15 0e 64 bb e4 e1 04 be
       -0.09774944 0.09691129 -0.0034798433 -0.12976795
000060 45 8c 8f 3d 34 d0 01 3e 33 fb 4d 3e 83 a4 60 bd
       0.07009176 0.1267708 0.20115356 -0.05484439
000070 d4 73 0d bd 53 f4 53 3d 6b 93 ca bd aa 09 8b 3d
       -0.03453429 0.051746678 -0.09891399 0.06788953
000080 eb e1 6e bd 56 03 a5 3b fb 3a 02 bd 97 3c 56 3d
       -0.05832092 0.005035798 -0.03179453 0.052303877
000090 ff 51 7a 3d 44 d8 03 3e ef 71 ff 3c 7d 6f b9 bd
       0.061113354 0.12875468 0.031182257 -0.09054468
0000a0 1d db 44 bd 6c 96 2e 3d 26 7f 30 3d 6f 17 45 3c
       -0.048060525 0.042623922 0.04309001 0.012029513
0000b0 d0 b4 06 bc fc 3f 83 3d 61 36 68 3d a0 dd 7e bd
       -0.00822182 0.064086884 0.056692485 -0.062223077
0000c0 50 ca f3 3d da ef 0e 3d c6 21 ea bd d2 e0 3c be
       0.119038224 0.03489671 -0.11432223 -0.18445137
0000d0 b6 1a e9 3d 33 d3 c5 bd 95 c2 04 3d b3 f0 87 bd
       0.11382048 -0.09659424 0.03241213 -0.066377066
0000e0 64 4a 89 bc 6f 1b 12 3d 2a fb 59 bd 8f fb da bd
       -0.016759105 0.035670694 -0.053218044 -0.10692512
0000f0 a5 cf 3c bd 6e fe ee bc e2 d6 ad bb b0 85 f4 bc
       -0.046096463 -0.029174056 -0.005305157 -0.029848903
000100 3e 64 4d bd 35 8e 80 3d d9 10 a0 bc 4c 32 8f 3c
       -0.050144427 0.06277124 -0.019539284 0.017480038
000110 de cd 48 bd 80 4e 96 bd 48 24 51 be 28 ba 34 bd
       -0.049024455 -0.073391914 -0.20423996 -0.044122845
000120 e8 87 81 3d 53 86 85 3b b4 83 54 3d c2 d0 99 bd
       0.0632475 0.0040748506 0.051883414 -0.075105205
000130 e9 06 26 bd 0e 7f b2 bd 61 91 d6 bc 3c 46 d1 bd
       -0.040533934 -0.0871564 -0.026192369 -0.10218474
000140 a0 da 2b 3d 35 c5 97 3d 45 38 98 bb 73 13 38 3b
       0.041956544 0.07410661 -0.0046453797 0.0028087765
000150 e8 ad 85 3d 70 dc aa bd 8a 3c db 3d 8e 2e 9a 3c
       0.065273106 -0.08342826 0.10704906 0.018821027
000160 0a 00 ba bd 02 e7 cd bd 0b 46 8a bd 35 ce 0c 3d
       -0.09082039 -0.10053827 -0.06751641 0.03437634
000170 3f d1 10 be 5e 0b 46 3d 0e 15 22 bd 94 bc d0 bc
       -0.14142321 0.048350684 -0.03957086 -0.025480546
000180 6c fb c1 bd 2c a6 70 3d 93 90 2d bd 98 c5 a1 bd
       -0.09471783 0.058752224 -0.042374205 -0.07899016
000190 c1 9a 45 bd 2c f6 68 bc 9d eb fa 3d e2 1c 2a 3d
       -0.048243288 -0.014218848 0.12251971 0.04153145
0001a0 54 7a 87 3d d1 a8 ba bd 6b e9 c8 bd 7a b7 50 bd
       0.06615129 -0.091142304 -0.09810146 -0.050956227
0001b0 7a 8d 7e 3b 38 af 3e 3d 5e d1 94 bc 3f a9 4e 3b
       0.003884165 0.04655382 -0.01816624 0.0031533984
0001c0 a9 0a 89 3d c5 6e 34 3d 54 dc 6c 3c 73 80 f8 3c
       0.066914864 0.04405095 0.014456827 0.030334687
0001d0 a0 43 4d 3d 17 10 ad bc 39 f8 13 3c 87 66 87 bc
       0.05011332 -0.021125836 0.009031349 -0.016528381
0001e0 13 9a 13 3d ec 02 8a bd cc 85 aa 3d 64 29 a9 3a
       0.03603561 -0.067388386 0.08326301 0.0012906012
0001f0 37 37 14 bd ed a4 4e ba 37 f5 c7 3c bd 16 82 bd
       -0.03618547 -0.0007882852 0.02440892 -0.06351993
000200 7e af 1a bd 00 50 5f bd ac eb f5 bd 9d 8f 57 bd
       -0.03776502 -0.054519653 -0.120078415 -0.052627195
000210 9a 6f 01 3d bc 25 c7 3d 3d 9b a7 3d a4 b3 ad 3d
       0.031600572 0.09723994 0.08183906 0.08481529
000220 32 9b e8 3c da 74 81 3c 52 12 c3 bd 5e 3c 33 bd
       0.028394315 0.01580279 -0.09524979 -0.043758743
000230 b2 ba 70 bc 1d 1b 66 3d c9 30 54 3b 97 49 e8 bb
       -0.014692949 0.0561782 0.003237771 -0.0070888507
000240 da 0f 89 bb e5 16 a0 3d 49 dc d3 3c 2e ac 66 bd
       -0.004182798 0.07816867 0.025861876 -0.056316547
000250 80 a0 c8 bd ce 0a 32 bd dc 33 94 bd c2 d1 d4 bd
       -0.09796238 -0.043467335 -0.07236454 -0.10391571
000260 f8 a8 ad 3d 01 e9 ce bd 25 19 56 bd 63 7e 67 3d
       0.08479494 -0.10103036 -0.052270073 0.056517016
000270 fc 84 a8 bd a5 c8 98 3c 5c d6 ba bd e1 25 0d be
       -0.0822849 0.018650362 -0.09122917 -0.13783981
000280 38 54 08 3d 6f 22 ca bc 2e 6a c0 bd 2f 66 2d bd
       0.033283442 -0.024674622 -0.09395252 -0.042333778
000290 7c 26 c7 bd f1 69 98 3d 09 06 a2 3d 58 c6 8d 3d
       -0.09724137 0.07442082 0.07911307 0.06922597
0002a0 07 27 03 3d 36 13 05 be c4 f1 25 3d 27 b9 41 3d
       0.03201964 -0.1299561 0.04051377 0.047295716
0002b0 b7 44 25 3d 8c 9a c4 bc 3d ee 9b bd 30 77 2c 3d
       0.040348735 -0.023999475 -0.076138 0.042105854
0002c0 ba 24 39 bd 28 dc bf 3d 12 a5 11 bc 79 aa 96 bd
       -0.04520104 0.09368163 -0.0088894535 -0.07356734
0002d0 d2 2b 93 3d a8 fb dd 3c 09 92 a8 3c f0 a7 1d 3d
       0.071860924 0.027097538 0.020577447 0.038490236
0002e0 4a cf 24 3e b3 81 4e bc c2 95 a6 3b 93 55 9b 3d
       0.160947 -0.012604165 0.0050837705 0.07584681
0002f0 12 e1 65 bd 84 6e 51 3d 28 72 b9 bc d0 73 48 3d
       -0.056122847 0.051130787 -0.022637442 0.048938572
000300 ed b4 80 3d 8c 9b 72 3d 72 ce 19 bd 4f 0c 17 bd
       0.06284509 0.059230372 -0.037550397 -0.036876973
000310 58 7f 62 3d d0 db 20 bc fa 4b c2 3d f4 48 8c bc
       0.055297226 -0.009818032 0.09487148 -0.01712463
000320 8d 6e 72 3d 13 bd c7 bb 84 78 5f bd 01 a2 b2 bc
       0.05918746 -0.0060955375 -0.054558292 -0.021805765
000330 19 08 0a bd 8a ea b9 bd 29 42 f4 bd e4 9a a6 bc
       -0.03369913 -0.09077938 -0.119266815 -0.02033753
000340 3a e0 4a bb 65 48 f4 3d b9 e1 e4 bc 4b 05 10 be
       -0.0030956403 0.11927871 -0.027939664 -0.14064519
000350 35 a4 0d 3d 73 7e 62 bd fb 3f 64 bc bb 1f f8 bd
       0.03458043 -0.055296373 -0.01393127 -0.12115427
000360 81 8c b7 3d 56 dd 5d 3d e6 1e 4b bc 88 af 4c 3d
       0.08962346 0.05416616 -0.0123975035 0.049972087
000370 1c 66 d2 bd e6 99 8b bd 00 7a c5 bc 59 53 3b bd
       -0.10273382 -0.06816463 -0.024106026 -0.045733783
000380 3a f2 d5 bd 7d f3 ee 3d b6 97 34 bd 6c 46 8f bc
       -0.10446592 0.116675355 -0.044089995 -0.017489634
000390 4b 9b 8f bd ee 40 8e bd 91 a6 4e 3e 50 18 88 bd
       -0.07012042 -0.06945978 0.20180728 -0.06645262
0003a0 d5 60 82 3c 72 1c f9 3c e9 10 d0 3c c8 4e 92 3c
       0.015915314 0.030409072 0.025398688 0.017859831
0003b0 f8 57 bb bd 6e b7 81 bd 36 77 95 3c 9d f0 87 3d
       -0.09147638 -0.063338146 0.01824532 0.0663769
0003c0 29 fb 9c 3c 1b ad ea bd 2b 6e 98 bd 7d 22 2c bd
       0.019162731 -0.114587985 -0.07442888 -0.042025078
0003d0 39 98 3c 3d 0a c9 22 3d eb d0 91 bd f6 36 45 bd
       0.04604361 0.039742507 -0.07119926 -0.048148118
0003e0 87 02 ba bd a3 37 86 3b 1f ec 87 ba 1a c5 55 3e
       -0.09082513 0.004095988 -0.0010370052 0.2087597
0003f0 26 c1 7b 3c 8f 48 55 3d f9 94 d7 3c f1 59 8a 3c
       0.015365874 0.05207115 0.026316153 0.01688859

mlp2.0.bias f4 [100]
000000 ef 85 eb 3d ae e1 31 be 94 02 2d be 65 7e c9 bc
       0.11500155 -0.17371246 -0.16895515 -0.024596402
000010 de 72 6c bd 99 ac 46 3d a6 48 5f 3d a2 9a f1 3d
       -0.057726733 0.048504446 0.054512642 0.11797072
000020 f7 ef 0a be df 94 30 3c a2 2b f3 3c a1 ea 1b 3d
       -0.13568102 0.010777681 0.029683892 0.038065556
000030 52 5d 51 be e1 5f 64 3d 4f 80 31 3d 12 20 6d bd
       -0.20445755 0.0557555 0.043335255 -0.057891913
000040 e0 02 aa 3d 0a 7b 45 be 41 6b 1e bd 39 67 bb bd
       0.083013296 -0.19285217 -0.038676504 -0.091505475
000050 97 98 31 bd a1 2c 21 3e 8b fa 10 3e 2d 17 58 3e
       -0.04335841 0.15739681 0.14158075 0.21102591
000060 08 2b 3b be d3 a9 0b 3e 93 b9 6a bd 55 7a d3 3c
       -0.18278134 0.13639002 -0.057305884 0.025815168
000070 a8 70 4c 3e 50 ed 93 3c 7f 77 09 3e 2e b9 f0 bd
       0.1996485 0.018057495 0.1342449 -0.1175407
000080 0a ad da 3c 64 b9 a0 3c 57 53 e2 bd c8 d9 a8 3d
       0.02669384 0.019619651 -0.11051052 0.082446635
000090 82 5a 82 bd fa 7d 6f 3e dc a7 26 bd 8e 3b e4 3d
       -0.06364919 0.233879 -0.040687427 0.11144172
0000a0 3f 2a de bb 7e b6 83 3d 47 3d c3 3a 2a ab ca bd
       -0.0067799385 0.06431292 0.0014895581 -0.09895928
0000b0 22 12 68 bd 2b e8 6a 3e 90 f7 ab 3d 22 fd 32 be
       -0.056657918 0.22940128 0.08396828 -0.17479375
0000c0 f1 91 cb bb b8 63 4f 3e cf 90 1b bd 31 01 6d 3c
       -0.006212466 0.20252883 -0.037979897 0.014465616
0000d0 1a 3b fc bd 06 1e 24 be 1f 2d 03 bc 10 1f 06 bd
       -0.1231596 -0.16027078 -0.008006363 -0.032744467
0000e0 2c ce b8 bd 2e 52 c1 3b b4 86 99 bd ad 90 13 3d
       -0.09023699 0.005899689 -0.07496396 0.036026645
0000f0 50 36 c3 bd 99 ec d3 bd 3c 21 02 bd 2f 82 b8 bd
       -0.09531844 -0.10347862 -0.031769976 -0.090092055
000100 4a 56 d5 3d 86 5e 2b 3d 79 26 8c 3d ba 3d 71 bd
       0.10416849 0.04183819 0.068432756 -0.058896758
000110 da 3b c8 bb 6a 61 16 3d d7 a6 34 3d b5 3e 04 be
       -0.0061106505 0.036713995 0.044104423 -0.12914546
000120 fd 47 b5 3c 02 e5 bb bd 78 3d 39 3d 83 8f c8 3d
       0.022129053 -0.09174539 0.045224637 0.09792998
000130 bc 10 81 3d c4 a2 84 3c 89 e1 71 3d 96 24 6c bd
       0.0630202 0.016190894 0.059052978 -0.05765208
000140 6d 05 12 3d 26 48 c2 bd 55 5c d5 bd 60 d8 62 bc
       0.035649706 -0.094864175 -0.104180016 -0.013845533
000150 eb 25 62 bd 60 3c aa bd c5 b7 44 be b3 a8 37 3d
       -0.055211943 -0.08312297 -0.19210728 0.04483862
000160 32 1d 43 bd a7 29 43 3e 5d 47 ba bd 06 42 55 bc
       -0.047635265 0.19058858 -0.09095643 -0.0130162295
000170 dc 0d 37 3e 62 26 56 3c 40 57 78 be f2 bf 05 bd
       0.1787638 0.013070675 -0.24252033 -0.032653756
000180 a4 bd 23 be 82 15 f9 bc 6a b1 38 bd 9a cb 7e be
       -0.15990311 -0.030405764 -0.04509107 -0.24882355

mlp2.2.weight f4 [50, 100]
000000 20 61 a1 bd 9c e7 49 3c 07 a1 81 bd 73 18 a5 3d
       -0.07879853 0.012323286 -0.06329542 0.08061304
000010 24 41 b5 3d cc 8f c5 bd 6b 9d 52 3d 86 ec 94 bd
       0.08850315 -0.09646568 0.051419657 -0.07271676
000020 e0 34 a1 bd 04 9e 8e 3d 5e f6 c9 bd 2d 45 c7 bc
       -0.07871413 0.06963733 -0.09861444 -0.024324978
000030 39 d0 15 bd 50 20 1e 3c 25 6a 59 3d 1e 74 8b bd
       -0.03657553 0.009651259 0.053079743 -0.06809257
000040 b9 e6 4d bd 2e 6f 9f 3d 34 f1 a4 bd 76 dc d4 3b
       -0.050268862 0.07784878 -0.08053818 0.0064960076
000050 55 e4 90 bd 2c ba a5 bd bf 68 c5 3c 66 31 3e 3d
       -0.07074801 -0.0809215 0.024097798 0.04643383
000060 de d4 81 3b c9 77 5b bc 92 f4 04 be dc a0 d2 3d
       0.0039621433 -0.013395258 -0.12983921 0.10284588
000070 74 98 0a 3c 5e 1a cb 3d ac 85 a7 3d 9b aa 21 bd
       0.008459199 0.099171385 0.08179793 -0.039469343
000080 d9 8f 3a bc 17 1f c2 bd f9 b7 8a 3d fc 75 3d 3d
       -0.011386835 -0.09478586 0.06773371 0.046255097
000090 23 2f 47 3d e4 2f 14 3d 49 c2 4e 3d 02 d3 03 3d
       0.048628937 0.036178485 0.050478254 0.032183655
0000a0 70 4f 5f 3d b1 c2 de bd bf cd 0f bc 75 0b ca bd
       0.054519117 -0.10876978 -0.008777081 -0.098654665
0000b0 68 2a 8f bc 67 97 da bd 89 91 ab bc 66 fb a7 3b
       -0.017476276 -0.10673409 -0.02094342 0.0051264046
0000c0 78 73 44 bd 23 0a db 3c 60 12 ca bd b7 87 0f 3c
       -0.047961682 0.026738232 -0.09866786 0.008760384
0000d0 e4 b8 6e bd 8b 72 b5 bd 9e 9d aa bd f3 dd c9 bd
       -0.058281794 -0.08859738 -0.08330844 -0.098567866
0000e0 6f 0e f3 ba 4d 41 b0 3d 3f 4a 6a bd a3 71 2e 3c
       -0.001854373 0.08606205 -0.057199713 0.01064721
0000f0 30 95 a2 bd e5 f9 42 bd 46 75 86 3d ff 24 65 3a
       -0.079386115 -0.0476016 0.06565337 0.00087411696
000100 1f 2d 24 bd 15 d3 f4 3d 80 77 bc bd d0 0a 83 bd
       -0.040082093 0.11954323 -0.0920248 -0.06398547
000110 cb d2 9a 3d 0f cd 55 bd 09 a7 1d 3d 5f c2 2a 3d
       0.07559737 -0.052197512 0.038489375 0.041689273
000120 6f 85 18 bd b7 46 b3 bd bf cb b4 bd c8 9c 5f 3d
       -0.037236627 -0.08753722 -0.08827924 0.054592878
000130 17 4b 93 bc 9d da b7 3d d1 7b 97 3c b5 f3 b3 bc
       -0.017980142 0.08977244 0.018491657 -0.021966795
000140 0b 46 21 3d b8 29 65 bb 50 70 1e bd 41 da 91 bd
       0.03937344 -0.0034967493 -0.03868133 -0.07121707
000150 47 82 96 bd aa eb 3e 3c 9b 36 a3 bc 69 3f 9f bd
       -0.07349067 0.011652866 -0.019923499 -0.077757664
000160 10 70 d3 3d af c8 79 bd 06 08 af 3d dd e2 c8 3d
       0.103241086 -0.060982402 0.08546452 0.09808896
000170 15 3e b3 bb 68 48 96 bb 20 36 6e bc 07 e1 59 3c
       -0.0054700472 -0.004586268 -0.014539272 0.01329828
000180 d8 42 3f bd 3b 78 99 bd 41 76 28 3e 3e a7 18 3e
       -0.046694607 -0.07493635 0.1645136 0.14907548
000190 f4 e9 50 3d c3 b8 00 3b 0c 1d c6 3c a8 14 9e bd
       0.051004365 0.0019641377 0.024183773 -0.077187836
0001a0 c5 eb 13 bd d9 1d ee bc 6e c3 e7 bc 13 98 54 3d
       -0.03611352 -0.029066967 -0.02829143 0.05190284
0001b0 65 47 50 3c 89 6e cc 3a d4 8b 7d bd d6 a6 33 bd
       0.012712334 0.0015596907 -0.06190093 -0.04386028
0001c0 99 50 a3 bd dc 14 a2 bd f1 fd 47 3d ee ee f1 ba
       -0.07974357 -0.07914135 0.04882616 -0.0018458047
0001d0 11 8d a9 bd 0d 7a 0e bd 12 73 a5 3d 58 d3 1e 3d
       -0.082788594 -0.034784365 0.080785885 0.03877577
0001e0 a2 b5 df bd 83 a9 bd bd d1 e1 c7 bc ec e1 ea bd
       -0.109233156 -0.092608474 -0.02439967 -0.114688724
0001f0 50 13 b9 bd 4b db 94 3d 78 d3 8d bc c6 dc 85 3d
       -0.09036887 0.07268389 -0.01731275 0.0653625
000200 af 9d a1 3d 03 19 03 be b4 da 7c 3c d8 04 9c bc
       0.07891404 -0.1280251 0.015433002 -0.019045278
000210 68 1c 4c 3d 7d 85 37 bd 60 9c 81 3d 94 81 a3 3b
       0.049831778 -0.04480504 0.06328654 0.004989812
000220 d5 e3 a4 3d 95 47 8e 3d a0 34 89 bd 8d a3 93 3a
       0.08051268 0.06947247 -0.066994905 0.0011263952
000230 67 47 f4 bd 67 89 3b 3c 3e 98 61 bd 41 72 9f bd
       -0.119276814 0.0114463335 -0.05507683 -0.07785464
000240 72 31 35 3d 3e 64 e1 bc 5c ba 4c bd 91 9c a1 3d
       0.044236608 -0.02751362 -0.049982414 0.07891191
000250 b0 e0 4b bd 29 4b c1 bd 46 59 68 3c eb 82 c2 3d
       -0.049774826 -0.09438164 0.014181441 0.09497627
000260 48 91 af bd 5c 06 73 3d b4 60 70 3d 65 7e 92 3d
       -0.08572632 0.059332237 0.058685973 0.07153014
000270 43 eb 02 bd 07 ae bd 3c 3b e3 ad 3c 36 c9 a3 3d
       -0.031962644 0.023154272 0.021226516 0.07997362
000280 2e 00 92 3d 88 8c 9b bd 22 ff c7 bd 04 42 31 bd
       0.071289405 -0.075951636 -0.097654596 -0.043275848
000290 ba 56 a8 bd d2 3d 0d bd 03 db be bd 31 d9 ed 3c
       -0.08219667 -0.034482785 -0.09319117 0.029034229
0002a0 dc 59 45 bd 06 f2 6e bc b9 4b 2a bd ed 65 97 3d
       -0.0481814 -0.01458407 -0.04157612 0.07392488
0002b0 56 b6 40 bd 33 b3 5c 3c 94 24 55 bd 12 e3 0d bd
       -0.04704889 0.013470459 -0.052036837 -0.03464038
0002c0 67 7a ac bc d5 58 a4 bd f0 00 b8 3c 27 91 25 bd
       -0.02105446 -0.08024756 0.022461385 -0.04042163
0002d0 aa 75 e1 3d 43 6a c8 3d 70 9a e7 bc 31 1c 4b bd
       0.11008771 0.09785893 -0.028271884 -0.049587432
0002e0 c4 2c 84 bd 70 94 ab bb 82 ae fe 3b 93 02 cc 3c
       -0.06453851 -0.005236201 0.007772268 0.024903571
0002f0 42 95 49 3d 16 b6 96 3d c8 fc 80 3d b8 68 99 3d
       0.04921461 0.07358949 0.06298214 0.07490677
000300 29 91 c7 bc cc bf 6c 3d 97 56 b1 bb 28 b0 86 3d
       -0.02436121 0.0578001 -0.0054119336 0.06576568
000310 df bf ba bd 80 fc 86 3d ff 24 3f bc 1e 97 88 bb
       -0.09118628 0.06591129 -0.011666535 -0.004168405
000320 43 d9 a4 3c b2 45 d4 bd 5e f5 b0 bd 38 71 a4 3d
       0.02012313 -0.10364856 -0.0864055 0.08029407
000330 a8 f8 41 3d 76 b9 11 be ca 8a c1 3d 1f 98 75 3d
       0.047356278 -0.14230904 0.094503 0.059959527
000340 d3 11 eb bc 9f 11 36 bd df e6 be bd 70 78 f0 3b
       -0.028695023 -0.0444504 -0.09321379 0.007338576
000350 ce b0 d6 bd 26 49 ae bd 64 1e 2d 3e d4 55 bc 3d
       -0.104829416 -0.08510046 0.16906124 0.09196058
000360 4b 2b a4 bd ed 1c b5 3d 93 d1 81 3d c2 04 1a 3e
       -0.0801607 0.08843408 0.06338801 0.15040877
000370 39 4a 71 bd f2 60 58 3d 2c 6b 16 3d 2a fc cb bb
       -0.058908675 0.05282683 0.0367233 -0.0062251287
000380 4a 51 81 bc d2 1b 1e be b4 7e 13 3d 5f cd 27 3e
       -0.015785832 -0.154403 0.036009505 0.16386937
000390 42 43 1b be 92 99 f0 b9 e8 a6 d8 3d fd 91 de bd
       -0.15162376 -0.00045890786 0.1057871 -0.10867689
0003a0 78 2c 00 3e 59 b7 93 3c c0 f4 29 3d 4a 1c 6b bd
       0.12516963 0.018031763 0.041493177 -0.057400025
0003b0 e6 91 42 bc a2 6e 3e be 14 f3 b0 bd d5 f3 3e bd
       -0.011875605 -0.1859689 -0.086401135 -0.046619255
0003c0 c1 23 6b bd ea b2 bf 3c e3 e7 97 bc fa f2 73 3d
       -0.057407144 0.023400743 -0.01854319 0.059557892
0003d0 42 a9 74 3d b7 82 7a bd 7d d2 a0 bd a9 c3 c0 3d
       0.05973173 -0.061159816 -0.078526475 0.09412319
0003e0 8e 75 ba bb 10 ae 17 3d b9 07 db bc d7 29 de 3b
       -0.005690283 0.037031233 -0.02673708 0.00677989
0003f0 e9 9b 8a bd 8b ed 92 bd 61 63 cd bd 3f a4 cd bd
       -0.06768019 -0.07174214 -0.10028721 -0.10041093

mlp2.2.bias f4 [50]
000000 92 93 b5 3c 89 80 3b 3d 0d d7 d0 3d 20 8e 32 3c
       0.022165094 0.045776878 0.10197268 0.010898143
000010 6e fc 94 3d e6 12 60 be 86 45 2e 3e d6 35 6c bc
       0.0727471 -0.21882209 0.17018709 -0.014417132
000020 8c 6e 4e 3d f8 35 94 3b 5a ea 8f 3d 99 f7 85 3c
       0.050398394 0.004523035 0.07027121 0.016353415
000030 42 c6 cd bd 1f 88 a9 bd a7 df 2b be b9 ab fe bd
       -0.1004758 -0.08277916 -0.16784535 -0.12435097
000040 89 54 3d be cf e2 e4 bc 11 33 b2 bd 94 c4 04 3e
       -0.18489279 -0.027940182 -0.087011464 0.12965614
000050 0f f6 8c be 8e f1 02 3e d1 c8 06 3e 74 77 51 bb
       -0.27531478 0.12787458 0.13162543 -0.0031962069
000060 29 9c 9b 3c 57 5d 3f bd bc f8 44 bd 0e dd 26 3d
       0.018995361 -0.046719875 -0.048088774 0.040738158
000070 ad 5c 83 bc 01 fa 3e be 1c af 49 3e d0 b4 34 3e
       -0.016035402 -0.18650056 0.19695705 0.176471
000080 7a a9 44 be 87 0e d4 bd 4c 80 35 bd 62 56 19 3e
       -0.19205275 -0.10354333 -0.044311807 0.14974359
000090 6c bd 51 bd 5c 56 e8 bb fd 68 53 bd 12 65 c4 3d
       -0.051206037 -0.007090373 -0.051613797 0.0958959
0000a0 cd d9 26 be 47 32 7b bd 03 26 ed bd 11 ef 50 3e
       -0.16294022 -0.061327245 -0.11579516 0.20403697
0000b0 6c ff 24 be 84 a0 3b be d7 cd 10 3e 1b 81 7a 3d
       -0.1611306 -0.1832295 0.14141022 0.06115828
0000c0 a0 fb 22 3e 12 ba 34 be
       0.159163 -0.17649105

attention.0.weight f4 [100, 200]
000000 64 0a 1a bd 45 6b 86 bd aa 97 26 3d 82 8e 5f bd
       -0.037607566 -0.06563429 0.040671982 -0.054579265
000010 f8 07 b1 bc e0 ed 95 bc 17 f4 ae 3c 83 a5 6e bd
       -0.021610245 -0.018301904 0.021356625 -0.058263313
000020 6e 9a 81 bb 51 75 7f bd c6 97 18 3d bb 24 0b 3d
       -0.003955177 -0.06236774 0.037254117 0.033970576
000030 fc 90 0b bd 07 94 1e bd 5a 85 c0 bc 3a 0c 7e 3d
       -0.034073815 -0.03871539 -0.023501087 0.06202338
000040 a0 05 5f bd 43 0d 1a bd 26 55 62 3d dc 85 5b 3d
       -0.054448724 -0.037610304 0.055256985 0.053594455
000050 a9 13 84 bd c6 62 50 3d 7e 9e 5b bd 68 db ed bc
       -0.064490624 0.050875448 -0.053617947 -0.029035285
000060 66 36 5d 3d 62 06 48 bd 1b 02 23 bc 6a f6 88 bc
       0.054006957 -0.048834212 -0.009949232 -0.016719062
000070 aa c2 0d 3c 0b 55 5f bd 4c e9 86 bd 64 95 1f bc
       0.008652369 -0.054524463 -0.065874666 -0.009740207
000080 85 f7 03 bd 2e 20 88 bd 2b 2b 62 bd d2 d4 61 3c
       -0.032218475 -0.06646763 -0.05521695 0.0137836505
000090 bb 26 2e bd 0d 01 0b bb 95 21 35 bc e8 b6 62 bd
       -0.042517405 -0.0021210343 -0.01105537 -0.055350214
0000a0 f4 27 ed 3b 94 49 23 bd e1 b7 7e bc 85 49 bd bc
       0.007237429 -0.03986509 -0.01554677 -0.023106346
0000b0 55 bc b0 bc 35 fa 82 3d 5d 57 5c bd f8 dc 2f 3c
       -0.021574179 0.063953795 -0.053794254 0.010733835
0000c0 e8 5a 4b 3d 7a fb 1e bd c3 c0 76 3d b8 57 0d bc
       0.04964724 -0.038814045 0.060242426 -0.008626871
0000d0 d2 2f 46 bd a6 1b 08 bb 18 b9 a2 3c 2c 32 b5 3c
       -0.04838545 -0.0020768433 0.01986365 0.02211865
0000e0 9a fe 62 bd 1b 08 ee bc fa 80 48 3d 81 50 70 bd
       -0.05541859 -0.0290566 0.048951127 -0.058670525
0000f0 43 7e 65 bd 79 a6 c6 3c 6c 13 8a 3d 2d 14 0c 3d
       -0.056028616 0.024249302 0.06741986 0.03419893
000100 4d 5e c5 bc f5 db 08 3d 32 4a 1c 3d 65 30 18 bd
       -0.024092818 0.033412892 0.038156696 -0.037155528
000110 63 66 6a 3d ce c6 09 3d db 39 61 3d 23 ce 43 bc
       0.05722655 0.03363686 0.054986816 -0.011951002
000120 e9 10 a0 bc 85 43 65 bd ce 14 d3 bc d3 6f 8b 3a
       -0.019539313 -0.055972595 -0.025766756 0.0010638185
000130 2c 8d ff bb 71 ac 78 3d 6c 25 46 3d ba 62 41 3d
       -0.0077988114 0.060711328 0.048375532 0.047213294
000140 1b 79 5b 3c cb 31 be 3c 8f e7 94 3d 1c 0c fe bb
       0.013395573 0.023217103 0.07270729 -0.0077529084
000150 c0 3a 17 3c 98 c8 33 3c 79 e7 51 bd c8 10 60 bd
       0.009230316 0.010973118 -0.05124614 -0.054703504
000160 1f 56 dd 39 13 8c 8b 3b c6 09 13 bd 4f 1a 43 bc
       0.0004221657 0.0042586415 -0.035897993 -0.011908128
000170 d0 ec fd ba 25 bb 22 bd cd 89 36 3d 65 4a 52 3d
       -0.0019372944 -0.039729256 0.04456501 0.05134048
000180 ff e5 86 3c 4f c7 08 bc 7e fb ac bc 9f 45 6b 3d
       0.016467093 -0.0083483 -0.021116015 0.057439443
000190 64 47 6e bd 79 73 64 3d 19 f4 56 3b 38 58 ac 3c
       -0.058173552 0.055774186 0.0032799302 0.02103816
0001a0 24 ce 17 bd 82 b7 c4 3c 42 22 39 3d 4a ae 94 ba
       -0.037061825 0.024013285 0.045198686 -0.0011343446
0001b0 a2 8f 39 bd 27 10 90 bb 58 27 89 3c 5f a7 a0 bc
       -0.045302995 -0.0043964568 0.016742393 -0.019611059
0001c0 a4 98 68 bb 03 49 2c bd 89 b6 22 bc a1 71 ed bc
       -0.0035491372 -0.042061817 -0.009931215 -0.028984847
0001d0 4b 3c 52 bd 55 7c 13 bc c8 3f ab bc b2 c6 7e bd
       -0.05132703 -0.009001811 -0.020904437 -0.06220121
0001e0 e7 e7 1b bb 08 e0 f2 bc ba 56 50 3c 7e 57 a5 3b
       -0.0023789348 -0.029647842 0.01271599 0.0050458303
0001f0 9c 43 47 bc 6a ff 92 3c 04 a6 38 bd 2c fc 00 3d
       -0.012162115 0.017944057 -0.0450802 0.03149049
000200 ed 30 6b 3c 1f 3c 47 bd 89 e4 ae bc 38 4d 5c 3d
       0.0143549265 -0.04864132 -0.021349208 0.05378458
000210 46 c6 8d bc e1 7f 83 bd 73 aa f9 3c 46 a0 3a bc
       -0.017306458 -0.06420875 0.030476784 -0.011390751
000220 e7 14 81 bd 39 fe 96 3d 57 c8 7f 3d 9c 0f a5 bb
       -0.06302815 0.07372708 0.06244692 -0.005037261
000230 23 c0 d6 3b 91 26 2a bd 7e 68 12 3c 63 20 b5 bc
       0.006553666 -0.041540686 0.008936046 -0.02211017
000240 48 fa 1b 3d ac b6 88 3d 70 26 09 3d 82 b7 a3 bc
       0.038080484 0.06675467 0.033483922 -0.019984964
000250 e3 20 03 bd 27 cb 6f 3d 63 4c 3e 3c 46 d3 24 3d
       -0.032013785 0.05854335 0.011614892 0.04024055
000260 9d 25 1f bc 3a 1d 87 bd 61 63 67 3b 37 35 16 bd
       -0.009713558 -0.065973714 0.0035307037 -0.036671843
000270 14 a5 88 bd e9 ef ac 3c bd 06 b2 3a 2f 9a 15 bd
       -0.06672111 0.021110492 0.001358233 -0.036523994
000280 30 1d ed bc ad 4c 07 3c 03 7f 07 3d f3 49 2a bd
       -0.028944582 0.008258027 0.033080112 -0.04157443
000290 8f bc 8f 3c 24 3e bc bc 49 3e 33 3d 12 ce a1 3c
       0.017545966 -0.02297885 0.04376057 0.019751582
0002a0 fb cd 62 bd 94 13 e9 3c 51 6e 87 bd 88 31 1c 3d
       -0.05537222 0.028451718 -0.06612838 0.038133174
0002b0 3f 92 22 3d ea f7 e1 bc 14 6d 18 bd 60 cc 83 3d
       0.039690252 -0.027584035 -0.0372134 0.06435466
0002c0 c9 63 2e 3d d4 70 d5 3c 68 13 28 3c a1 be 59 3d
       0.04257563 0.026054777 0.010258533 0.053160314
0002d0 88 81 95 3c d8 7d 8c bd 0b 05 e6 bc 43 85 26 bd
       0.018250242 -0.0685994 -0.028078577 -0.040654432
0002e0 a9 39 93 3d b9 7b b7 bb a1 f4 0c bd c0 23 60 bd
       0.07188732 -0.0055994657 -0.034412984 -0.054721594
0002f0 b1 ac fe 3c b6 ea c5 bc 1a 64 74 bd d9 47 0e 3c
       0.031088205 -0.02415977 -0.059665777 0.008684122
000300 b7 a1 04 3d 4d 5c e1 3c 49 b6 69 bd d3 e4 5e 3c
       0.032380786 0.027509833 -0.057058606 0.013604361
000310 b8 fa 2e bd 9b 52 4e bd 84 32 44 3d c0 58 42 bd
       -0.042719573 -0.050371747 0.047899738 -0.04744792
000320 a5 4f 0d bd 6b 38 6d bd 1a 9c b9 3c 59 7f 44 bd
       -0.034499783 -0.057915132 0.022657443 -0.04797301
000330 0c fc cc 3b 7e 22 2b 3c 90 dd 36 3d d7 99 33 bc
       0.0062556323 0.010445235 0.044644892 -0.010961971
000340 8d 54 97 3d 7d 4d 67 bd ba cb 09 bd 62 91 2a 3d
       0.07389174 -0.056470383 -0.033641554 0.041642554
000350 2f 73 e6 3a 3a 3f ca 3b de a3 6a bd f6 b3 25 bb
       0.0017581935 0.006172088 -0.057285182 -0.0025284267
000360 e2 6d 94 3d 10 49 01 ba fe 12 28 3d be d7 95 bd
       0.07247521 -0.00049318466 0.041033737 -0.0731654
000370 27 47 a7 bc 1d cc 13 bd 1e b3 38 3d 7c df 9b bd
       -0.02041967 -0.03608333 0.045092694 -0.07610986
000380 d7 c1 54 bd 0c 37 ac 3d f7 b7 44 3c 62 d5 73 3d
       -0.051942673 0.08408937 0.012006751 0.05952967
000390 b5 12 d7 3b 75 16 36 bd 56 1e 1c 3c cc 20 8d bd
       0.0065635093 -0.04445501 0.009528717 -0.06891021
0003a0 09 31 72 bb da 27 56 bd 38 8f 31 3c 4c 10 3f 3c
       -0.0036955497 -0.0522841 0.010837369 0.0116616
0003b0 8a 6e 7d bd c8 2b 98 bc 1e c3 44 bb d4 a7 be 3c
       -0.061872996 -0.018575564 -0.0030023525 0.023273386
0003c0 bb 8e 02 bc 7b dc 43 3d 7f 50 0b 3b db c3 ae 3c
       -0.0079686 0.04781769 0.0021257696 0.021333626
0003d0 7c 72 4a 3d 0e 49 5e 3b 75 59 8c 3d 33 6b 85 3d
       0.049425587 0.0033918056 0.06853 0.06514587
0003e0 b3 01 d5 bc f9 1d 53 bc 20 72 0c 3d c8 a7 86 3c
       -0.026001787 -0.012885564 0.034288526 0.016437426
0003f0 cc a0 39 bd 90 6e 86 bd 87 1b 0c 3d 9f 82 5b bc
       -0.045319363 -0.06564057 0.03420594 -0.013397842

attention.0.bias f4 [100]
000000 f4 33 90 bd d6 ea 50 bd 45 21 c6 3c 78 d9 03 bc
       -0.07041159 -0.051005207 0.024185786 -0.008047454
000010 3e c3 8d 3b 21 92 d2 3c 1c a9 83 bd 9c f5 5c bd
       0.004326253 0.025704445 -0.064287394 -0.05394517
000020 a8 1b 00 3c d9 89 d9 bb 95 9f ec 3c 91 57 ec 3d
       0.007819094 -0.006638747 0.028884688 0.115401395
000030 a6 4d 88 bd bf f1 80 3d ad b3 a5 bd ab 6a c7 3c
       -0.06655435 0.062961094 -0.08090911 0.024342855
000040 61 ee e7 3b 4c b4 8a 3d ed 89 89 bd 90 8e f2 3c
       0.0070779775 0.0677267 -0.067157604 0.029608995
000050 50 f0 97 3d f0 0c 61 bd c1 18 5c bd 2f b8 84 bd
       0.07418883 -0.05494398 -0.053734545 -0.06480443
000060 05 83 e3 3c e5 b2 85 3d fa 49 72 3d 54 6b 52 3a
       0.027772436 0.06528262 0.05915258 0.00080268574
000070 25 88 01 3d c0 1c 14 3c d4 d6 a1 3d 0c 22 ad 3d
       0.03162398 0.009040058 0.07902303 0.084537596
000080 84 b4 76 3d cf 46 4a bd d1 59 61 3d 9c 58 5d 3d
       0.060230747 -0.049383935 0.055017296 0.054039583
000090 7e 6a c0 3c 0e 73 1b 3d 2a 7c 1c bd 39 d6 a0 3c
       0.02348828 0.03795152 -0.03820435 0.0196334
0000a0 ff 1a 31 bd 29 c6 9d 3d 60 19 67 3d 40 22 b7 bc
       -0.043238636 0.07703812 0.056420684 -0.022355199
0000b0 87 e8 3d 3d b4 af 9b 3d c6 59 27 3c c8 fa 46 3d
       0.046364333 0.07601872 0.010214275 0.048579007
0000c0 7d df c8 ba d8 56 39 3d 49 36 8f bd cf 19 1e 3d
       -0.0015325394 0.045248836 -0.06992776 0.03859883
0000d0 c0 7a c1 3a 48 c2 d5 bc 5f 32 6a 3d 20 6a 61 ba
       0.0014761314 -0.026093617 0.057176944 -0.00085988827
0000e0 3f 33 17 3d 65 1a 5f bd ba 64 cc bc 2c bf 3d bd
       0.036914106 -0.05446853 -0.024950374 -0.046324894
0000f0 39 37 58 bc 5e 7a b5 3d 01 0e d4 3c 85 73 55 bd
       -0.01319676 0.0886123 0.025885584 -0.05211212
000100 9b 8c 5c bd eb 2f 88 3d d9 b9 00 3b 47 6c 21 3c
       -0.05384503 0.066497646 0.0019642024 0.0098524755
000110 a7 1d b8 bc 7d 96 45 3d cb 59 9b bc ef c1 ce 3c
       -0.022475077 0.04823922 -0.018963715 0.02523896
000120 cd 93 c6 bc bb e0 a8 3d a2 2c 78 bd 77 d0 51 bd
       -0.024240399 0.08245989 -0.06058944 -0.0512242
000130 16 b7 ba bc b7 b2 89 bd 68 e5 71 3d 22 81 55 bd
       -0.02279238 -0.0672354 0.05905667 -0.052125104
000140 84 f6 d9 bc 2c 45 60 bd 41 77 89 3c bd 05 5f bd
       -0.026606806 -0.054753467 0.016780498 -0.05444883
000150 76 ee 82 3c e5 06 a0 3d 75 86 bf bc db 9a 09 bd
       0.015982848 0.07813815 -0.023379544 -0.033594947
000160 dd 72 f9 bc d6 7f 85 3d 77 9a 04 bd 8a 4b 86 3d
       -0.030450279 0.065185234 -0.03237387 0.06557377
000170 60 63 9a 3d ca f3 12 bd f5 47 56 bd 06 34 13 3d
       0.075384855 -0.035877027 -0.052314717 0.035938285
000180 1a 9c 5c 3d 68 c9 09 3d 1f 14 54 3d 3e db dd bc
       0.053859808 0.03363934 0.051777 -0.027082082
