result/1robot/il_model.pth (torch, 392547 bytes, 20 tensors)

mlp1.0.weight f4 [150, 13]
000000 db 64 0d bd a0 6a 50 3d 35 22 8d 3d e1 16 83 3e
       -0.03452001 0.050882936 0.0689129 0.25603393
000010 c3 d8 2f bc c9 3e da 3d 17 2f 36 be e3 27 63 be
       -0.010732832 0.106565066 -0.17791401 -0.22183184
000020 f7 b3 49 be 52 70 16 3d 53 de 20 3e 09 7a 82 bd
       -0.19697557 0.03672821 0.1570981 -0.063709326
000030 19 7d 81 3e 30 df 3a 3d b3 77 3e bc 59 0a 04 3e
       0.25290754 0.045623004 -0.011625218 0.12894572
000040 d9 e1 16 be 38 58 5a be 8f 77 ee bd f6 93 a6 bd
       -0.14734592 -0.21322715 -0.11643898 -0.0813369
000050 b2 16 39 3e 7e 49 8e be 1b b5 97 3e 59 29 86 3e
       0.18075064 -0.27790445 0.2963036 0.2620342
000060 30 3d ed 3d 34 8e 40 3e 2f 70 30 3e 5b 40 dd bd
       0.11583936 0.18804246 0.17230295 -0.108032905
000070 fe 91 8b 3e c8 dc 59 3e a7 97 85 be 70 4e 05 3e
       0.2725982 0.21275628 -0.26092264 0.13018203
000080 fb 0f fe bb 74 c5 77 bc 6d 80 8a be 1d e5 a0 bd
       -0.00775337 -0.01512276 -0.27051106 -0.078562
000090 f3 a3 3d bd 60 1b c0 bd 87 18 0e be 33 47 29 be
       -0.046298932 -0.09380221 -0.13876544 -0.16531067
0000a0 6a 9d 1a 3d 96 3f 99 3d 9c 70 16 3e 43 5e 5c 3e
       0.037747778 0.07482831 0.14691395 0.21520333
0000b0 9b 11 a6 bd 99 7a a0 3d 47 c9 3b 3d 73 15 3a 3e
       -0.08108827 0.07835884 0.04584625 0.18172245
0000c0 8a 72 6d 3e 26 51 1d 3e a0 40 0c 3e 18 36 57 3d
       0.23188224 0.15362987 0.13696527 0.052541822
0000d0 42 d0 24 3c 1b fc 0d 3e 52 3f a3 3d 5c 10 13 3e
       0.010059418 0.13865702 0.07971062 0.1436171
0000e0 dc e3 aa bb 8e 0a ba be ec b1 97 3b 42 43 42 3e
       -0.0052151512 -0.36336178 0.0046293642 0.1897097
0000f0 20 0f 68 be 8e a8 e5 bd a2 6c 0f be 41 12 69 3e
       -0.2266202 -0.1121379 -0.14006284 0.2276087
000100 93 9d cd bd 0b 14 57 be c7 6f 5e 3e 44 95 1d 3c
       -0.100398205 -0.2100374 0.21722327 0.009618107
000110 3b 1a a9 bd 2a 33 c6 bd f5 0a fb 3a 28 4a 42 3e
       -0.08256956 -0.096777275 0.0019153046 0.18973601
000120 01 0d 41 3e a6 e1 05 be 69 a9 48 bc 06 3a 57 3c
       0.18852617 -0.1307436 -0.012247422 0.013136392
000130 c4 59 48 3e 7c 95 e2 bc ed 54 53 bd 04 7e ab 3d
       0.19565493 -0.02765917 -0.051594663 0.08373645
000140 db ea ad 3d d6 9b 49 bd a8 b5 10 bd 28 e0 53 be
       0.08492061 -0.049220882 -0.03532949 -0.20690978
000150 c4 71 74 3e f6 6f 87 3e 16 02 3c be 1f 79 84 bd
       0.23871523 0.26452607 -0.1836017 -0.064684145
000160 57 02 85 be 08 4a c6 bd 34 e1 84 3d d6 fe 44 3c
       -0.25978348 -0.09682089 0.064882666 0.012023648
000170 b1 36 a7 3d f1 40 3f 3e 00 35 0d be 50 e0 0b 3e
       0.081647284 0.18677117 -0.13789749 0.13659787
000180 6a 0f 7d be 5d 0e 71 3e e7 a9 d6 3d 73 5f b9 bd
       -0.24712911 0.23540635 0.10481625 -0.090514086
000190 cd 0e 26 3e 4f 6a 16 3d a9 4d 5b 3d 91 95 87 be
       0.16216584 0.036722478 0.05354086 -0.26481298
0001a0 63 9a 1e 3c ff 71 85 be 1f d9 14 be 13 2c 4f bb
       0.009680363 -0.26063535 -0.1453595 -0.0031611964
0001b0 19 eb 37 be cc 48 53 be fe 0a fc 3d 11 50 3e 3e
       -0.17960776 -0.20633239 0.12306784 0.1858523
0001c0 5d 95 6a bc 69 d4 51 be 9d e8 5a 3d 75 00 3a be
       -0.014317838 -0.20491184 0.053444494 -0.18164237
0001d0 6d a6 8c 3e 43 c9 5f bd 3b e0 37 be d5 f2 88 3e
       0.27470723 -0.054635298 -0.17956631 0.26747766
0001e0 b9 3c 4c bd e1 9f 18 be 38 c7 be bd 90 9e 16 bd
       -0.049862597 -0.14904739 -0.09315342 -0.03677231
0001f0 03 27 aa bd 56 99 ac bc 6d df 09 3e a1 09 cb 3d
       -0.08308222 -0.02106921 0.13464136 0.09913946
000200 a7 6a 86 bd 39 a3 b4 bd 25 b4 54 be ae 6b 8e 3d
       -0.06563311 -0.08820195 -0.20771845 0.06954132
000210 6b 19 ce bc e2 b0 60 3e cc 1b 9d 3e 25 eb 2a 3d
       -0.025158605 0.21942475 0.3068527 0.041728158
000220 46 10 21 be 02 c4 87 3e ce 77 42 3e 40 6d ca 3e
       -0.15728864 0.2651673 0.18991014 0.39536476
000230 fa 56 b1 3d ca 05 02 3e 68 b5 6d 3e cf ec 21 be
       0.086591676 0.12697521 0.23213732 -0.15812992
000240 cc 7b ba 3d 23 e5 15 be 47 41 51 3c 46 15 0e 3e
       0.09105644 -0.1463819 0.012771911 0.13875303
000250 42 20 60 3e 5a 45 3a be 38 27 87 3d 9b 4c 92 bd
       0.21887305 -0.18190518 0.06599277 -0.071435176
000260 b7 28 0a be 10 0b 8e 3e 58 05 7f 3e ac f1 33 3d
       -0.13492094 0.27742815 0.24904382 0.043931648
000270 77 33 7e be a0 10 1d 3d 01 30 4b bd 22 16 16 3e
       -0.2482432 0.038345933 -0.049606327 0.1465688
000280 7f 3c 12 be 32 ea 2f bc 26 a7 0f be 6c bd 84 3e
       -0.1428089 -0.010736989 -0.14028606 0.25925767
000290 9b d3 68 bc 05 b5 86 be b9 30 de 3d af ba 4b be
       -0.014210607 -0.26309982 0.10849137 -0.19895433
0002a0 51 bb 08 be 3b e2 82 be 3e 5e 4d be 76 42 08 3c
       -0.13352706 -0.25563225 -0.20055482 0.008316627
0002b0 c8 e9 72 be 28 2a 01 be c4 01 28 be c6 9c 3c be
       -0.23721993 -0.12613738 -0.16406924 -0.1841918
0002c0 17 3d 53 3e 6d b6 8a 3e 58 44 dd bd b5 76 0f ba
       0.20628773 0.27092305 -0.10804051 -0.0005472706
0002d0 7f ca 21 3e f1 c0 f2 bd f3 19 fa bd 42 80 9e 3d
       0.15799902 -0.11853207 -0.12211981 0.07739307
0002e0 f1 c7 da 3c f0 42 32 3e 99 55 8a be f7 1b 54 bd
       0.026706668 0.17408347 -0.2701843 -0.05178448
0002f0 99 9f 8f bd 5d 88 f2 bb cf 39 39 bd 39 8a bd 3d
       -0.07012863 -0.0074015097 -0.045221146 0.092548795
000300 d6 e4 5d bc 1f e3 4e 3e 80 52 42 be c9 26 68 3d
       -0.013543328 0.20203827 -0.18976784 0.056677613
000310 59 e2 37 be a9 25 d9 3d 5a 82 46 3e 86 2d 98 be
       -0.17957439 0.10602886 0.19385663 -0.29722232
000320 32 6f 82 be 08 3a 2b 3e 28 55 6d 3d 59 f6 80 3e
       -0.2547546 0.16721356 0.05794254 0.25187948
000330 06 ee b1 3e 82 0e 28 bd d7 7f 81 bd d6 e5 2c be
       0.3475191 -0.04102946 -0.06323212 -0.1688455
000340 a0 b7 5b be 86 d7 74 3e 46 b2 5a 3d cf 9f c7 3c
       -0.21456766 0.2391034 0.05339267 0.024368195
000350 b9 ef 7a 3e f7 62 44 be 83 35 d8 3b 0a e5 55 3d
       0.2450551 -0.19178377 0.006598176 0.05222038
000360 72 1d 87 bd 58 04 a6 3c 02 d9 1e be 4a 1f 85 3e
       -0.06597413 0.020265743 -0.1551247 0.26000434
000370 87 b4 d4 bd 7d 84 c2 3d 74 91 35 3e 18 bc 7a 3e
       -0.10385995 0.094979264 0.17731267 0.24485815
000380 35 2d 76 bd 0d 3c f5 3d 96 f2 b9 bd 7c 0f 90 3d
       -0.060101707 0.119743444 -0.09079473 0.070342034
000390 5d 83 16 3e 68 9f bb 3e b8 09 6c 3e 25 f5 57 be
       0.14698549 0.36645055 0.23050582 -0.21089609
0003a0 ab af fc bd 2a e4 7c 3d 77 63 3f 3e 73 d5 f6 bd
       -0.123381935 0.06174103 0.18690287 -0.12052431
0003b0 4b a3 9c 3d 39 7c 3b be ac 79 f9 bd 6f d4 15 3e
       0.07648333 -0.18309106 -0.1218141 0.14631818
0003c0 2c 35 a5 be e3 46 6e be 86 9a 1c 3d bd 41 e8 3d
       -0.3226713 -0.23269229 0.038233303 0.113406636
0003d0 34 a0 b9 bb 33 aa ff bd cd e0 7e 3e 01 0c 93 3c
       -0.0056648497 -0.12483635 0.24890442 0.01795006
0003e0 ea 8a 3a 3e fc 50 35 be 38 fb 80 3e 92 8b 37 be
       0.18217054 -0.17706674 0.25191665 -0.17924336
0003f0 a3 a5 d1 bd df 24 1b be 10 6a 11 3e 43 88 35 3e
       -0.10236671 -0.15150784 0.14200616 0.17727761

mlp1.0.bias f4 [150]
000000 3c 7f 2c be 49 4c 92 bc 05 cf 61 be b0 70 87 be
       -0.16845411 -0.017858641 -0.22051628 -0.2645316
000010 c5 25 1b 3e 5c 03 27 be 16 27 8c 3e 8a 26 f8 3d
       0.15151127 -0.16309875 0.2737357 0.12116726
000020 00 e3 7f 3e 5d f8 00 be 3a 17 66 3e b8 dc 32 bd
       0.24988937 -0.12594743 0.22469798 -0.043667525
000030 d5 26 4e bd 83 96 46 3d 83 45 5c 3d b5 22 e2 bc
       -0.05033 0.048483383 0.05377723 -0.02760444
000040 c2 b3 c0 bd 78 59 ec 3d 8b a6 ce bd ea 32 cb bd
       -0.09409286 0.11540502 -0.10090359 -0.099218205
000050 9f 57 4f 3e 2d 38 ec bd da 59 20 be 84 49 04 be
       0.20248269 -0.11534152 -0.15659276 -0.12918669
000060 db 2a 85 3e 8f b6 16 3e a5 38 12 be d0 55 bb 3d
       0.2600926 0.14718078 -0.1427942 0.09147227
000070 d5 28 e5 3d 66 96 9c be 82 8d 83 3e 46 8c 94 bd
       0.11189429 -0.30583495 0.256939 -0.072533175
000080 77 5a 20 be bb 94 7c bb 5d 27 b8 3d fd f9 81 3e
       -0.1565951 -0.0038540799 0.08991883 0.25386038
000090 22 b8 82 bd 00 71 8a 3e e6 b9 7a be 80 d7 58 bd
       -0.06382777 0.27039337 -0.24484977 -0.05293989
0000a0 76 1d 5b 3e 2d be cb bc a9 28 09 be 18 13 6d 3c
       0.21397957 -0.024870956 -0.13394417 0.014469884
0000b0 6d 1d 84 bd 6e 3e 42 3e de 5b 57 be 77 e1 84 3d
       -0.06450925 0.18969128 -0.21031138 0.064883165
0000c0 dd e8 32 be e9 4b 30 3e a3 75 6a 3e f8 79 82 3e
       -0.17471643 0.17216457 0.22896437 0.2548368
0000d0 3c 50 8d be d2 99 5a be d0 0f cc 3d f4 98 56 bd
       -0.27600276 -0.2134774 0.099639535 -0.05239196
0000e0 37 f3 24 be f0 bd cb 3d 51 e0 2b be d6 4e c9 bc
       -0.16108404 0.09948337 -0.16784789 -0.024573725
0000f0 72 5d 23 3e 37 9f ea 3d b5 0f 78 3e cf f4 ba bd
       0.15953615 0.11456149 0.24224742 -0.09128725
000100 e5 f6 59 3d 12 5e 6b bd d2 30 78 be 8e 9d 4c 3e
       0.053213973 -0.05746276 -0.24237373 0.19981977
000110 23 7e 64 be 44 79 09 3e 23 a5 12 3e 2d 4b 22 bd
       -0.22313742 0.13425165 0.14320807 -0.039622474
000120 b0 99 5c be 4c 36 0d be 6c a3 24 be b1 08 b9 3d
       -0.21543002 -0.13790244 -0.16077965 0.09034861
000130 1e 14 70 3e f9 0a ef 3d 0a 67 6c be 01 3e f3 3d
       0.23445174 0.11672015 -0.23086181 0.11877061
000140 7e c2 6e 3e 89 7e 02 bd d8 f7 9b 3d cf 3c 87 3d
       0.2331638 -0.031858955 0.07615632 0.06603395
000150 fb 06 4f 3e 9d 26 37 3e 24 87 f7 3c ae d9 10 3e
       0.20217507 0.17885824 0.030215807 0.14145538
000160 f9 38 26 be 25 fc 85 bd 09 de 42 3d a7 82 be bd
       -0.16232671 -0.065422334 0.04757503 -0.09302264
000170 ef 3c 91 3e 05 48 7f be 65 1d 4e 3d 16 4b 95 3e
       0.283668 -0.24929817 0.050321 0.2915885
000180 15 27 6a 3e 04 aa 51 3d 34 19 b3 3d ae 9e 8d be
       0.22866471 0.05118753 0.087450415 -0.27660125
000190 95 28 49 be ff 03 dc bd 24 cd 60 3e f9 ab 74 3d
       -0.19644387 -0.1074295 0.21953255 0.05973432
0001a0 f0 77 85 3e 06 d5 1b be b5 d6 59 be d8 78 9a be
       0.26068068 -0.1521798 -0.2127331 -0.3017032
0001b0 54 ad 5a be 04 15 1c 3e 77 be 89 3e ee 93 d1 bd
       -0.21355182 0.15242392 0.26903126 -0.102332935
0001c0 9b 20 90 be 40 67 33 be 6d 95 3f be 81 62 cc bd
       -0.28149876 -0.17519855 -0.18709345 -0.09979726
0001d0 e5 69 89 be 41 41 28 be 33 2c 16 be 44 59 99 3e
       -0.26838604 -0.16431142 -0.14665298 0.29950917
0001e0 2a 70 63 bd bd 8f 13 be fd 21 f5 bd 7e f1 5d 3e
       -0.05552689 -0.144103 -0.119693734 0.21674153
0001f0 a8 3e 13 be f1 b7 66 bc 60 46 1f 3d dc e9 11 be
       -0.1437937 -0.014081941 0.038885474 -0.14249367
000200 4c 90 4e bb a8 64 8b be c6 0e 2f 3d 0f 43 d3 3d
       -0.0031519113 -0.27225232 0.0427387 0.10315525
000210 33 ec 6d 3e 25 79 d4 bd 7b 9c 3f be 5f 6f 7c be
       0.23234634 -0.10374669 -0.18712036 -0.2465186
000220 88 d4 1f be 8f f5 a1 3d ec 57 43 bd 14 bd 89 be
       -0.15608418 0.07908165 -0.04769127 -0.26902068
000230 1f 7a 8a be 35 78 e2 bd 89 94 86 3d 65 11 14 3e
       -0.27046296 -0.11058084 0.065712996 0.1445976
000240 07 b4 97 3d 21 6f 03 3e a4 a0 7d 3e c6 fb 4c 3d
       0.07407384 0.12835361 0.24768311 0.050044797
000250 88 84 78 3d 1f e9 33 be
       0.060673267 -0.17569397

mlp1.2.weight f4 [100, 150]
000000 b9 b0 53 3d 19 71 89 3d e8 07 26 3d f1 14 30 bd
       0.051682208 0.06711025 0.040534884 -0.04298872
000010 5e 45 14 3c 02 51 6d bd a2 ef d5 bc 4a f4 89 3b
       0.009049742 -0.057938583 -0.026115242 0.0042100297
000020 85 ae fa 3c d5 4e c2 bc 9b 39 87 3d ff 89 8a 3d
       0.030600796 -0.02371923 0.06602784 0.06764602
000030 f6 b9 8e 3d 3c 90 2d 3d df 58 a2 bd 02 c5 9b 3d
       0.06969063 0.04237388 -0.07927107 0.07605936
000040 31 2d 91 3d d6 81 1a bd 04 3b 84 bd 56 3d 3f bd
       0.07088698 -0.037721477 -0.06456569 -0.046689354
000050 86 83 2f bd 68 8b 5f 3d 04 86 22 3d f6 91 b3 3c
       -0.04285004 0.054576308 0.03967859 0.021920186
000060 d5 b4 ce bb f8 ea 1b 3d 7d 5c 85 3d c4 dc d8 3c
       -0.006308178 0.03806588 0.06511781 0.026472457
000070 f9 f1 49 3d 62 7a ba bd 38 d4 92 bd 80 79 1c bd
       0.04930303 -0.09105374 -0.07169384 -0.03820181
000080 a5 17 b2 3c d6 ee 81 3d 57 f3 89 bc 40 93 84 bd
       0.02173979 0.063443825 -0.016839666 -0.06473398
000090 bf d2 f7 bc 0d 86 19 3d b8 51 29 3d 8a e4 5a 3d
       -0.030251859 0.037481356 0.0413377 0.053440608
0000a0 89 9f 72 bd 47 53 45 bd 50 b4 c1 3a a2 c6 84 bd
       -0.059234176 -0.048175123 0.0014778469 -0.06483199
0000b0 1a a0 83 3d 8d 91 45 3b 2b a3 c3 3c e6 bf 8b bd
       0.06427021 0.003014657 0.023881515 -0.06823711
0000c0 78 b6 02 bd c0 7f b6 3b d1 4d af bb 29 60 45 3d
       -0.031912297 0.005569428 -0.0053498526 0.04818741
0000d0 63 aa bc ba 3e f7 bc bc 61 5e 0d bd a3 7c f7 bc
       -0.0014394041 -0.023067113 -0.034513835 -0.030210799
0000e0 e7 08 94 3d a5 a2 6a 3d fd a8 92 3d 83 d5 39 3d
       0.072282605 0.057284016 0.07161138 0.045369636
0000f0 e0 01 cc bb 10 16 ce bc be 8d 2c 3d 4b 7b 06 bd
       -0.0062258095 -0.025157005 0.042127363 -0.032832425
000100 b9 02 6b 3d ae a8 3b bd b8 41 17 bd 04 6a 4e 3d
       0.057375643 -0.045815162 -0.03692791 0.050394073
000110 7d 14 62 3d 50 3d a6 bd 90 ac 1a 3d fa 7c 91 bd
       0.05519532 -0.08117163 0.037762225 -0.071039155
000120 9f 1b 13 3d 89 e9 42 bd 69 9f 91 bd ac d8 87 bd
       0.035915013 -0.047585998 -0.07110483 -0.06633124
000130 f0 bc 83 bd 9a b3 dd bc f1 b9 41 bc 1e 2c 2a bd
       -0.06432521 -0.02706318 -0.011824117 -0.04154598
000140 f3 99 49 3c 56 03 2e bc 59 16 9e 3c ae d5 ab 3c
       0.012304771 -0.010620913 0.019297766 0.020975914
000150 d7 c6 80 3d a5 08 94 bc 27 f8 ba bc cd bd 96 bd
       0.06287926 -0.018070528 -0.022823406 -0.073604204
000160 cb 4f 80 3d 34 24 bd bd e7 bf bf bd c9 ab 04 3c
       0.06265219 -0.09235421 -0.09362774 0.008097597
000170 2d 2f 2e 3d 91 cf 8a 3d 69 18 3b 3c 5a 26 8d bd
       0.04252546 0.067778714 0.011419394 -0.068920806
000180 4c 95 c4 bc 5e d2 82 bd a8 69 d8 3c d5 07 ee bc
       -0.023996972 -0.063877806 0.026417568 -0.029056469
000190 09 55 8c bd 72 d3 20 bd b2 01 50 bc 68 cb 1a bb
       -0.06852157 -0.03926415 -0.012695717 -0.0023619775
0001a0 3a 01 b0 bb 8e 21 34 bd ea e5 a3 bd e0 4b 37 3d
       -0.00537124 -0.043977313 -0.08002837 0.044750094
0001b0 7f 81 5d 3d 20 ba 98 3c 6e d3 f1 bb ca 6f 28 3d
       0.054078575 0.018643439 -0.0073799407 0.041122235
0001c0 ad d7 59 bd ea c7 1a 3d 06 f6 ee 3b f1 2a 8d b9
       -0.0531842 0.03778831 0.007292512 -0.0002692561
0001d0 72 ab 25 bd f7 b6 95 bd cf 3b 04 3b 90 40 61 bd
       -0.040446706 -0.073102884 0.002017725 -0.054993212
0001e0 15 96 70 bc 6e 99 44 bc e5 1d 83 3d 89 72 99 bd
       -0.01468422 -0.011999471 0.06402186 -0.07492549
0001f0 76 f6 30 3d 46 1d 9b bd 18 fe 17 3d 4f 55 42 bc
       0.043203793 -0.07573943 0.037107557 -0.0118611595
000200 56 59 53 bc de 9d 92 3d 8c a0 e8 3c ac 46 5b 3c
       -0.012899717 0.07159017 0.028396867 0.013383549
000210 04 ac 4d bd ce 6e e5 3c 7b 60 9c bb a0 55 5c bd
       -0.050212875 0.028006937 -0.0047722436 -0.053792596
000220 4c 0a 80 bd 43 f3 81 bd 64 37 12 bd 13 98 47 3c
       -0.06251964 -0.063452266 -0.035697356 0.012182253
000230 f6 a4 37 3d ad 8a bb 3c ae 51 f9 3c 69 88 0a 3d
       0.044835053 0.022893274 0.030434456 0.033821497
000240 39 1c 81 3d e7 fa b1 3c a5 b1 97 bd 30 5b 83 b9
       0.06304211 0.021726085 -0.0740693 -0.00025054207
000250 e1 13 a1 3d 58 1f 2e bb e2 34 f8 bb 78 e4 84 3d
       0.0786512 -0.0026568975 -0.0075746635 0.064888895
000260 79 58 08 bd 29 94 27 3c d2 ab b2 3c ae 6b 02 bc
       -0.0332875 0.010228195 0.021810446 -0.007960243
000270 46 70 8a 3b 75 be 7e bd 7f d0 55 3d 59 7d 84 3d
       0.00422481 -0.062193353 0.05220079 0.06469221
000280 9b 5d 9d bd 4f bb 2e 3d dc 09 ad bc 64 2f 79 3d
       -0.076838695 0.0426591 -0.021122865 0.06083621
000290 24 dc 7b 3d 8c b4 d2 bb d6 a9 23 bd f1 7b a3 bd
       0.06148924 -0.0064302143 -0.03995689 -0.07982624
0002a0 51 29 79 bd 34 6c 56 3d 84 a8 12 3d 17 06 8a bd
       -0.060830418 0.052349284 0.03580524 -0.06739443
0002b0 43 0d 3c bd d1 59 3c bd fa 69 7b bb 8b 06 92 3d
       -0.045911085 -0.045984093 -0.0038362728 0.07130154
0002c0 2c b5 52 bd cc c8 32 bd 9b d6 67 3d 34 e4 b5 bc
       -0.05144231 -0.043648526 0.056601148 -0.022203542
0002d0 3c 6c 94 3d d6 5b 82 3c eb 1a 80 bd 18 fc b4 bc
       0.072472066 0.015912931 -0.06255134 -0.022092864
0002e0 9d 5d 8f 3b e9 79 95 bd 5f 97 9a 3d 70 82 95 3c
       0.0043751732 -0.07298643 0.07548403 0.018250674
0002f0 84 4f 88 bd f2 68 84 3d b2 49 b8 bc 6e e7 a1 bd
       -0.066557914 0.06465329 -0.022496078 -0.0790547
000300 5e 26 2c 3d a3 bd 2b 3d c8 75 e3 bb 43 34 3f bd
       0.042028777 0.0419289 -0.006941531 -0.0466807
000310 a8 5c 68 bc f1 fb 62 3d 3d 97 fd 3c 70 5a 4b 3c
       -0.014182247 0.05541605 0.030955905 0.012411699
000320 2f ea 4a bd 50 cc 26 bd fa 40 d1 3c 17 94 9b bd
       -0.04953974 -0.04072219 0.025543679 -0.07596605
000330 16 92 8f bd dc f2 ab bc ed 1a 9b 3d 72 fe ac 3c
       -0.070102856 -0.020989828 0.07573495 0.021117423
000340 e1 2f 8a bd 64 76 1e bd 3b 35 aa 3c 5d f0 75 bc
       -0.067474134 -0.038687125 0.020777335 -0.01501092
000350 1f c2 56 bd bd 3d 0e 3d c0 ab 54 bd a4 fe 67 bd
       -0.052431222 0.034726847 -0.051921606 -0.05663933
000360 8a 5c 9d bd 4b ac e6 bc d8 55 be 3c f3 9f a0 3d
       -0.07683666 -0.028158328 0.023234293 0.07843008
000370 be 13 9b bd ed f1 c7 bc a0 32 7e bd 37 f7 a6 3c
       -0.07572125 -0.024407351 -0.06206 0.020381553
000380 d1 5e 9f b8 e0 86 81 bd 4c ca e3 ba ed da 01 3d
       -7.599372e-05 -0.063245535 -0.0017379015 0.031702925
000390 a9 d7 8f bd 52 7b c2 3c cf 2e 26 bd 9b 18 d0 bb
       -0.07023556 0.023740444 -0.040571984 -0.0063505895
0003a0 43 0c 1a 3d ea a2 49 bc 44 ab a2 3d 51 77 b7 3c
       0.03760935 -0.012306908 0.079428226 0.022395762
0003b0 66 72 d7 3c 42 03 0c bd a1 a5 3a bd ee 6b 5d bd
       0.026299667 -0.034182794 -0.045568112 -0.054058008
0003c0 f0 30 c0 bb 95 19 94 bd 33 60 b0 bc 67 9c 83 bd
       -0.005865209 -0.07231442 -0.021530246 -0.06426316
0003d0 fc c2 b3 3c d1 42 ad ba a1 75 ad bc ec 12 ec 3b
       0.021943562 -0.0013218765 -0.021174254 0.007204404
0003e0 e0 ab 64 bb ac 14 00 3d 57 b6 87 3b 05 97 99 bc
       -0.0034892485 0.031269714 0.0041416097 -0.01874877
0003f0 b3 59 51 bd ea ba 2c bd 7f d2 5a bd dd ed 76 bd
       -0.051110934 -0.042170443 -0.0534234 -0.060285438

mlp1.2.bias f4 [100]
000000 97 8a 88 bd ef 6b f2 ba 8b 5a d1 3d 07 91 0e 3c
       -0.06667059 -0.0018495301 0.10222348 0.008701569
000010 10 ff 06 bc 58 79 6a 3a e0 4a 24 3d 08 d2 04 bd
       -0.008239523 0.0008944473 0.04011047 -0.032426864
000020 36 c0 3e bd e1 42 8f bd f4 87 39 bd a6 71 b9 3c
       -0.046570025 -0.06995178 -0.04529567 0.0226372
000030 b0 cb 9b 3a a0 6f a2 3d 4a 80 b7 bc 6c c9 9c 3c
       0.0011886265 0.07931447 -0.02240004 0.019139014
000040 e1 b9 58 bd 29 39 9c 3c 85 68 1a 3d ed a2 5f bd
       -0.052911643 0.019070225 0.037697334 -0.054598738
000050 4b 92 8d bd 6e 2b 81 3d 85 32 89 3d bf 5e d8 3c
       -0.06912669 0.06307112 0.06699089 0.026412366
000060 26 0c df 3c 2a 49 74 3d 0b b8 64 3d cc 4c 48 bd
       0.027227473 0.059640087 0.05583958 -0.048901364
000070 30 c4 a5 bd c4 c7 76 3d 08 af 99 bd cd ad 5f 3d
       -0.080940604 0.060249105 -0.07504088 0.05460911
000080 81 d3 74 3d 6c 0a 67 3d b9 9b 63 bd 2c cd 96 3d
       0.05977202 0.056406423 -0.05556843 0.07363352
000090 16 57 ea 3c e5 17 59 3b e3 cf 91 3c 5d 3c 3c 3c
       0.028605979 0.0033125815 0.017799323 0.011489001
0000a0 bd 96 a6 3c 63 df b0 3c 33 6a 86 bd 86 e9 89 3d
       0.02033555 0.021590894 -0.06563225 0.06733994
0000b0 42 eb 2d 3c 7e 0d e4 bc 79 0b 1f bd d9 1a 32 bd
       0.010615172 -0.027838465 -0.0388293 -0.043482635
0000c0 c9 72 39 bd 03 80 d3 3d 40 51 b8 3d a8 2d 14 bd
       -0.045275483 0.10327151 0.08999872 -0.036176354
0000d0 c2 ad b9 bc aa 85 b8 3d 71 26 93 bd 6e 50 84 3d
       -0.022665862 0.090098694 -0.071850665 0.06460653
0000e0 a1 05 93 ba dd c4 d1 bc 66 7a 2a 3d 59 0d 84 3d
       -0.0011216888 -0.025606567 0.041620634 0.06447858
0000f0 d7 95 67 3c b0 d4 30 3d 52 2b 85 3c 28 b9 06 3d
       0.014134846 0.043171585 0.016256008 0.032891423
000100 79 c2 49 3d 04 88 af bd 2a 3f 30 bd 0d a7 97 3d
       0.04925773 -0.08570865 -0.043028988 0.07404909
000110 14 98 df 3b 3f 56 db 3c 99 fe d4 bc ce db cc 3c
       0.006823549 0.026774524 -0.026000308 0.025007155
000120 81 d5 d3 3d e8 f7 3c bd 06 52 b1 bd ac b3 97 bd
       0.10343457 -0.04613486 -0.08658223 -0.074073166
000130 11 3c 9d 3c 3f 63 03 bd 99 62 04 3d 72 15 86 3d
       0.019193681 -0.03207707 0.032320593 0.06547059
000140 a1 a4 9e 3d 24 ff 1a bd 87 6c d1 3d cc 04 8b bc
       0.07746244 -0.037840977 0.10225778 -0.01697006
000150 c6 73 59 3d 48 6b 46 3d c0 58 81 3d 1e 6a 2c 3d
       0.053088926 0.048442155 0.06315756 0.04209339
000160 b6 bf 5a 3d fd 76 d0 bd a5 08 80 bd 76 26 9e bd
       0.053405486 -0.10178945 -0.06251649 -0.077221796
000170 0e 72 c8 3d ad 0e 51 3d d2 fa 05 be 2c 6d d4 bc
       0.09787379 0.051039387 -0.13083962 -0.025930963
000180 28 72 4f 3d 07 97 db 3c 9b f1 8c bd 14 86 ad 3d
       0.050645977 0.026805414 -0.0688202 0.08472839

mlp2.0.weight f4 [100, 100]
000000 38 f7 48 bd 7a 39 b3 3d 65 a0 a1 bc 7e 00 1e bd
       -0.04906389 0.08751197 -0.019729802 -0.038574688
000010 0b 30 13 3d 0f 9c 0d bd 72 15 0d bd 49 2f a4 bc
       0.03593449 -0.034572657 -0.03444428 -0.020042079
000020 58 27 6b 3c 32 3e 10 bd 86 8f 9e bc 67 fc 97 bc
       0.014352642 -0.035215564 -0.019355547 -0.018552972
000030 e0 08 6d bd 62 94 c0 bd a2 28 09 3c 6e f9 7b bd
       -0.057869792 -0.09403302 0.008371504 -0.06151717
000040 b1 ac 4a 3d b5 e8 b9 3d 94 3c 05 bc 5c 0e cb 3b
       0.049481098 0.090775885 -0.008132119 0.00619678
000050 56 46 56 3c 67 8d 66 3c b6 5f ac 3d f4 d3 ad 3d
       0.013078293 0.014071799 0.08416693 0.084876925
000060 5d 24 f7 3c 09 27 b1 3d 03 5d e8 bd a1 4d b5 3d
       0.030168707 0.086500235 -0.113458656 0.08852697
000070 fd d5 8c 3d cf 47 01 bd 0e 6a 08 bd f6 ad 87 3d
       0.068767525 -0.031562623 -0.033304267 0.06624977
000080 fc ed 51 3d 48 ba 0d bc bc ce 67 bc 5f b0 5f bd
       0.05125235 -0.00865037 -0.01414841 -0.05461156
000090 f6 2d fc bc 41 80 cf 3d 90 e5 85 3d ba 9a bf bd
       -0.030783635 0.10131884 0.06537926 -0.093556836
0000a0 83 0f bb 3c ae c9 69 3d 1c 5e ae 3d d4 5b e6 3c
       0.022834545 0.057077102 0.08514044 0.028119959
0000b0 02 38 5d 3d ee 5d b6 bd 62 71 8e bd a7 0f da 3d
       0.05400849 -0.089046344 -0.0695522 0.10647517
0000c0 ca 42 52 3b 0b a1 17 bd 96 8d 17 3d 2b a3 7c bd
       0.0032083266 -0.037018817 0.03700026 -0.061679047
0000d0 fa 57 96 3d 4a d9 cf 3c 0f 9b a1 3d 2e 62 a2 bb
       0.07340999 0.025372166 0.07890903 -0.0049555516
0000e0 a7 c5 be bc a2 0b 3a bd f0 ed 98 bc b3 48 bf bd
       -0.023287607 -0.04542125 -0.018668145 -0.09340038
0000f0 d3 6f 7f 3d b7 87 d2 3d fa d0 c5 3d 7c 43 8c bd
       0.062362503 0.10279792 0.09659 -0.06848809
000100 e6 3d c2 bc 35 73 91 bc 33 2e 5d 3d fa d9 b8 3d
       -0.023711156 -0.01775513 0.053999137 0.09025951
000110 bd c8 9f 3d 9f 83 a6 3d db 23 8e bc 20 2a 41 bd
       0.0780196 0.081305735 -0.017351082 -0.047159314
000120 a1 3a c3 3d 1a 9f 9c bc f8 4d 4a 3d 71 b0 ae 3d
       0.09532667 -0.019118834 0.049390763 0.08529747
000130 d5 24 d5 3c 8f 8a be 3d 07 fb 90 3d 75 75 84 3d
       0.02601854 0.09303772 0.0707913 0.06467716
000140 7b bd 98 bc ed 92 36 bd 84 6b 36 3d 0c 7e bb bd
       -0.018645039 -0.044573713 0.04453613 -0.09154901
000150 03 f0 a1 bd 24 7f 85 3d fd 11 b9 3d 50 ba 23 3d
       -0.07907107 0.06518391 0.09036634 0.039972603
000160 7c 91 cb bd d4 d7 34 3d 51 6b af bd 85 7e 93 3b
       -0.09939858 0.044151142 -0.08565391 0.0045011663
000170 af f4 b0 bd 91 8c af 3c 60 ec 2b bd 56 fa 1a 3d
       -0.0864042 0.021429332 -0.04197347 0.037836395
000180 45 6d bb 3d e0 bb 9b 3d b3 fa a5 bd 2e 41 c0 3c
       0.09151701 0.07604194 -0.08104458 0.02346858
000190 8a 38 51 3d 4e 6f 1b bd c6 0c 9d 3d 39 ee b1 3c
       0.05107931 -0.037947945 0.07668452 0.021720039
0001a0 50 69 a4 3d e1 f8 a7 bd 56 e0 96 bc 3b 20 2a bc
       0.08027899 -0.08201767 -0.018417519 -0.010383661
0001b0 9d 8d 42 3d 73 60 bd bd ab c6 01 bd 37 7a 40 3d
       0.047498334 -0.09246912 -0.031683605 0.046991553
0001c0 6c 97 85 bd f9 9e 9a bc 6e ba ea 3c af 03 87 bd
       -0.06523022 -0.018874632 0.02865335 -0.065924995
0001d0 43 08 a4 bd 37 4f 1f bd cc b6 69 bd 86 31 ab bd
       -0.08009388 -0.038893905 -0.057059094 -0.08359055
0001e0 6c ad b3 3b e6 e7 29 3d 81 19 a4 3c df 2c e8 bc
       0.00548332 0.04148092 0.020031692 -0.028341709
0001f0 79 e4 82 bc 1d 06 94 3d af 95 e0 bd dd fe 68 3d
       -0.015978085 0.072277285 -0.1096605 0.05688368
000200 86 66 53 bd 17 54 86 bc 4a 98 4b 3d 03 83 23 3d
       -0.051611446 -0.016397519 0.04970578 0.039919864
000210 43 6d 68 bd f1 97 6f 3d 4e cf 13 be 64 7f af 3d
       -0.056744825 0.058494512 -0.14434549 0.0856922
000220 5b 41 4e 3d b7 cd 76 bd 7c 32 ee 3c 4f 44 67 bd
       0.050355297 -0.06025478 0.029076807 -0.05646163
000230 dc fa 36 bd 30 56 8c 3d d5 82 c6 bd 5a 6d bd bc
       -0.044672832 0.068523765 -0.09692923 -0.023123432
000240 e7 08 05 3d d2 78 54 bd ee 85 04 bc f8 ca e6 bb
       0.032479193 -0.051873036 -0.008088572 -0.0070432387
000250 64 fb 87 3d c3 62 2e bd fa ec 17 3d bb 6f bf 3c
       0.06639746 -0.042574655 0.037091233 0.023368707
000260 d3 0f 3e 3d 05 ce dc 3c 56 21 32 bb 2c 18 97 bd
       0.04640181 0.026953707 -0.0027180514 -0.07377657
000270 7a c2 4e 3d 00 39 5b 3c 6a af c9 3d d0 a6 04 bd
       0.050478436 0.013380289 0.09847911 -0.032385647
000280 32 5e 86 3d 0c 45 a9 3d 1f 58 d8 3d eb 0b ad bd
       0.06560935 0.08265123 0.10563683 -0.08449539
000290 36 73 75 bd 3b 3d 24 3d 27 a0 a5 bd 00 24 e0 bc
       -0.059924327 0.040097456 -0.08087187 -0.027360916
0002a0 82 4b 9b bd ea 88 09 be 42 e4 a4 3d ec 3b 0d 3d
       -0.07582761 -0.13431135 0.08051349 0.034480974
0002b0 0f c8 51 3d bb c6 cc bc fd 08 88 bd b2 7f f2 3d
       0.05121618 -0.024997106 -0.066423394 0.11840762
0002c0 50 89 a7 3d c4 9c e6 3c 4c 8f 66 bb 9a 23 74 bc
       0.08180487 0.028150924 -0.0035180626 -0.014901066
0002d0 e0 f9 e1 bd cb 89 c7 bd d6 52 04 bc b2 44 10 be
       -0.11033988 -0.09743079 -0.00807639 -0.14088705
0002e0 cc 94 ba bd 81 be 28 3d af d6 ac bd 47 17 c2 3d
       -0.09110412 0.041197304 -0.08439385 0.09477096
0002f0 00 57 c3 bc 48 f7 3c bd 43 58 6a 3d 85 8a 0b 3e
       -0.023845196 -0.046134263 0.05721308 0.1362706
000300 1a dd 9e bd 95 de 87 bc 4a b5 bb 3d a6 6c 42 3c
       -0.077570155 -0.016585628 0.091654375 0.011866724
000310 6b 9b f0 3d 0f c1 a7 bd e0 9e 0a 3c 9a 0d 08 bd
       0.117483936 -0.0819112 0.00846073 -0.033216096
000320 bf 6c 0e bd ca 86 c3 bc 58 a7 c1 3d bc df 45 bd
       -0.034771677 -0.023867983 0.094557464 -0.048309073
000330 2e 19 8e bc 7a b4 b1 bd 0b 93 a3 3d 1f 61 96 3d
       -0.017345991 -0.08677001 0.079870306 0.07342743
000340 77 5e 3a 3d 26 1f 3a ba 9b b5 12 3d 8f 6c 50 bd
       0.045500245 -0.00070999784 0.035817724 -0.05088478
000350 da 70 90 bd 21 5f 8f bc 5c fc 1e bd 8f 59 ae bb
       -0.07052775 -0.017501416 -0.038814887 -0.005320735
000360 3f 31 c3 bd e3 a2 bf bd 48 c1 d3 bd 4a f3 82 3c
       -0.09530877 -0.0935724 -0.103396 0.01598515
000370 f7 3c 1f bd 7c 73 42 bd cc a9 9e 3d 05 34 7c bd
       -0.0388765 -0.047473416 0.0774723 -0.061573047
000380 81 a5 f3 bc ab d9 4c 3d 6c 61 22 bd 67 30 9f bd
       -0.029742004 0.05001227 -0.03964369 -0.07772904
000390 dc d6 20 bc 6b a4 91 bd c3 9e 6e bd a3 7a 9d 3d
       -0.0098168515 -0.07111438 -0.058256876 0.07689407
0003a0 c8 a3 95 3d 25 bb 21 bd 46 4e ea 3c 9e 26 ce 3b
       0.073066294 -0.039485116 0.028601777 0.0062912246
0003b0 d5 bd 10 bd bb 28 b4 3d 2a 8a 88 3c 05 5c 3e bd
       -0.035337288 0.08796831 0.016667444 -0.046474475
0003c0 b9 c1 0c 3c b4 99 88 3a 03 25 d9 3c b5 c8 c8 3d
       0.008591109 0.0010421784 0.026506906 0.09803907
0003d0 c8 1e e8 3b 29 7d ea 3d 65 ec 60 3d 23 48 c1 3d
       0.0070837475 0.11449654 0.054912943 0.09437587
0003e0 ae 78 84 3b 79 d6 a0 3d ff e9 9d bd d8 d3 92 3d
       0.0040427065 0.078534074 -0.07710647 0.07169312
0003f0 cd b1 f7 bc 82 d0 73 bb 90 29 4e bd 0a d1 be 3d
       -0.03023615 -0.0037203138 -0.050332606 0.09317215

mlp2.0.bias f4 [100]
000000 a1 2a 2e bd 85 7e 21 bc a5 e6 e2 bc 72 25 82 3d
       -0.042521123 -0.009856825 -0.02769787 0.063547984
000010 0d 35 7f bd 55 0d 35 bd 22 78 a1 3d 24 64 2b 3d
       -0.062306453 -0.044202168 0.07884242 0.04184355
000020 6d 47 68 bd c5 a8 0e bd 02 4e 23 3e 8f 88 65 3d
       -0.056708742 -0.03482892 0.15947726 0.056038436
000030 96 24 8e bc 1b 11 78 bd 57 55 08 3d 0e 4f 64 3d
       -0.01735143 -0.060563188 0.03328451 0.055739455
000040 54 00 bb bd de c2 ef bc 5a 05 0b bd 85 41 65 bd
       -0.09130922 -0.029267725 -0.03394065 -0.055970687
000050 63 2a 4c 3c 53 62 d7 3d 9f 27 bf bd 6e 2a 3f bd
       0.012461278 0.10516801 -0.09333729 -0.046671323
000060 44 17 4b bd 74 4c f8 3d 0e c3 77 3b 88 e4 ce 3d
       -0.049582735 0.12123957 0.003780547 0.101021826
000070 dd e4 82 3c ed 65 86 bd 95 d5 1e 3d a9 59 16 bc
       0.015978271 -0.065624095 0.038777906 -0.00917665
000080 a6 b8 09 bd f3 85 0d 3e 79 e9 af bc fc 0d 85 3c
       -0.03362336 0.13820629 -0.021473633 0.01624202
000090 3a bc b1 bd f3 5f 60 bc c4 00 29 bc 84 ea 91 3d
       -0.086784795 -0.013694751 -0.010315124 0.071248084
0000a0 14 df 96 3c b8 8a d6 3d 72 e0 84 3c 13 72 45 3d
       0.018416919 0.10475677 0.016220305 0.048204493
0000b0 20 37 c3 bd 99 15 b3 bd f6 be d1 bd 15 a4 4b bd
       -0.09531999 -0.08744354 -0.10241501 -0.049717028
0000c0 6f 58 2f 3d 03 84 19 bd ae c0 51 bd 67 be b6 3c
       0.042808946 -0.03747941 -0.051209144 0.022307588
0000d0 94 83 0c bc 8a 19 9f bc f9 25 8e bd d9 2c a5 3d
       -0.008576293 -0.019421358 -0.069408365 0.08065195
0000e0 b4 b1 88 bd e6 3c dd 3c 44 29 54 3b 0a 45 7e bd
       -0.06674519 0.027006578 0.003237323 -0.06207756
0000f0 a8 53 9d 3d 67 f3 ea bb 90 d3 9b bc e2 e3 8f 3d
       0.07681972 -0.007170129 -0.01902178 0.07025887
000100 5d a9 5b 3d 2e 07 00 3e 26 0b 46 3d 2b 7f 9f bd
       0.053628314 0.12502739 0.048350476 -0.07787927
000110 74 01 a8 3d 11 e6 b2 3b f7 08 cd bb 0d 2d c6 bd
       0.08203402 0.005459555 -0.006257172 -0.096765615
000120 64 fd 43 bc 66 5e 12 bd 70 cc 9e bc b5 47 b2 3c
       -0.0119622685 -0.035734557 -0.019384593 0.021762708
000130 a5 d2 a6 bb df b0 bb bd 6d f8 b1 3b 03 81 06 3c
       -0.0050910288 -0.09164595 0.005431226 0.00820947
000140 d3 ab d6 bc e5 29 ce bb d0 ef 70 3d 1d 27 41 bc
       -0.026204979 -0.0062916153 0.058822453 -0.0117891105
000150 8c 72 6b 3d cf fc d7 3c aa ed 60 bc a2 69 38 bd
       0.057482287 0.026365666 -0.0137285385 -0.045022614
000160 dd a1 0f bc e8 16 8a 3d 05 1e 2c 3d 4e 08 4c bd
       -0.008766619 0.0674265 0.042020816 -0.049812607
000170 d7 b5 b7 3c 12 71 20 3d e2 1d 5c bd d7 e5 a6 bd
       0.022425575 0.039170332 -0.053739436 -0.08149307
000180 06 2a 6f 3d 49 c1 72 3d ef 12 e0 3d dd f7 1a 3c
       0.058389686 0.059266362 0.10941111 0.009458509

mlp2.2.weight f4 [50, 100]
000000 10 80 bf bd 49 05 27 bd 60 1d 2c 3d 07 63 15 bd
       -0.09350598 -0.040776525 0.0420202 -0.036471393
000010 e9 ba a0 3d b9 38 4a bd 1a 0f 99 bd c8 cb 3c 3d
       0.0784815 -0.0493705 -0.074735835 0.04609278
000020 98 66 b2 3d 0d ea 55 bd 6c 4f fb 3d 50 5e d8 bd
       0.087109745 -0.05222516 0.12271008 -0.10564864
000030 19 7f 09 3d 6e b8 65 bd 40 47 bd 3c 2c 2b d6 3d
       0.033568475 -0.05608409 0.023105264 0.10457453
000040 88 d6 9c bd 38 8b 19 3d 69 15 1b bd f6 01 84 bd
       -0.07658106 0.037486285 -0.037862215 -0.064456865
000050 d8 45 99 38 a3 aa 20 bc 93 c7 77 bd 3b 91 8f 3b
       7.308618e-05 -0.009806308 -0.060493063 0.0043813265
000060 7e d7 69 bc c6 68 10 3d ef 0b 6d 3d 42 a6 95 3d
       -0.014272569 0.03525617 0.05787271 0.07307102
000070 67 7a c9 bd 90 70 bf bd 28 3b d1 ba 75 b4 5e 3c
       -0.098377995 -0.093476415 -0.0015963065 0.013592829
000080 b2 bb b7 3d 4d 47 10 3d f1 b5 4d 3d 7a 91 e9 3d
       0.08971347 0.035224248 0.05022234 0.114047006
000090 7e 84 da 3c 26 e5 4b bc cb 15 2b bd 2b 46 d6 bd
       0.026674505 -0.01244477 -0.04176883 -0.10462602
0000a0 24 e7 a6 bd ae 4c ef bc fa 46 b3 3d 0e 2d f9 bc
       -0.08149555 -0.029211368 0.08753772 -0.030416992
0000b0 60 a5 eb bc 79 3f a1 3d 45 ec c4 bd 4a a6 13 bd
       -0.02876538 0.078734346 -0.09615377 -0.036047257
0000c0 88 5c 13 bd 5d d9 c4 bd b9 2d c8 bd 1e 2a 3b bb
       -0.035976917 -0.09611771 -0.09774346 -0.002855904
0000d0 af b2 00 bd 79 e3 6c bd 6f d2 93 3d 05 96 72 bd
       -0.031420406 -0.057834122 0.072178714 -0.0592251
0000e0 47 a3 ea bb 8d d7 88 bd 5a 72 38 bd 08 3c 98 bd
       -0.0071605775 -0.06681738 -0.04503093 -0.07433325
0000f0 ff a4 41 3b c0 99 2e bd 54 4d 25 bd f6 1a 80 3d
       0.0029547808 -0.042627096 -0.04035695 0.062551424
000100 e2 da 0e 3d db d2 a0 3d c0 91 d9 bd 21 72 9d 3d
       0.03487671 0.078527175 -0.10623503 0.07687784
000110 8f e1 9c 3d 59 9d 50 3d 3d b7 35 3d 4c 1c 41 3d
       0.076602094 0.05093131 0.044364203 0.047146127
000120 5f e2 4d 3c 9f 3e 9b 3d 8a b6 ce bc e0 dd 1e 3d
       0.012566178 0.075803034 -0.025233526 0.038785815
000130 ed c4 c8 3d 27 b9 02 bd 5d fa 44 bd 5c 4a c1 bd
       0.098031856 -0.031914856 -0.048090328 -0.09438011
000140 6a 9b 27 bd 52 37 08 bd 96 ed 5f 3d 21 ca 85 3d
       -0.0409197 -0.033255883 0.05466994 0.06532694
000150 6e 92 8a 3d ef 33 36 3d d4 82 32 bc 88 d6 96 3d
       0.067662105 0.04448312 -0.01089545 0.07365137
000160 89 78 eb 3d 07 c1 23 bd c0 2d 0b 3d 60 b5 50 3c
       0.114976 -0.039979007 0.033979177 0.012738556
000170 b1 c5 d5 bc 60 39 b8 3d b8 88 ce bc f0 2a d6 3d
       -0.026095243 0.089953184 -0.025211677 0.104574084
000180 83 64 90 3b 60 f7 b0 bd 9e 2c 8c 3d 27 f5 9c 3d
       0.004406513 -0.08640933 0.068444476 0.076639466
000190 b3 6e a3 3d 40 58 c6 bd 4c a8 af 3d aa b6 00 3e
       0.079800986 -0.09684801 0.08577022 0.12569681
0001a0 fe d0 3e bd 60 6d d4 bd ab 04 af 3d b6 56 80 bd
       -0.04658603 -0.10372424 0.08545812 -0.06266539
0001b0 4b 4e f6 3c 2b 41 cb 3b f5 f5 2b 3e e7 b0 0d be
       0.03006663 0.006202837 0.16793044 -0.13837014
0001c0 8e f3 fb 3c d7 70 19 bd 8a e8 1e 3d 34 22 f4 bc
       0.030755784 -0.037461128 0.038795985 -0.029801466
0001d0 38 0e 09 be 2a 17 82 bd 91 6f 68 3d 12 25 4c 3c
       -0.1338433 -0.063520744 0.056747023 0.01246001
0001e0 90 d4 b8 3d b3 fd 2d bc 7f a9 d5 3c c2 a7 f6 bb
       0.09024918 -0.010619569 0.026081799 -0.0075273225
0001f0 82 45 5f bd 67 bc ff 3b b0 e2 51 3d 89 c3 1b bd
       -0.054509647 0.0078044417 0.051241577 -0.038028274
000200 eb 9d 9c bd 77 66 f4 bd ca 75 8c 3d 74 eb ab 3d
       -0.07647308 -0.11933606 0.06858404 0.083945185
000210 0a c1 bd bc a3 ac 4d 3c b2 2f 53 3d ca 6b 9d 3d
       -0.023163337 0.012553367 0.051559158 0.07686575
000220 6c b1 4f bd 03 af 37 bd cb 07 71 3d 51 d6 cf 3c
       -0.050706312 -0.04484464 0.058845323 0.025370749
000230 6a 36 e7 bc fd b9 26 3c 1e 47 f2 bb d6 0b b8 3a
       -0.028224189 0.010176179 -0.0073937317 0.0014041613
000240 33 63 b6 ba d8 de 14 3a b0 38 d3 bc 57 f1 cf bc
       -0.0013915062 0.0005678958 -0.025783867 -0.025383634
000250 6e 76 bc 3d af e7 ea bc 82 cf 83 bd d1 74 c1 3d
       0.09202276 -0.028674928 -0.06436063 0.09446109
000260 d7 43 b3 bd 5d b5 68 bd 04 ae d7 bc e3 a7 ec 3d
       -0.08753174 -0.056813587 -0.026328094 0.11555459
000270 b0 6a be 3d 56 e8 fd 3c b0 d4 82 3c c2 2b 05 3d
       0.09297693 0.030994575 0.015970558 0.032512434
000280 2b e4 1e 3d 7d f1 9a 3c a1 a9 74 3d cd a7 90 bd
       0.038791817 0.018913979 0.059732083 -0.070632555
000290 28 19 74 3d ec 0e 72 3d d1 7b 06 bd 1a cd 01 3d
       0.059594303 0.05909626 -0.032832924 0.03168974
0002a0 a7 e6 9b 3d 8a 4b aa bd d5 75 c8 bc bd 77 a4 3b
       0.07612353 -0.08315189 -0.02447025 0.0050191567
0002b0 07 7a 81 3d c1 cc cd bd c0 b8 3c bd a6 43 b5 3d
       0.06322103 -0.10048819 -0.04607463 0.088507935
0002c0 dc 7b 8c bd ff 80 c8 3d 2d 05 87 bd cb 70 25 bd
       -0.06859562 0.09790229 -0.06592784 -0.04039077
0002d0 aa 23 67 3d 18 b2 1d bd b5 84 6c 3d fa a3 80 bd
       0.056430496 -0.03849992 0.057743747 -0.06281276
0002e0 60 b2 3c bd 54 6c 9a bd 8f 6d 09 3d 4a d1 b4 bd
       -0.04606855 -0.07540193 0.03355175 -0.08828981
0002f0 a4 79 28 3b 02 2a a5 3d f1 4f ff 3c 88 ca 8f bd
       0.002570727 0.08064653 0.031166049 -0.07021052
000300 f5 63 52 3d 9b 67 d0 bd 51 d1 25 bd 94 92 7b 3d
       0.051364858 -0.10176011 -0.040482823 0.061419085
000310 92 c0 0b bd 23 3a b5 bd fd 54 a9 bd 91 d3 7e bc
       -0.034119196 -0.08848979 -0.08268163 -0.015553371
000320 7e 12 10 bd ad 62 e5 bd 31 cb d2 3d 29 99 c4 3d
       -0.035173886 -0.112004615 0.10292662 0.095995255
000330 d9 b3 0a 3d a6 fb 88 bc b8 b9 59 3a 44 7e 8a bc
       0.033862922 -0.016721558 0.00083055673 -0.016905911
000340 19 c2 e9 3d 3d 31 8e bd b3 92 cc bc 59 b7 96 bc
       0.11413974 -0.06942985 -0.024972295 -0.018397974
000350 33 3d d1 3d 8b e0 49 3d 63 10 29 3a 84 34 5d bd
       0.10216751 0.049286406 0.000644928 -0.05400516
000360 d8 b3 c1 bd 73 14 ea 3c 17 2b c1 3d 19 e4 8b bd
       -0.094581306 0.028574204 0.09432047 -0.068306156
000370 14 f1 f1 3c af 7a 55 3d 2d 5c bc 3d 9b f7 d2 3d
       0.0295339 0.052118953 0.09197269 0.10301133
000380 3e ff 9a bc 7f 33 a2 bc 75 af 70 bb 1c e9 84 bd
       -0.018920537 -0.019799946 -0.0036725674 -0.064897746
000390 f3 62 97 bd e9 81 e4 3b b5 3e 17 bd ce 85 19 3d
       -0.0739192 0.0069734943 -0.036925036 0.03748112
0003a0 e4 37 98 bc fa 48 2c bd f2 ea c7 3d 51 64 21 3c
       -0.018581338 -0.042061783 0.09761609 0.009850577
0003b0 80 fd 1e 3d a6 46 99 3d de bc a9 3c 1d be 7d bd
       0.038815975 0.07484178 0.020719942 -0.061948884
0003c0 29 b2 ca bd 4c 25 79 bd 2a 70 bb 3d c6 85 92 3b
       -0.098972626 -0.060826585 0.09152253 0.0044715134
0003d0 9a 35 ad 3b a5 43 9a 3d 87 cb a5 bd 2c 50 7a bc
       0.005285931 0.075324334 -0.080954604 -0.0152779035
0003e0 b6 03 00 bd e6 6c bf 3d 52 66 68 3d 5a 90 ec bc
       -0.03125354 0.093469426 0.056738205 -0.028877426
0003f0 54 cb e1 bc 2a 15 ff 3c 99 b9 34 3c ee 4b df bc
       -0.027562775 0.031138021 0.011030578 -0.027257886

mlp2.2.bias f4 [50]
000000 b7 82 4a bd 5c 59 1a bd 60 cf 7d bd 60 38 7e bd
       -0.049441066 -0.037682876 -0.061965346 -0.062065482
000010 9a fd 0d bb 76 55 c9 ba 2a b0 d9 39 5c 52 ca bc
       -0.002166605 -0.0015360552 0.00041520718 -0.024697475
000020 3b 9b d4 3c 47 17 23 3d 78 b7 98 bc 67 b1 6f 3d
       0.025952926 0.03981712 -0.018642172 0.058518793
000030 34 07 13 bd 39 91 08 be 17 cf 2b 3c 85 38 5a bd
       -0.03589554 -0.13336648 0.010486386 -0.053276557
000040 3f f2 0d 3d 4f db 5e bc 35 56 39 bd f9 7d fb bc
       0.034654852 -0.013602092 -0.04524823 -0.030699717
000050 93 4a 12 3c 01 d5 a9 bd 80 7c ea 3c 0a aa a9 3c
       0.008928913 -0.082925804 0.02862382 0.020710964
000060 8f 29 c0 3d 96 72 9d 3d 67 a6 7d 3a 7e 34 aa bc
       0.09382927 0.07687871 0.000967598 -0.020776983
000070 c9 45 80 3c d5 8b ea bd 64 6c f9 3c 82 62 86 3c
       0.015658276 -0.11452452 0.030447192 0.016404394
000080 11 ed 90 3d 55 9d e0 3d 23 f0 f2 3c 2f fc 57 3c
       0.07076467 0.10967509 0.029655522 0.013182684
000090 18 b1 86 3d c9 83 96 3c 75 53 e9 bc 6f be f5 bd
       0.06576747 0.018373387 -0.028482178 -0.11999213
0000a0 e2 b4 b2 3c 84 bf 09 3a 8f fc c8 bd 47 6e 89 3c
       0.021814767 0.00052546733 -0.09813797 0.016776217
0000b0 43 61 b3 3c 27 21 a2 3d ff 3f 00 bd 4e 83 2d 3d
       0.021896964 0.079164796 -0.03131103 0.04236155
0000c0 f9 c7 87 3d d8 93 cc bd
       0.06629939 -0.099891365

attention.0.weight f4 [100, 200]
000000 8f 31 ec bc d3 c0 a0 bc 4b 52 43 bd e3 d1 34 bd
       -0.028832225 -0.019623196 -0.047685903 -0.044145476
000010 05 5c 2a 3d 93 bf 40 3d 05 ae d0 bb 35 0e 8c 3a
       0.041591663 0.0470577 -0.006368401 0.0010685386
000020 82 37 24 3d a3 50 6e bd f5 c1 3d 3d e0 5e 7f 3d
       0.040092 -0.05818237 0.04632755 0.06234634
000030 c1 a2 11 bd 2e 16 80 3c 1a 74 60 bc d3 bb 5a 3d
       -0.035555605 0.015635576 -0.013699556 0.05340178
000040 7e 9f 9b 3c e4 63 5c bc 78 46 b7 bc 64 78 5d 3d
       0.01899695 -0.01345155 -0.02237247 0.05406989
000050 b4 98 54 bd 9f a4 4c 3d 84 de 6c bd 88 2d 6b 3d
       -0.05190344 0.049961682 -0.057829395 0.05741647
000060 c3 24 99 bc 29 62 32 3d e6 1e 33 bd 9c c2 ee 3c
       -0.018694287 0.043550644 -0.04373064 0.029145531
000070 b4 38 46 bd 2d 1d 08 3d 18 39 87 3c 4b db dd bb
       -0.04839392 0.03323095 0.016506717 -0.0067705265
000080 d2 24 a8 3c 66 b3 cb bc d0 b8 8a 3d f2 da c1 3a
       0.02052537 -0.024865817 0.067735314 0.0014789982
000090 7c ef 74 bd 2a 19 71 bd 99 06 2a bc 95 6a 59 bd
       -0.059798703 -0.05886189 -0.01037755 -0.05308016
0000a0 5f 9a 09 3d 78 2c 3a bd f3 d7 79 bd ec 2f 0d 3d
       0.033594485 -0.045452565 -0.06099696 0.03446953
0000b0 c0 85 a1 3c e9 98 2c 3d 37 76 4f 3d 58 f6 8b bb
       0.019717097 0.042138014 0.050649848 -0.00427131
0000c0 aa 06 9c 3c d3 eb c4 bc c2 e0 49 3d c1 73 0d bd
       0.019046146 -0.024038231 0.04928661 -0.03453422
0000d0 4c 95 8f bc f9 bc 8a 3d ad e2 ea 3c de cf 80 bd
       -0.017527245 0.06774325 0.02867254 -0.062896475
0000e0 2d 2b 8a bd 12 5e ab 3c 9e 54 77 3d 99 d2 80 3d
       -0.067465164 0.02091888 0.06038343 0.06290168
0000f0 fe b7 92 bc ec d3 27 bd f4 99 79 3d 9b c5 49 3d
       -0.01791 -0.04097359 0.060937837 0.049260717
000100 95 d3 7c bc e3 1c 65 bd 8d 48 74 bd 5d 4b 4b 3d
       -0.015431304 -0.05593575 -0.059639502 0.04963242
000110 d6 93 4d bd 7d e0 24 3d 7d 00 dc 3b 6e 4f 15 3d
       -0.050189815 0.04025315 0.0067139254 0.036452703
000120 33 6d 2d bd 56 a3 80 3d c6 dc 0e bd 6e fd 28 3d
       -0.04234047 0.06281154 -0.034878515 0.041257314
000130 24 e2 56 3c 4c b9 54 bb 78 9c 48 bd f3 2c 47 bd
       0.01311544 -0.0032459078 -0.048977345 -0.04862685
000140 e5 7d c4 bc af 87 df bc c4 59 63 bd 17 6c c6 bb
       -0.023985812 -0.027286379 -0.05550553 -0.006055366
000150 66 c8 0d bd 25 94 8d bd 3f 7f 57 bd 2f ef 8b 3b
       -0.034614943 -0.06913022 -0.052611586 0.0042704563
000160 cb db 7e 3c 7b f6 bf 3c 3c 0b a6 bc a0 75 cb 3b
       0.015555332 0.02343296 -0.020269029 0.0062090904
000170 f4 89 50 3d 8b 76 52 3d 6c 22 62 bc 44 9e 79 3c
       0.050912812 0.051382583 -0.013802152 0.015235487
000180 3c 8a 89 3d 76 34 14 bd 12 55 9e bb 68 b2 ad 3b
       0.06715819 -0.036182843 -0.0048319185 0.0053008087
000190 04 d0 b7 3c bf 3c be 3c a9 e5 86 bd 1f de 59 bc
       0.022438057 0.023222325 -0.06586773 -0.013297587
0001a0 85 ae 27 bd cb 55 3c 3d bd cf 38 3d e4 06 31 3d
       -0.04093792 0.045980256 0.04511999 0.043219462
0001b0 a2 54 ab 3c b9 0f 47 bd 71 53 a3 ba a0 a4 8a bd
       0.02091438 -0.04859898 -0.001246078 -0.06769681
0001c0 99 7a 56 3d b8 f0 2e 3c 7b 0e 10 bd 68 a0 9a 3b
       0.052363012 0.010677509 -0.03517006 0.004718829
0001d0 3b bf f3 3a 98 d5 1b 3c f2 3b b0 3c 47 72 8e 3b
       0.001859642 0.009511374 0.02151296 0.004347119
0001e0 8d 31 85 3d 40 e3 ce bb e6 d8 50 3d a5 ef 57 bc
       0.06503592 -0.0063137114 0.0509881 -0.013179694
0001f0 59 6b cb 3c fc 3b 08 3c 07 00 3d bd 02 ac d9 3c
       0.02483146 0.008315083 -0.046142604 0.026571278
000200 15 a2 a1 3c 2d d0 f8 ba 9e 7b 8c bd 90 86 9e bc
       0.019730607 -0.001898294 -0.068595156 -0.019351274
000210 e9 c7 10 bb ac 02 5b 3d 16 71 26 3d 18 88 72 bd
       -0.0022091812 0.053469345 0.04063519 -0.05921182
000220 a4 10 87 bc 6b 18 5a 3d 6b 23 56 3d 99 8d 10 bd
       -0.016487427 0.053245943 0.05227987 -0.035291288
000230 ee 89 4e bd f1 de 2d bd 7b 75 82 3d af 98 66 3d
       -0.05042451 -0.04244894 0.06370064 0.056297954
000240 8d 05 fe bc eb fa 75 3d 44 b2 88 3d a2 69 d7 bb
       -0.031008506 0.060053747 0.066746265 -0.0065738717
000250 08 61 d7 3c c1 5f 7f 3d a8 c3 86 bb 00 ed 14 bc
       0.026291385 0.062347177 -0.0041126795 -0.009089708
000260 49 a5 60 bc 43 b7 f6 3c b9 d7 96 39 f8 d3 64 3d
       -0.013711282 0.030116683 0.00028770955 0.05586621
000270 9a 5d 8a bc f9 b4 46 3d 2e fa 06 bd 13 c5 0a 3d
       -0.016890336 0.048512433 -0.032953434 0.03387935
000280 2b a5 d1 3b 62 1a 28 bd 81 38 08 3d 89 d4 f0 bc
       0.0063978634 -0.041040786 0.03325701 -0.02939822
000290 21 ab 8b bd be 17 87 bd 63 ca dd bc 5c 05 5d 3d
       -0.068197496 -0.06596325 -0.027074045 0.05396019
0002a0 a7 91 33 3a b3 b3 5e 3d c3 c3 44 bd 2e 8e 06 bd
       0.0006850012 0.054370593 -0.048038255 -0.032850437
0002b0 e6 d3 d9 3c aa 41 48 3c 6b e0 8f 3b 55 7a 4a 3d
       0.026590299 0.012222687 0.0043907664 0.04943307
0002c0 7e 1c a9 bc b9 35 78 3d 2f 53 09 3d 83 9c 37 bd
       -0.020643469 0.06059811 0.033526596 -0.044826996
0002d0 a6 82 5f bd 95 46 27 3d c9 b3 62 bc 76 8d 30 3d
       -0.054567955 0.040838797 -0.013836809 0.043103658
0002e0 e3 19 76 bd 9d d9 68 3b 9d 08 4e 3d bf 81 26 bd
       -0.06008328 0.0035530098 0.050301183 -0.04065108
0002f0 c1 c0 58 bd d8 4c f1 bc 5a 40 84 bd 4e 12 1e 3d
       -0.0529182 -0.029455587 -0.064575866 0.038591675
000300 34 94 45 3d d4 47 33 3d 30 31 6c bd fe 8a 1f 3d
       0.04823704 0.043769673 -0.057664096 0.038950913
000310 01 96 8b 3d e0 9b 8a 3d 88 e0 81 bd 16 d8 05 3d
       0.0681572 0.06768012 -0.06341654 0.03267678
000320 75 46 73 3d 18 28 64 3c 5b 1f bf b9 68 f3 23 3d
       0.059393365 0.013925575 -0.0003645372 0.040027052
000330 26 bf 5d 3d 7f 6e 6f 3d 1c 2f 4d 3d df c4 8e bc
       0.05413737 0.058454987 0.050093755 -0.01742786
000340 28 b4 56 3c f7 45 f0 3c 0e 35 ef bc ea ff ae 3c
       0.013104476 0.029330237 -0.029200103 0.021362264
000350 2f 2e 60 bd 8c fb 0b bd 31 27 ce bc 02 c4 dc 3b
       -0.054731544 -0.03417544 -0.025165172 0.006737233
000360 fe 13 b1 bc 8d 9e 40 bc 1b 7a 57 bd 3d 63 7e bb
       -0.021615978 -0.011756551 -0.052606683 -0.0038816475
000370 2c 35 a9 bb 3f 7e 8d 3c aa f8 25 bc 36 b4 3d bd
       -0.0051638093 0.017272113 -0.010130087 -0.04631444
000380 20 a8 0d 3c 51 2b 69 bd 70 7d 3f bd 80 bc 81 3c
       0.008646041 -0.056926075 -0.046750486 0.015836954
000390 3b 38 ae 3d b3 23 fc 3c 6c bb e3 bb 6e c4 5d 3c
       0.08506819 0.030778741 -0.0069498327 0.013535602
0003a0 de 31 ba 3c a4 00 44 bb 14 26 33 3d 84 b4 8a bd
       0.022728857 -0.0029907608 0.043737486 -0.06772712
0003b0 9c 07 71 bd 3e a8 82 bd 63 0a 50 3d 18 ec db bc
       -0.058845147 -0.06379746 0.050791156 -0.026845977
0003c0 7b 0b 89 bd ce d4 2e 3d b8 e0 47 3d 80 0e 6f bd
       -0.06691643 0.042683415 0.048798293 -0.058363438
0003d0 fa a9 be b9 ab 57 ae bc 0d 18 81 3d d4 39 55 bd
       -0.00036366266 -0.021282038 0.063034154 -0.052057102
0003e0 90 aa 2a 3d 23 36 82 3b d6 95 5f 3d fc 80 a9 bc
       0.041666567 0.0039737388 0.054586254 -0.020691387
0003f0 5f ff 87 bd 01 5a 8a bd e9 d9 1b bd 80 81 25 bd
       -0.06640505 -0.06755448 -0.038049612 -0.040406704

attention.0.bias f4 [100]
000000 b0 b6 99 bd b3 40 72 3d 80 be 93 3c 7d 9e 4f 3d
       -0.07505548 0.059143733 0.018035173 0.050688256
000010 c0 49 18 3d b1 e9 51 3d 20 a5 fe bc cd 04 23 3d
       0.03717971 0.051248256 -0.031084597 0.0397995
000020 fb 98 c8 bc 3d 37 75 bc 2e 96 29 3d c7 58 55 3c
       -0.02448701 -0.014966783 0.041402988 0.013021654
000030 d8 40 37 bd 37 52 60 3d 5b 50 fb bc db f0 15 bd
       -0.044739574 0.054765906 -0.030677965 -0.03660665
000040 84 d0 ba bc c5 46 51 bd 80 9d 68 3b 93 14 7e bd
       -0.022804506 -0.05109288 0.0035494268 -0.06203134
000050 9c ec aa bc 6c 3a b4 3c 74 04 63 bd 17 b3 c2 3b
       -0.020864777 0.022000514 -0.05542417 0.0059417593
000060 6b 62 32 bd 22 c6 fe 3c fb 67 4d 3d 0f 70 6f bd
       -0.04355089 0.031100336 0.05014799 -0.058456477
000070 28 14 8b 3d 85 e8 ab 3d 29 ac 84 bc 7a 3f 2d 3c
       0.06790954 0.08393959 -0.016195374 0.010574216
000080 1a a9 d4 bc 56 fa 7e 3d 98 e0 15 3c 08 ff 21 bd
       -0.02595954 0.062250458 0.009147786 -0.039549857
000090 d7 09 9e 3c 10 d0 8e bd 77 5f 92 3b 24 d7 77 3d
       0.019291801 -0.069732785 0.0044669467 0.06050791
0000a0 11 50 4b bd ec dc 9c bc 93 45 47 3d 77 f3 92 3d
       -0.049636904 -0.019148313 0.048650336 0.071753435
0000b0 37 07 08 3d 93 7c 2a 3c 9f a5 e0 bc 91 2f 86 bd
       0.033210006 0.010405677 -0.027422724 -0.06552041
0000c0 7f 0f a8 3a f1 12 94 bc dc 2a 85 3b 35 75 56 3c
       0.0012822001 -0.018075438 0.004063947 0.013089468
0000d0 30 c9 59 bd 7c 10 2f 3d 9e bd 28 bd 92 0f 16 3d
       -0.053170383 0.04274033 -0.041196458 0.036635943
0000e0 21 05 8e bd 6c e4 6e bd 0c 92 21 3c ff 54 88 3c
       -0.06934572 -0.05832331 0.00986148 0.016642092
0000f0 50 2c 18 3d 9c f3 6f bd 77 e6 2a bd 1d eb 85 bd
       0.037151635 -0.058581933 -0.041723695 -0.06538985
000100 11 bd 2f bc d6 ed 4c bd fa 05 82 bd 74 fc 08 3d
       -0.010726229 -0.050031506 -0.06348796 0.033443883
000110 75 6f 0f 3d 4a bc 3f bd e5 69 e0 bb 96 6b 6c 3c
       0.035018403 -0.046810426 -0.006848561 0.014429947
000120 ab 62 6c 3c 4e 66 89 bd b9 9b 17 bd b2 a0 74 3d
       0.014427821 -0.06708966 -0.037013743 0.059723563
000130 80 0f 95 3d 7c 5f 9a 3c ec 2b 91 bd e8 c8 41 bd
       0.07278347 0.018844359 -0.070884556 -0.04731074
000140 3e 30 53 bc 55 b2 06 bd 0f e1 44 3d 79 e5 64 bc
       -0.01288992 -0.032884914 0.048066195 -0.013970726
000150 87 af 9d 3c 59 89 7c 3d bd 00 1d bb 5d 68 1b bd
       0.019248737 0.061654422 -0.002395674 -0.037941325
000160 64 7c 87 3b b0 e1 05 3c 87 30 16 bc f9 a8 64 3d
       0.0041347016 0.008171484 -0.009166843 0.055825207
000170 54 e2 3a bd 1a bf aa 3c c6 6f 31 bc e4 68 36 bc
       -0.045626 0.020843077 -0.0108298715 -0.011133406
000180 32 64 8e bc 0a 83 73 bd 5c bd a0 3d 7c 8e bb 3b
       -0.017381761 -0.05945114 0.078486174 0.0057237726
