result/1robot/rl_model.pth (torch, 392547 bytes, 20 tensors)

mlp1.0.weight f4 [150, 13]
0.24474971 -0.02087473 0.12224877 0.037604526 -0.13998728 -0.036092762 -0.034551647 -0.0774622
0.26384845 0.10309786 -0.0025184376 -0.0113181565 0.19534199 0.20421217 -0.07213249 -0.2176647
-0.088034146 0.036716226 0.21622717 0.26742724 -0.05343681 0.2718863 0.258524 0.033207994
-0.20197657 -0.14982261 0.15297323 -0.08879741 0.22078463 -0.2610702 0.14720899 0.06016255
0.20558426 -0.15703583 0.29487967 -0.13400602 -0.24319015 -0.28697202 0.05868103 0.003517211
-0.19938704 0.025210513 -0.047639925 0.13459392 -0.27539375 -0.1272678 0.027218081 -0.047181807
0.1151099 0.13474505 -0.19341701 0.017444117 -0.050418083 0.23460557 0.19695365 -0.17669904
-0.017940322 -0.18568268 -0.060786583 -0.023918191 0.08508146 0.17180468 -0.14957567 -0.194596
-0.038048036 -0.26133886 0.25828484 -0.03792124 0.09466883 0.10179083 -0.14188665 -0.044584483
-0.06120575 0.0103426725 0.14038974 -0.13125987 0.18136317 -0.13300578 -0.064045176 0.27549675
-0.047929022 -0.120782524 -0.14852788 0.084915295 0.13499306 -0.10487097 -0.085776545 -0.28421676
-0.11358278 0.36675748 -0.15040976 -0.1686008 0.109145686 0.084958166 0.012761273 0.26475433
0.16732939 0.17429057 -0.0021302162 -0.12330916 0.053751275 -0.15854785 -0.16142869 -0.17046236
-0.19645528 -0.048507165 -0.25949386 0.1777517 -0.07348523 -0.24308294 0.08946316 0.2625547
0.19285622 -0.20756185 -0.17494741 -0.17816533 -0.21277142 -0.07094824 0.16035809 0.16881095
0.06959782 0.122279346 0.23352085 -0.1160621 -0.024951002 -0.1673063 0.1654038 -0.15792137
-0.17059064 -0.0017415951 -0.10180232 0.02802052 -0.064751096 0.26452255 0.2186161 0.33306828
-0.16385059 0.2155308 -0.09802356 0.065853186 -0.040125556 0.101992115 0.15858996 0.16236389
-0.18226184 0.10035395 0.063467786 -0.008126995 -0.17601997 0.25825405 0.23344788 -0.14143835
0.3059167 0.23861857 -0.035049994 -0.17296532 0.04558377 -0.13482657 0.15350926 -0.115030535
0.23825128 -0.22734836 0.05815755 0.17522752 0.21085395 -0.12733431 -0.24866334 0.17584552
-0.20334375 -0.23431781 -0.06399614 -0.057174712 -0.14279631 0.19920059 0.17690073 -0.053379707
-0.10651972 -0.19998682 0.089353636 -0.15563545 0.10349795 -0.24031979 0.026545184 0.17574838
0.11001269 -0.010708392 0.0831451 -0.25595877 -0.057271134 0.29278553 -0.32748035 0.20110635
0.12788868 -0.08220341 0.18472148 0.13069986 -0.08449045 0.22474486 -0.07716321 -0.004924654
-0.2236106 0.06458845 0.010448717 -0.0696053 0.18428011 0.23335917 0.18487537 -0.2231613
-0.23974094 -0.06057831 0.11620471 0.108912304 -0.046169993 -0.08489538 0.23742983 -0.25931433
0.12031237 -0.15246966 -0.07594609 0.29247525 -0.14098655 -0.13252507 -0.2559903 0.21317984
0.027797425 0.18077904 0.12850514 0.03157733 0.14223272 -0.036824737 0.16539513 -0.0044972743
0.06373103 0.13607436 0.02444328 0.16711478 -0.09151992 0.08423488 0.19380033 -0.22490342
0.021156697 -0.10300737 0.1895001 0.011092685 0.032284513 -0.3570744 0.035179652 0.030110942
0.29213807 0.12811238 0.04318941 -0.22051983 0.15258414 -0.28729102 -0.2907276 -0.09327578
00000000: ab9f 7a3e 7b01 abbc 905d fa3d 3407 1a3d
00000010: d358 0fbe 01d6 13bd 0786 0dbd 80a4 9ebd
00000020: 2517 873e f924 d33d 5f0c 25bb ca6f 39bc
00000030: bb07 483e ff1c 513e 33ba 93bd 7fe3 5ebe
00000040: 3f4b b4bd c163 163d a86a 5d3e 39ec 883e
00000050: 8ee0 5abd ae34 8b3e 425d 843e 1b05 083d
00000060: f2d2 4ebe 196b 19be 04a5 1c3e 6bdb b5bd
00000070: 5e15 623e feaa 85be f4bd 163e 026d 763d
00000080: ae84 523e 00ce 20be 78fa 963e e038 09be
00000090: d706 79be ffed 92be 855b 703d 0281 663b
000000a0: 1e2c 4cbe 4786 ce3c 1522 43bd fdd2 093e
000000b0: 6900 8dbe 7d52 02be 74f8 de3c b641 41bd
000000c0: bdbe eb3d 9bfa 093e 1c0f 46be f7e6 8e3c
000000d0: 3183 4ebd 713c 703e 38ae 493e 98f0 34be
000000e0: 95f7 92bc 9a23 3ebe 5afb 78bd 15f0 c3bc
000000f0: 303f ae3d 91ed 2f3e 5d2a 19be 2c44 47be
00000100: 42d8 1bbd 35ce 85be e93d 843e 4d53 1bbd
00000110: bbe1 c13d b677 d03d bc4a 11be 389e 36bd
00000120: e1b2 7abd 5074 293c 54c2 0f3e fd68 06be
00000130: 44b7 393e ab32 08be 1e2a 83bd e90d 8d3e
00000140: 3951 44bd d45c f7bd b117 18be 12e8 ad3d
00000150: 9f3b 0a3e 97c6 d6bd 9dab afbd dc84 91be
00000160: 179e e8bd a3c7 bb3e 0405 1abe b0a5 2cbe
00000170: c687 df3d 8cfe ad3d a914 513c e18d 873e
00000180: 6558 2b3e 3a79 323e 199b 0bbb 8389 fcbd
00000190: 4c2a 5c3d 5e5a 22be 904d 25be af8d 2ebe
000001a0: 932b 49be 73af 46bd 61dc 84be 8b04 363e
000001b0: 6d7f 96bd bcea 78be 7638 b73d 926d 863e
000001c0: 1a7c 453e 188b 54be 6a25 33be f970 36be
000001d0: c0e0 59be 504d 91bd e934 243e c7dc 2c3e
000001e0: 4d89 8e3d 986d fa3d 1720 6f3e f7b1 edbd
000001f0: 0b66 ccbc 5852 2bbe 9d5f 293e 24b6 21be
00000200: 50af 2ebe 3c46 e4ba bc7d d0bd 4a8b e53c
00000210: 399c 84bd 806f 873e e6dc 5f3e ed87 aa3e
00000220: 73c8 27be 1bb4 5c3e 94c0 c8bd 09de 863d
00000230: b25a 24bd 3ee1 d03d 6865 223e b842 263e
00000240: d9a2 3abe 5f86 cd3d 66fb 813d 1627 05bc
00000250: 943e 34be e039 843e f60c 6f3e 37d5 10be
00000260: 1da1 9c3e 6d58 743e 9590 0fbd d21d 31be
00000270: 0cb6 3a3d fa0f 0abe 8831 1d3e 2195 ebbd
00000280: 25f8 733e 02ce 68be 9c36 6e3d d86e 333e
00000290: 19ea 573e ed63 02be 9aa1 7ebe d910 343e
000002a0: 5839 50be 02f1 6fbe 6910 83bd 0830 6abd
000002b0: 3239 12be 3dfb 4b3e 7725 353e aea4 5abd
000002c0: 0327 dabd 58c9 4cbe 0aff b63d e65e 1fbe
000002d0: bcf6 d33d 6416 76be 4975 d93c 62f7 333e
000002e0: 554e e13d 4072 2fbc fa47 aa3d 070d 83be
000002f0: 2395 6abd fce7 953e 81ab a7be d3ee 4d3e
00000300: 40f5 023e 435a a8bd a127 3d3e 2fd6 053e
00000310: 5409 adbd 8423 663e bf07 9ebd fe5e a1bb
00000320: 2dfa 64be f346 843d 1831 2b3c 398d 8ebd
00000330: edb3 3c3e b5f5 6e3e f84f 3d3e 6584 64be
00000340: a67e 75be f620 78bd bcfc ed3d 6a0d df3d
00000350: bf1c 3dbd a1dd adbd ce20 733e d9c4 84be
00000360: 5566 f63d 0221 1cbe a089 9bbd 51bf 953e
00000370: c75e 10be a7b4 07be 2911 83be d14b 5a3e
00000380: 6db7 e33c 241e 393e da96 033e 3b57 013d
00000390: 74a5 113e 89d5 16bd 575d 293e df5d 93bb
000003a0: 6a85 823d 1457 0b3e 463d c83c 2320 2b3e
000003b0: cc6e bbbd 5683 ac3d 9873 463e 154d 66be
000003c0: cf50 ad3c 87f5 d2bd 500c 423e 18be 353c
000003d0: c43c 043d 75d2 b6be 8a18 103d 39ab f63c
000003e0: 1f93 953e e42f 033e 61e7 303d f3cf 61be
000003f0: 043f 1c3e cf17 93be 3fda 94be 5f07 bfbd

mlp1.0.bias f4 [150]
-0.2700848 0.09706106 0.13197641 -0.21939477 -0.18884622 -0.27141914 0.19993258 -0.08085597
0.14052902 -0.27014276 0.12310081 -0.09234947 -0.19651105 -0.0500184 -0.1902253 -0.23247252
-0.23660524 -0.21013549 0.29641315 0.11866096 0.08965584 0.23341136 0.0064459424 0.20104031
-0.2474782 0.19862458 0.15862833 -0.028915482 -0.0066676713 0.18651418 0.21734056 0.01877133
-0.13555776 0.24968274 0.2155608 -0.18290095 0.12395553 0.056158148 0.23747377 0.16460277
-0.005642494 0.013285894 0.20416981 0.13241927 -0.06124382 0.11722425 -0.20155506 0.06047878
0.037323147 0.23037912 -0.02598913 -0.208702 -0.11595339 0.09415734 0.0148070995 0.012155732
0.1367557 0.0686885 -0.14395387 0.15342315 -0.24839729 0.21904439 -0.17685814 0.21843168
-0.16799834 0.12253574 0.17588417 0.0940095 0.26188338 0.062248513 0.1501591 -0.2067988
-0.27155152 0.18897489 0.2957137 0.17391624 -0.12797295 -0.2734186 -0.24509335 -0.14687288
0.01946821 -0.17955457 -0.042238727 0.016283609 0.010543403 -0.25900367 -0.2902834 -0.22727
-0.18037252 -0.17511073 0.11422373 0.08497409 -0.008783886 0.018522456 0.07720838 -0.042351667
-0.08390613 0.27569953 -0.027524909 -0.07516523 0.2647478 -0.19324593 -0.18657589 0.19434533
-0.19203234 0.21388021 -0.21511798 0.019668682 -0.2399834 0.20388521 -0.22052509 0.2165559
-0.23633954 -0.10312052 -0.20934959 0.14007816 -0.14592917 -0.243467 -0.07733017 0.13204105
-0.20228799 -0.22950678 0.005679768 0.117704 -0.15813726 0.14236866 0.20360622 -0.17775795
0.012702326 0.0020337864 -0.096484005 0.20547959 -0.11416199 0.25561923 0.210965 0.02191281
-0.07398787 0.1639261 0.18903857 -0.19086085 -0.17384993 -0.1993936 -0.18974806 -0.20393233
-0.11206546 0.06353309 0.054018646 0.24486479 0.0030200689 0.26640156
00000000: 8e48 8abe f3c7 c63d d324 073e 06a9 60be
00000010: e760 41be 73f7 8abe 20bb 4c3e d197 a5bd
00000020: d7e6 0f3e 2750 8abe 471c fc3d b821 bdbd
00000030: 313a 49be 18e0 4cbd 6cca 42be 470d 6ebe
00000040: a548 72be c22d 57be 77c3 973e 8404 f33d
00000050: 7b9d b73d 6303 6f3e 7c38 d33b 83dd 4d3e
00000060: ed6a 7dbe 3e64 4b3e 776f 223e 29e0 ecbc
00000070: 7b7c dabb 93fd 3e3e 868e 5e3e 55c6 993c
00000080: a7cf 0abe d5ac 7f3e f8bb 5c3e 634a 3bbe
00000090: 66dc fd3d 1606 663d 532c 733e a18d 283e
000000a0: ace4 b8bb 14ad 593c e411 513e eb98 073e
000000b0: cdda 7abd 4513 f03d 7364 4ebe 99b8 773d
000000c0: 28e0 183d 81e8 6b3e 28e7 d4bc fab5 55be
000000d0: f978 edbd 90d5 c03d 7a99 723c d628 473c
000000e0: b009 0c3e 8eac 8c3d a568 13be f51a 1d3e
000000f0: dc5b 7ebe 2c4d 603e 4d1a 35be 8eac 5f3e
00000100: c207 2cbe 05f4 fa3d fb1a 343e 0e88 c03d
00000110: 9415 863e 4cf8 7e3d 4fc3 193e 11c3 53be
00000120: cd08 8bbe a282 413e c967 973e 1917 323e
00000130: 570b 03be 86fd 8bbe c0f9 7abe d865 16be
00000140: cc7b 9f3c 27dd 37be 8402 2dbd 3465 853c
00000150: 3dbe 2c3c 219c 84be 07a0 94be 78b9 68be
00000160: 93b3 38be 3a50 33be 22ee e93d e506 ae3d
00000170: 4aea 0fbc 68bc 973c 6d1f 9e3d f178 2dbd
00000180: fad6 abbd 7d28 8d3e eb7b e1bc 3af0 99bd
00000190: 068d 873e 43e2 45be c00d 3fbe 7602 473e
000001a0: 20a4 44be 6a03 5b3e e347 5cbe 3720 a13c
000001b0: 35be 75be 49c7 503e 54d1 61be d4c0 5d3e
000001c0: fe02 72be da30 d3bd bd5f 56be a670 0f3e
000001d0: 756e 15be 6a4f 79be 485f 9ebd c535 073e
000001e0: 9524 4fbe d303 6bbe 591d ba3b cb0e f13d
000001f0: bcee 21be 17c9 113e 267e 503e 2e06 36be
00000200: 6b1d 503c 4649 053b 6899 c5bd 3e69 523e
00000210: c3cd e9bd 86e0 823e 3507 583e 7e82 b33c
00000220: f486 97bd 3edc 273e 5493 413e 0771 43be
00000230: b705 32be d62d 4cbe 514d 42be a3d3 50be
00000240: 9382 e5bd a31d 823d a842 5d3d d6bd 7a3e
00000250: 59ec 453b c965 883e

mlp1.2.weight f4 [100, 150]
0.012174044 0.016805036 -0.08904451 -0.04131771 0.029598631 0.008978098 0.08117188 -0.023624297
0.016260255 -0.054253787 0.05202946 -0.03390089 0.0019210317 -0.008971033 0.050574422 0.040097255
0.046146486 -0.03533533 -0.02441549 -0.004700193 0.053419232 0.009163975 -0.07301849 0.0078935195
-0.068643115 -0.004151623 -0.07032542 0.06051893 -0.069009766 -0.03791506 0.0244674 -0.020784905
0.017543413 0.04392913 0.049849402 -0.054180257 0.086272635 0.040051226 -0.09390296 0.0759456
0.036111627 0.0022664622 -0.06173954 0.09133184 0.033680275 -0.031237967 0.06901731 -0.008361177
0.008691436 0.017566208 -0.008459126 -0.07481708 -0.038661994 0.017314183 0.045080926 0.052608524
0.05261026 0.02434175 -0.056646127 0.040107436 0.076088615 -0.010330712 0.03854402 0.009726934
-0.006071688 0.0127120055 -0.024878735 0.008787496 0.05069978 0.012354492 0.061388977 0.068773665
0.014531815 0.023409681 0.030461838 -0.04759507 0.046558395 0.03587068 -0.0352547 -0.05223952
0.04277366 -0.015848981 0.048605714 -0.05079288 0.08050905 0.07114814 -0.0007297312 0.071638145
0.0012884359 -0.0796005 -0.00705572 -0.020133033 0.014725778 -0.0026351083 -0.0043798857 0.047228422
0.008473344 -0.021990217 0.05523059 0.037104405 0.012855805 -0.083657 -0.012650005 0.008590601
-0.038177103 0.06650549 -0.05936377 0.03177225 0.024093071 -0.024120972 0.0361501 -0.023988852
-0.03626864 -0.045337066 -0.04164935 0.018696424 -0.09976489 -0.040445976 0.032846168 -0.025800921
0.04200333 0.00087040296 0.043325517 -0.052680254 0.052920036 0.06510613 -0.07780421 0.051350635
-0.0512394 -0.07769395 -0.016478784 0.072038144 0.06601313 -0.01287208 -0.09403349 0.049710624
0.009796474 0.046649203 0.008678022 -0.080623195 0.06475458 -0.027469052 -0.032340314 0.000864821
-0.016301518 0.0695115 0.06362789 0.014116334 -0.015229611 0.02272498 0.0043941145 0.02860906
-0.04729941 -0.03952401 0.036818612 -0.047597323 0.07636857 0.076691754 -0.06769174 0.067547895
0.0030187129 -0.018701507 -0.028015161 -0.08026478 -0.014136069 -0.060302928 0.044531055 0.063860424
-0.05885686 -0.021433316 -0.014177063 -0.05518754 -0.05361017 0.037023198 0.018645385 0.030057766
-0.019249167 -0.009741905 -0.0028424838 0.017945426 -0.04546429 -0.06851178 -0.004247572 0.0024086332
0.004367538 -0.029874044 -0.026275482 -0.061229832 0.017693242 0.045258433 -0.0016064799 -0.04972079
0.042186942 0.07092959 -0.04545785 0.06714822 0.04136092 -0.03358131 -0.0058398726 -0.0039493814
-0.036109027 0.05650407 -0.022351434 -0.020370342 -0.05951548 0.05343874 -0.04299079 -0.0050230483
0.02630456 -0.038818944 -0.05299151 -0.019678432 0.057067797 0.08790425 -0.030543178 -0.065288015
-0.04470313 -0.028599704 -0.028552305 0.008113205 0.05907098 -0.032679625 0.05366301 -0.072177015
0.03259023 0.025396103 0.025391633 -0.074392095 -0.06688693 0.063542455 -0.025384273 0.046380274
0.07233737 0.0072857016 -0.051868983 0.037093498 -0.054430526 -0.0649348 0.048824694 -0.003938494
0.0677221 0.068449505 0.066907436 0.0530924 0.07619496 -0.05570487 -0.0808848 0.040990118
-0.07239304 0.0015450699 -0.021354556 -0.057874624 0.04185969 0.08539901 -0.07603794 0.05985796
00000000: a475 473c b7aa 893c f85c b6bd c23c 29bd
00000010: d478 f23c df18 133c 713d a63d be87 c1bc
00000020: 3a34 853c 3839 5ebd d81c 553d a9db 0abd
00000030: 21cb fb3a 3dfb 12bc 2027 4f3d 053d 243d
00000040: 1904 3d3d c7bb 10bd fe02 c8bc 1404 9abb
00000050: 20ce 5a3d 7f24 163c b88a 95bd d253 013c
00000060: c394 8cbd 570a 88bb c606 90bd b3e2 773d
00000070: fe54 8dbd d24c 1bbd db6f c83c 1b45 aabc
00000080: 34b7 8f3c 08ef 333d e32e 4c3d 1eec 5dbd
00000090: b5af b03d c10c 243d 3250 c0bd 5e89 9b3d
000000a0: c9e9 133d ed88 143b 9ae2 7cbd 300c bb3d
000000b0: 54f4 093d c4e6 ffbc f358 8d3d 51fd 08bc
000000c0: 8666 0e3c 02e7 8f3c 2598 0abc b239 99bd
000000d0: 0a5c 1ebd 79d6 8d3c c7a6 383d 097c 573d
000000e0: db7d 573d 5a68 c73c c505 68bd b247 243d
000000f0: 59d4 9b3d 2642 29bc 56e0 1d3d b85d 1f3c
00000100: 03f5 c6bb 0446 503c 7dce cbbc 6ef9 0f3c
00000110: 93aa 4f3d 7f6a 4a3c 0273 7b3d 35d9 8c3d
00000120: da16 6e3c a9c5 bf3c 1b8b f93c 0cf3 42bd
00000130: 04b4 3e3d 22ed 123d 3b67 10bd 1bf9 55bd
00000140: 6f33 2f3d b9d5 81bc c916 473d 320c 50bd
00000150: eee1 a43d 1eb6 913d 6f4b 3fba 05b7 923d
00000160: bce0 a83a 9605 a3bd ab33 e7bb 08ee a4bc
00000170: 6444 713c c8b1 2cbb 2585 8fbb 9772 413d
00000180: c8d3 0a3c d424 b4bc 7939 623d cafa 173d
00000190: 28a1 523c 5c54 abbd f741 4fbc 98bf 0c3c
000001a0: 985f 1cbd 0834 883d 6d27 73bd 9e23 023d
000001b0: d55e c53c 5899 c5bc 2112 143d 4584 c4bc
000001c0: 6d8e 14bd 5cb3 39bd 8298 2abd 3e29 993c
000001d0: 8951 ccbd aeaa 25bd b489 063d 745c d3bc
000001e0: af0b 2c3d c12b 643a 1976 313d 40c7 57bd
000001f0: aec2 583d 5d56 853d d057 9fbd 0b55 523d
00000200: 68e0 51bd 011e 9fbd 84fe 86bc bc88 933d
00000210: e431 873d 6be5 52bc a194 c0bd 5e9d 4b3d
00000220: 6481 203c 3c13 3f3d 432e 0e3c c61d a5bd
00000230: 0d9e 843d c706 e1bc 4777 04bd 28b5 623a
00000240: c38a 85bc 0c5c 8e3d 574f 823d 3248 673c
00000250: 9e85 79bc bd29 ba3c 81fc 8f3b 8c5d ea3c
00000260: 07bd 41bd eee3 21bd 1dcf 163d 69f5 42bd
00000270: 2067 9c3d 9110 9d3d f8a1 8abd 8d56 8a3d
00000280: 99d5 453b e733 99bc 0d80 e5bc dc61 a4bd
00000290: f99a 67bc 3400 77bd 3266 363d 41c9 823d
000002a0: e413 71bd ec94 afbc e946 68bc 540c 62bd
000002b0: 5696 5bbd a3a5 173d 35be 983c b43b f63c
000002c0: 6eb0 9dbc 839c 1fbc f748 3abb 4902 933c
000002d0: c338 3abd e74f 8cbd 372f 8bbb 29da 1d3b
000002e0: 901d 8f3b 69ba f4bc ae3f d7bc 22cc 7abd
000002f0: 6bf1 903c e860 393d 8590 d2ba 07a8 4bbd
00000300: 37cc 2c3d 8843 913d 0332 3abd 0285 893d
00000310: 116a 293d 8e8c 09bd 675c bfbb d069 81bb
00000320: 0fe7 13bd d070 673d 5b1a b7bc b4df a6bc
00000330: 81c6 73bd 95e2 5a3d 1c17 30bd 6298 a4bb
00000340: a97c d73c 9d00 1fbd a00d 59bd aa34 a1bc
00000350: ecbf 693d 2507 b43d b035 fabc b9b5 85bd
00000360: a11a 37bd ed49 eabc 86e6 e9bc 40ed 043c
00000370: 69f4 713d 12db 05bd bfcd 5b3d 8bd1 93bd
00000380: 557d 053d 7d0b d03c 1d02 d03c e25a 98bd
00000390: 04fc 88bd 8c22 823d aef2 cfbc 3ef9 3d3d
000003a0: 9d25 943d e5bc ee3b 9274 54bd 5aef 173d
000003b0: 8bf2 5ebd 89fc 84bd 67fc 473d 7b0e 81bb
000003c0: e2b1 8a3d 412f 8c3d c406 893d 6b77 593d
000003d0: 1a0c 9c3d ca2a 64bd eea6 a5bd 41e5 273d
000003e0: cd42 94bd f183 ca3a c0ef aebc f10d 6dbd
000003f0: 1175 2b3d ade5 ae3d c8b9 9bbd 9f2d 753d

mlp1.2.bias f4 [100]
0.051582426 0.07780698 -0.054572847 -0.05221534 -0.07545693 -0.09015914 0.11399212 -0.0068353433
-0.030662913 -0.0667932 0.06963898 0.055046353 -0.052298944 0.040283523 0.023847045 0.02329137
0.13195631 0.103612326 0.0648449 -0.11613864 -0.017021488 0.076038465 0.004799273 -0.05497485
-0.01360713 0.08080143 0.045392904 -0.06764021 -0.021376189 -0.0822278 0.009551094 -0.035505097
0.082451664 0.10314549 -0.061174337 -0.020757116 -0.01815858 -0.017102478 -0.029135251 0.011951838
-0.08635407 0.067411624 -0.008465437 -0.009425705 -0.019217653 -0.11884064 0.056549717 0.077456094
0.020041998 0.05936609 -0.069421984 0.050397187 0.06445869 0.044257335 0.0034687517 -0.07352781
-0.04396867 -0.028489389 -0.020706035 0.051266912 0.0413631 0.084456645 -0.029096443 0.075031616
-0.03394899 -0.00019404544 -0.087570846 -0.073899835 -0.03468774 -0.10831603 0.05669199 0.07724213
-0.04144772 0.012502434 -0.00797401 -0.016016306 0.08087996 0.045434948 -0.04859441 0.0757865
0.03652554 -0.048844974 0.0654515 -0.015046027 -0.06873962 0.026463948 0.00094908394 -0.059042115
0.035830095 0.03170996 -0.043188598 -0.05936625 -0.068242855 0.016551305 0.049642272 0.0072096395
-0.07856487 -0.043307297 0.0041808686 0.06147879
00000000: 1848 533d 4459 9f3d c787 5fbd c1df 55bd
00000010: 2a89 9abd 5ba5 b8bd b374 e93d 04fb dfbb
00000020: ca30 fbbc e0ca 88bd e29e 8e3d 4978 613d
00000030: 6b37 56bd 5600 253d e15a c33c 8bcd be3c
00000040: 8e1f 073e b332 d43d 67cd 843d 18da edbd
00000050: a670 8bbc 0eba 9b3d 3843 9d3b 4f2d 61bd
00000060: 71f0 5ebc 387b a53d e9ed 393d f386 8abd
00000070: 1e1d afbc 0c67 a8bd 317c 1c3c cb6d 11bd
00000080: 6bdc a83d f13d d33d f191 7abd d40a aabc
00000090: 4dc1 94bc 7f1a 8cbc 0dad eebc a4d1 433c
000000a0: 67da b0bd 1b0f 8a3d 9eb2 0abc 466e 1abc
000000b0: 576e 9dbc b962 f3bd ada0 673d 4da1 9e3d
000000c0: 1e2f a43c db29 733d 1d2d 8ebd 486d 4e3d
000000d0: eb02 843d 2e47 353d ff53 633b c095 96bd
000000e0: 7e18 34bd 9462 e9bc b49f a9bc 41fd 513d
000000f0: 5b6c 293d 9bf7 ac3d aa5b eebc 2daa 993d
00000100: 190e 0bbd ad78 4bb9 5858 b3bd cc58 97bd
00000110: bb14 0ebd cbd4 ddbd dc35 683d 1f31 9e3d
00000120: 16c5 29bd 02d7 4c3c 6ca5 02bc a134 83bc
00000130: 64a4 a53d ff19 3a3d ef0a 47bd f435 9b3d
00000140: ce9b 153d ab11 48bd 700b 863d 9c83 76bc
00000150: 5cc7 8cbd ecca d83c f2cb 783a 25d6 71bd
00000160: 94c2 123d 4ee2 013d 87e6 30bd 062a 73bd
00000170: e9c2 8bbd 9a96 873c b255 4b3d d73e ec3b
00000180: 9ee6 a0bd fe62 31bd abff 883b 2fd1 7b3d

mlp2.0.weight f4 [100, 100]
0.00749792 0.079766095 -0.018915256 0.005375498 -0.03948778 0.04544315 0.07046973 0.018346932
-0.043922815 0.08152222 -0.07326225 0.0776165 -0.07919523 -0.018408451 0.03230109 -0.0021496126
0.12076106 -0.051047023 0.011267376 0.09388001 -0.093357995 0.09077982 -0.0057089007 -0.005297634
0.070011616 0.057619214 0.07913707 0.057449218 -0.07445349 0.057812296 -0.06959169 0.0013654125
0.022229511 0.088395506 -0.095021576 -0.043989312 -0.00038385723 0.073597394 0.054587066 -0.04897431
0.038674954 -0.00028915043 0.10351787 0.051838964 -0.043917213 -0.08985476 -0.08689072 0.021215318
0.059407815 -0.001530333 0.09518576 0.0021509305 -0.11691428 0.037344042 -0.09864666 -0.04731979
0.060554564 -0.10234447 -0.05637458 -0.031577595 0.0076752575 -0.014038831 0.085278906 -0.00088146183
-0.11273564 -0.061928082 -0.104520105 -0.060575273 -0.07129641 -0.07732355 -0.04007842 0.08635799
0.07774436 -0.073848404 -0.023292359 0.012795156 0.054161627 0.052097384 0.067478634 0.091454566
0.022892192 -0.0020824377 0.062467445 0.09665916 0.022051169 -0.099267274 0.051560413 -0.05590668
0.046918448 0.017597789 -0.02973517 0.041959338 -0.09828254 -0.06634571 0.0565417 0.09350425
-0.060725283 -0.021413403 -0.022411529 0.09389228 0.076221555 -0.094911814 -0.07866997 0.078712545
-0.061076336 0.07651565 -0.091401465 0.013004647 0.048032787 0.007932198 0.045010094 -0.15324794
-0.016063929 -0.028781515 0.067442104 0.1416613 -0.060234565 0.06438106 0.10078047 0.06799514
0.0810964 -0.03946735 -0.030150816 0.081898384 0.037169892 -0.07616117 0.005385787 0.01904361
-0.02658901 -0.049874343 0.08841018 -0.1955495 -0.15219547 -0.11488817 0.06368051 -0.042653076
0.043858018 0.19528715 -0.06412339 0.11117446 0.07090044 -0.040135257 0.06722809 -0.06621344
0.023469115 -0.024888113 0.064304434 -0.031404942 0.11309822 0.06923294 -0.06279595 -0.07099045
0.08654428 -0.020373337 0.089652434 -0.011811365 -0.0071817 0.0020516834 -0.103756286 0.07359893
-0.014554578 -0.08317136 -0.041916423 0.015813656 0.12598303 -0.05244058 0.14087662 -0.08748448
0.0894803 0.07675475 -0.0023719028 0.0051547233 0.08648788 -0.14324954 -0.10246429 -0.050752014
0.088946246 -0.08775003 0.09253645 0.059992783 0.043834858 0.14388339 -0.08063928 -0.12049653
0.056164302 0.0025435523 -0.031408146 -0.06096732 0.020599613 -0.061072417 -0.017067198 0.010151495
0.09863271 -0.10438654 0.015838047 0.11181758 0.07316017 -0.036271654 0.05995274 0.05404921
0.060786113 -0.04677233 0.09627903 0.05582651 -0.014815201 0.1610897 0.067145064 -0.08698746
-0.03779888 0.08053619 0.070353284 0.05965431 -0.06965824 -0.029153585 -0.043694884 -0.033208687
0.08405748 0.032125395 0.0646962 0.02414141 -0.08229683 0.048804723 0.025400912 -0.0104123
0.01751826 0.07857553 0.07982536 -0.0838477 0.033760343 -0.09229042 0.09996724 0.090382874
0.08063221 0.060191456 -0.012270735 0.06761731 0.030816218 -0.04849376 0.09390955 -0.014285695
0.08569068 0.0059554633 0.11782161 -0.0478894 0.072278805 -0.08076119 -0.07235214 -0.036791954
-0.07884894 -0.032001697 -0.05315943 0.026690304 -0.0806297 -0.058288805 0.029264085 0.06992622
00000000: 1db1 f53b 685c a33d 2bf4 9abc f224 b03b
00000010: f0bd 21bd 9922 3a3d 6f52 903d 4e4c 963c
00000020: 69e8 33bd 1ff5 a63d 850a 96bd 66f5 9e3d
00000030: 1c31 a2bd 52cd 96bc 264e 043d 84e0 0cbb
00000040: 9351 f73d af16 51bd cd9a 383c 2a44 c03d
00000050: 7a32 bfbd c5ea b93d bb11 bbbb c697 adbb
00000060: 4062 8f3d 2002 6c3d 9e12 a23d df4f 6b3d
00000070: 127b 98bd 96cc 6c3d 1786 8ebd a4f7 b23a
00000080: aa1a b63c b408 b53d ac9a c2bd 232e 34bd
00000090: 7240 c9b9 3bba 963d b096 5f3d 4999 48bd
000000a0: a169 1e3d 1d99 97b9 2d01 d43d 1855 543d
000000b0: 89e2 33bd c605 b8bd c3f3 b1bd bfcb ad3c
000000c0: 9c55 733d 7495 c8ba c0f0 c23d a0f6 0c3b
000000d0: c170 efbd 11f6 183d 4307 cabd 65d2 41bd
000000e0: 1008 783d fa99 d1bd 08e9 66bd 8257 01bd
000000f0: ba80 fb3b 2003 66bc b5a6 ae3d e711 67ba
00000100: f1e1 e6bd 4da8 7dbd a30e d6bd c71d 78bd
00000110: da03 92bd cf5b 9ebd 4529 24bd 75dc b03d
00000120: 6f38 9f3d d53d 97bd 9ecf bebc c6a2 513c
00000130: 95d8 5d3d 1164 553d 3d32 8a3d 884c bb3d
00000140: 6888 bb3c 8279 08bb dddd 7f3d 3df5 c53d
00000150: a7a4 b43c a44c cbbd 0331 533d 67fe 64bd
00000160: 8f2d 403d 3d29 903c 2c97 f3bc 8edd 2b3d
00000170: 5b48 c9bd 42e0 87bd 4598 673d 287f bf3d
00000180: 13bb 78bd 296b afbc 6298 b7bc 984a c03d
00000190: 0c1a 9c3d 2061 c2bd b91d a1bd 0b34 a13d
000001a0: 2e2b 7abd 3db4 9c3d b130 bbbd 7111 553c
000001b0: 07be 443d 0df6 013c 815c 383d 07ed 1cbe
000001c0: 8098 83bc 36c7 ebbc 161f 8a3d a90f 113e
000001d0: 85b8 76bd 38da 833d fe65 ce3d 0941 8b3d
000001e0: df15 a63d 84a8 21bd d8fe f6bc 57ba a73d
000001f0: 753f 183d 63fa 9bbd 427b b03b 5801 9c3c
00000200: 32d1 d9bc 0a49 4cbd 6510 b53d 213e 48be
00000210: 21d9 1bbe 7d4a ebbd ed6a 823d feb4 2ebd
00000220: 77a4 333d 5bf9 473e 2053 83bd 6faf e33d
00000230: 4034 913d de64 24bd e1ae 893d e99a 87bd
00000240: 4d42 c03c 28e2 cbbc 0bb2 833d 78a2 00bd
00000250: 0aa0 e73d 00ca 8d3d 2a9b 80bd 7163 91bd
00000260: 213e b13d fce5 a6bc b29b b73d 7584 41bc
00000270: 7754 ebbb 8975 063b 2d7e d4bd 09bb 963d
00000280: 5376 6ebc bf55 aabd 8eb0 2bbd a48b 813c
00000290: b201 013e efcb 56bd f641 103e 102b b3bd
000002a0: 7341 b73d 9831 9d3d ed71 1bbb f4e8 a83b
000002b0: 8f20 b13d 02b0 12be ccd8 d1bd 58e1 4fbd
000002c0: 7329 b63d 4ab6 b3bd c083 bd3d feba 753d
000002d0: 2e8c 333d 2b56 133e 3526 a5bd e2c6 f6bd
000002e0: 8a0c 663d bab1 263b d4a5 00bd deb8 79bd
000002f0: 85c0 a83c 1227 7abd 82d0 8bbc 7552 263c
00000300: f2ff c93d 9cc8 d5bd cbbe 813c 9e00 e53d
00000310: 00d5 953d 9691 14bd 0191 753d b462 5d3d
00000320: dcfa 783d 5894 3fbd f12d c53d 57aa 643d
00000330: 75bb 72bc b3f4 243e 5a83 893d 7b26 b2bd
00000340: 00d3 1abd 28f0 a43d 6215 903d 1458 743d
00000350: fba8 8ebd 80d3 eebc 68f9 32bd d505 08bd
00000360: 5426 ac3d eb95 033d 717f 843d 35c4 c53c
00000370: 3e8b a8bd 76e7 473d 9315 d03c 5a98 2abc
00000380: 7482 8f3c 35ec a03d 7a7b a33d 58b8 abbd
00000390: 4948 0a3d c202 bdbd a0bb cc3d a81a b93d
000003a0: 8022 a53d 518b 763d 310b 49bc f27a 8a3d
000003b0: 4b72 fc3c 65a1 46bd a653 c03d 8c0e 6abc
000003c0: 987e af3d 0c26 c33b 754c f13d ad27 44bd
000003d0: e906 943d 1f66 a5bd 5c2d 94bd 29b3 16bd
000003e0: 8e7b a1bd 3614 03bd b4bd 59bd a0a5 da3c
000003f0: 2f21 a5bd 3ec0 6ebd 3cbb ef3c 7a35 8f3d

mlp2.0.bias f4 [100]
-0.023863027 -0.12765343 0.02114139 -0.0047785323 -0.029701238 0.04690679 0.06558038 0.07657003
0.07121037 0.029582184 0.029130679 0.06268007 0.063691415 -0.0041273898 0.15542546 -0.10342032
0.032892592 -0.042367436 -0.013999963 -0.06401522 0.082971215 0.053372264 0.11345269 -0.045209903
-0.044093035 0.124661654 0.088051915 -0.090701655 -0.02557858 0.033238314 -0.035664897 -0.025009276
-0.06272072 -0.0705606 0.11264846 -0.09870833 -0.09336209 0.025823416 0.0016691016 -0.069060266
0.0069907303 0.06013534 0.08970589 0.06914834 0.018384049 -0.0767176 -0.075574175 0.09199074
0.047485877 0.03906693 -0.0059667076 0.08850162 0.009963165 0.053992525 0.078015134 0.03954713
0.041295554 0.003305668 0.09028369 -0.07108162 0.09848241 0.10567741 0.018713647 -0.035590887
0.14207911 0.038318243 -0.06623011 -0.030275473 -0.11645333 -0.027804866 -0.092224844 0.088698074
-0.03477409 0.14259537 -0.032183968 0.0244242 0.096464895 -0.05749819 0.027275123 -0.009893892
-0.017339159 -0.06947397 0.0734482 0.08693675 0.018456131 -0.0058203945 -0.08733685 -0.08026787
-0.0152802 0.05906092 -0.03831599 -0.11387232 -0.05898652 0.03401967 0.023571871 -0.07433554
0.03792567 -0.06526236 -0.09612363 -0.0151311075
00000000: 657c c3bc 95b7 02be b530 ad3c 3c95 9cbb
00000010: 0350 f3bc 5621 403d 024f 863d bfd0 9c3d
00000020: bed6 913d 5656 f23c 76a3 ee3c 695e 803d
00000030: a570 823d 0e3f 87bb da27 1f3e 08ce d3bd
00000040: 62ba 063d 7a89 2dbd 1a60 65bc 691a 83bd
00000050: d0ec a93d e09c 5a3d e259 e83d 052e 39bd
00000060: e69a 34bd 9c4e ff3d 9054 b43d cac1 b9bd
00000070: 2c8a d1bc e624 083d 5b15 12bd 41e0 ccbc
00000080: b973 80bd 1382 90bd 3cb4 e63d 9827 cabd
00000090: a034 bfbd a18b d33c c2c5 da3a 786f 8dbd
000000a0: 7f12 e53b 7950 763d b9b7 b73d a59d 8d3d
000000b0: 259a 963c 1e1e 9dbd a2c6 9abd a465 bc3d
000000c0: 8d80 423d a504 203d 5f84 c3bb 5640 b53d
000000d0: 8b3c 233c 4427 5d3d 66c6 9f3d 2cfc 213d
000000e0: 8725 293d e8a3 583b a8e6 b83d 3e93 91bd
000000f0: 25b1 c93d 666d d83d 5d4d 993c c0c7 11bd
00000100: 307d 113e 97f3 1c3d a7a3 87bd 4504 f8bc
00000110: 157f eebd 08c7 e3bc 61e0 bcbd 56a7 b53d
00000120: 476f 0ebd 8504 123e 56d3 03bd 4315 c83c
00000130: 638f c53d 3983 6bbd 1470 df3c fe19 22bc
00000140: da0a 8ebc 5e48 8ebd 036c 963d e50b b23d
00000150: 5031 973c 02b9 bebb aadd b2bd 7b63 a4bd
00000160: ce59 7abc dde9 713d 3af1 1cbd e435 e9bd
00000170: d99b 71bd 3658 0b3d cc19 c13c 3b3d 98bd
00000180: f357 1b3d 46a8 85bd 77dc c4bd 77e8 77bc

mlp2.2.weight f4 [50, 100]
-0.111483626 -0.04482427 -0.09949378 0.018490855 -0.0034829131 0.030709622 0.03923614 0.0978455
0.032524876 -0.009571464 -0.044257242 0.0762499 0.08962034 -0.09838538 -0.07870857 0.03642215
-0.028619299 -0.047385246 0.012796593 -0.010025523 0.02558072 0.019933414 0.034753207 -0.13862683
-0.10114548 -0.021824613 -0.029621372 0.08598993 -0.020049587 -0.039613713 0.039140057 -0.07883253
-0.06840574 0.027608123 0.09945875 0.0071002482 -0.05796187 -0.11167075 0.01790234 0.03897062
-0.0088699 0.001186554 0.062475886 -0.011331066 -0.08813108 0.09535702 0.059087906 0.0077756913
-0.07103488 0.037892908 -0.048503097 0.0025449689 -0.030383142 -0.030385783 -0.11244564 0.09446018
-0.032688536 0.039180312 0.121317506 0.14379445 0.03821991 -0.017479366 0.06793699 0.11702972
-0.07855525 0.0068022874 -0.040397577 0.02342503 -0.1348543 -0.051159766 -0.087957725 0.0038270138
0.017676108 0.07323059 -0.09207973 -0.06396779 0.08873565 -0.001090151 -0.008366304 0.10702083
0.05151336 -0.049399782 -0.15572633 -0.09405305 0.11528991 0.07625711 -0.08914595 0.032378554
-0.09686415 0.06724821 0.014808712 0.07343327 -0.03630938 -0.00778773 -0.077563904 0.0879641
-0.10295406 0.057899844 0.04698192 -0.107042015 -0.116413996 0.185478 -0.15201037 -0.13530985
-0.071627244 -0.059909113 -0.055021025 0.1142825 -0.09070253 -0.00046569636 0.0046567614 0.003533012
0.14295422 0.07184501 -0.07053122 -0.00923136 -0.03213533 0.07752408 0.092690974 0.029894175
0.061460327 -0.095973514 0.062426597 -0.10701476 -0.060689207 0.053464912 0.05615002 0.06909901
0.013376826 0.013708855 -0.03983316 -0.010516162 -0.03935865 -0.033856105 0.059256237 0.016632987
0.07732956 -0.017337324 0.006097873 -0.10617274 -0.0003890687 -0.018226331 0.08017091 0.07577203
-0.009638139 -0.03232711 -0.15825239 -0.08505267 -0.041461866 0.068958424 -0.016835049 0.13383219
-0.019753873 -0.15354545 0.11235593 -0.10977863 0.0045118276 0.16653126 0.06274679 -0.002380653
0.0658279 0.08206138 0.16835918 0.11608767 0.035934363 -0.031636 -0.097817875 0.056509435
-0.02642183 -0.12600784 0.061388023 -0.104942754 -0.008637041 0.010358282 0.13083777 -0.08256452
0.005136775 -0.08504766 -0.060052305 0.002347085 -0.047340862 0.023457218 -0.0051122964 -0.09472682
-0.09148747 -0.07109828 0.039205413 0.0040359385 0.051142994 -0.118505135 -0.10337948 -0.08055382
0.09087862 -0.053429168 0.010860293 0.023421265 0.0444065 0.02489153 -0.0037751198 -0.074613854
0.00739475 -0.049702864 0.04029601 0.08986343 0.052087225 -0.011062451 -0.000338889 -0.05465034
0.047343068 -0.057135463 0.034054123 -0.00889629 -0.022374602 -0.001286939 -0.055921536 0.05872183
0.09286127 -0.09954103 -0.05758631 -0.09508976 -0.009837244 0.052887786 -0.0895533 0.09059677
-0.07091648 -0.07916483 -0.0604685 -0.05194744 -0.05867979 -0.013250133 0.12156114 -0.049184583
-0.015113764 0.033178896 -0.024413953 0.031810224 0.0981389 -0.08061117 0.011683336 -0.08683849
-0.008454126 0.041932292 0.028074486 0.0047805915 -0.0707941 -0.02745165 0.07320143 0.023987362
0.0674852 -0.015658367 0.057582073 -0.09508248 0.06997741 0.031519126 -0.12860426 0.07299212
00000000: 8751 e4bd a799 37bd 65c3 cbbd 227a 973c
00000010: 9641 64bb bf92 fb3c 13b6 203d 3963 c83d
00000020: ce38 053d a1d1 1cbc 1547 35bd e828 9c3d
00000030: de8a b73d 467e c9bd f531 a1bd 642f 153d
00000040: 0573 eabc 0817 42bd cda8 513c 1742 24bc
00000050: a88e d13c 664b a33c 6159 0e3d 31f4 0dbe
00000060: 5d25 cfbd 88c9 b2bc 85a8 f2bc 7d1b b03d
00000070: 083f a4bc fd41 22bd 5351 203d f372 a1bd
00000080: 4f18 8cbd 6e2a e23c 07b1 cb3d 33a9 e83b
00000090: 6d69 6dbd a2b3 e4bd eea7 923c a89f 1f3d
000000a0: 0f53 11bc 2586 9b3a b7e6 7f3d efa5 39bc
000000b0: 117e b4bd 8b4a c33d 2906 723d 3acb fe3b
000000c0: bc7a 91bd 9835 1b3d 2fab 46bd 7ec9 263b
000000d0: 11e6 f8bc 9beb f8bc e649 e6bd 5774 c13d
000000e0: 6ae4 05bd 897b 203d 5075 f83d da3e 133e
000000f0: 7b8c 1c3d e330 8fbc 8c22 8b3d 47ad ef3d
00000100: 93e1 a0bd b9e5 de3b ee77 25bd d9e5 bf3c
00000110: 3f17 0abe e78c 51bd 2e23 b4bd a3ce 7a3b
00000120: 7ccd 903c ebf9 953d 4c94 bcbd 8b01 83bd
00000130: 09bb b53d 66e3 8eba d312 09bc bd2d db3d
00000140: acff 523d 6d57 4abd b976 1fbe e39e c0bd
00000150: 1e1d ec3d b02c 9c3d 2792 b6bd 609f 043d
00000160: b660 c6bd 6eb9 893d 3da0 723c 2f64 963d
00000170: 25b9 14bd 3730 ffbb d3d9 9ebd 8626 b43d
00000180: 94d9 d2bd 6328 6d3d 1d70 403d d838 dbbd
00000190: 766a eebd f2ed 3d3e 9ba8 1bbe aa8e 0abe
000001a0: 4eb1 92bd 4263 75bd ba5d 61bd f20c ea3d
000001b0: 40c2 b9bd b528 f4b9 bf97 983b 1b8a 673b
000001c0: 9762 123e 7a23 933d ac72 90bd 213f 17bc
000001d0: 56a0 03bd f2c4 9e3d c4d4 bd3d a1e4 f43c
000001e0: d3bd 7b3d c38d c4bd 08b3 7f3d 8e2a dbbd
000001f0: 3f95 78bd 06fe 5a3d 90fd 653d c883 8d3d
00000200: 7a2a 5b3c 1b9b 603c 1828 23bd fb4b 2cbc
00000210: 8936 21bd b3ac 0abd abb6 723d e741 883c
00000220: f65e 9e3d 0107 8ebc abd0 c73b 1871 d9bd
00000230: ebfb cbb9 634f 95bc a530 a43d 5e2e 9b3d
00000240: 49e9 1dbc 6f69 04bd ea0c 22be 1830 aebd
00000250: ebd3 29bd 133a 8d3d a8e9 89bc 4e0b 093e
00000260: e0d2 a1bc 053b 1dbe de1a e63d 9ed3 e0bd
00000270: f4d7 933b 2c87 2a3e 6481 803d bb04 1cbb
00000280: c7d0 863d cc0f a83d 5966 2c3e 5fbf ed3d
00000290: e92f 133d c094 01bd bd54 c8bd 7076 673d
000002a0: 9872 d8bc 3308 01be 0272 7b3d 3aec d6bd
000002b0: 6082 0dbc c9b5 293c 56fa 053e 9617 a9bd
000002c0: 6452 a83b 782d aebd 68f9 75bd 8dd1 193b
000002d0: 7ee8 41bd 5a29 c03c 0d85 a7bb 2300 c2bd
000002e0: c85d bbbd fa9b 91bd db95 203d e83f 843b
000002f0: 517b 513d d2b2 f2bd 9fb8 d3bd 67f9 a4bd
00000300: 921e ba3d 8bd8 5abd 5fef 313c f4dd bf3c
00000310: 97e3 353d 52e9 cb3c 0068 77bb 26cf 98bd
00000320: a94f f23b 3b95 4bbd 6e0d 253d 510a b83d
00000330: 6a59 553d 483f 35bc e9ac b1b9 09d9 5fbd
00000340: ceea 413d e006 6abd 567c 0b3d bfc1 11bc
00000350: f14a b7bc 82ae a8ba fb0d 65bd 4d86 703d
00000360: 0d2e be3d 2bdc cbbd 9fdf 6bbd 6cbe c2bd
00000370: 642c 21bc dda0 583d b867 b7bd cd8a b93d
00000380: a93c 91bd 2c21 a2bd d1ad 77bd d7c6 54bd
00000390: 385a 70bd 1617 59bc 0cf5 f83d c675 49bd
000003a0: b99f 77bc 98e6 073d c5ff c7bc 704b 023d
000003b0: 0cfd c83d 7817 a5bd 776b 3f3c 61d8 b1bd
000003c0: 2d83 0abc 32c1 2b3d 77fc e53c 82a6 9c3b
000003d0: 7ffc 90bd 48e2 e0bc a2ea 953d 2581 c43c
000003e0: ae35 8a3d fa45 80bc 2edb 6b3d 9aba c2bd
000003f0: 5150 8f3d 331a 013d d6b0 03be e57c 953d

mlp2.2.bias f4 [50]
-0.12855914 0.00053547346 0.0037929558 -0.041399393 -0.032600157 -0.092358775 0.03317445 0.0028838343
0.008174538 -0.008827931 0.04603113 0.04768139 0.114807114 -0.019693617 0.10294701 0.000417089
-0.08759048 -0.0768516 0.019145716 -0.07286973 -0.028198209 -0.10504591 -0.019314166 -0.019088205
0.03460667 0.07960719 -0.03457968 0.01603991 -0.020862494 0.03022018 0.043646846 -0.020488642
0.061334185 -0.104002036 0.012586461 0.1180182 0.0439928 -0.05205096 0.0726244 0.027575407
0.1013657 0.031548064 -0.04327074 -0.052954946 -0.06263534 -0.051139724 -0.020201875 0.05401236
-0.013065027 0.09994432
00000000: 02a5 03be 045f 0c3a 3d93 783b 6992 29bd
00000010: be87 05bd 9926 bdbd efe1 073d b6fe 3c3b
00000020: 7fee 053c 07a3 10bc 238b 3c3d 904d 433d
00000030: fe1f eb3d 8254 a1bc e2d5 d23d bdac da39
00000040: a362 b3bd 5f64 9dbd 7ad7 9c3c ba3c 95bd
00000050: eeff e6bc 4f22 d7bd be38 9ebc de5e 9cbc
00000060: b9bf 0d3d 1809 a33d 6ca3 0dbd 2166 833c
00000070: d2e7 aabc 5090 f73c 09c7 323d ccd7 a7bc
00000080: 8e39 7b3d 05ff d4bd 7237 4e3c 87b3 f13d
00000090: cb31 343d 6333 55bd 1abc 943d d2e5 e13c
000000a0: d298 cf3d 8b38 013d a93c 31bd 49e7 58bd
000000b0: f546 80bd e377 51bd 677e a5bc 103c 5d3d
000000c0: b20e 56bc 9caf cc3d

attention.0.weight f4 [100, 200]
0.018471764 0.0012336532 -0.042677965 0.004627132 -0.044598542 -0.02770057 0.04490312 0.049523387
0.012818034 0.06483695 0.030411452 0.067686066 -0.01942633 -0.039230455 0.05999129 0.027903484
-0.007594169 0.03309564 0.0018458269 0.025960919 0.054573007 -0.058044918 0.04129015 0.058311872
0.0103611965 0.049378157 -0.038920768 0.022470284 0.03818813 -0.060448278 0.0027994553 -0.04665892
0.03657021 -0.00843569 0.04460079 0.056019478 -0.008142943 0.005464902 0.070201755 0.057643946
-0.0485738 0.03981767 0.043458834 0.05691943 -0.05427064 0.097612016 -0.035167232 0.012092264
0.028873764 -0.044496596 -0.037852064 0.06510511 0.030684322 -0.057866894 0.024377923 0.057272423
0.062494565 -0.053263433 0.053840842 0.1615213 0.053559422 -0.015431169 0.051372968 -0.07578988
0.03944378 -0.016631167 -0.029297542 0.042330593 0.043731447 0.07342572 0.058537398 -0.029757978
-0.012895382 0.058674973 0.026640596 0.044940904 -0.03923917 -0.0060308254 0.010063523 0.03669085
-0.06829186 -0.033210993 0.042983904 0.042851288 -0.048206132 0.01088001 -0.0019007323 -0.05902229
-0.053377964 -0.024224347 0.03478813 -0.052805807 0.020646688 -0.03515793 0.022365635 -0.03460697
-0.028651379 0.004933834 -0.023301812 0.06313198 0.045403987 0.053245973 -0.059602123 0.039061062
0.032973528 0.029849203 0.031009939 -0.039810117 0.04966141 0.03168808 0.016921103 0.033472322
0.009292501 0.06640006 -0.010280048 -0.006019354 0.018200258 -0.038342033 -0.012541869 -0.01708338
0.048513215 0.035419963 0.016616026 0.024279185 0.036610372 -0.052913804 0.0325239 -0.07026887
-0.0028019263 -0.032957584 -0.0021177258 0.04424076 0.04579073 -0.009932061 0.011047759 -0.019574221
-0.039007332 -0.03128035 0.04138947 -0.01469219 0.07449221 -0.05688938 -0.044399 0.059178427
0.044633664 0.008038869 -0.039971653 -0.010127668 -0.040149655 0.058841713 0.0024741343 0.00061584695
-0.05641781 -0.022769013 0.065427765 0.01648318 0.04216216 -0.005688439 -0.033344414 0.013044331
-0.04231483 0.053669345 0.0716698 -0.011644031 -0.01945558 0.0018161137 0.023459159 0.046518028
-0.058303718 -0.015504164 -0.017300589 -0.060599953 0.06721852 -0.01606241 0.0032604884 0.052679155
-0.01077706 0.023490744 0.0449749 -0.06927423 -0.05722376 -0.0015790743 -0.0042750794 0.026551705
0.054112945 0.033162415 0.06798379 -0.0646986 0.047427878 0.06744796 0.0691613 0.018950835
-0.024227865 -0.050444786 -0.018139083 0.05298759 -0.014227107 0.001046881 0.06607842 0.042789593
0.06847981 0.029016426 -0.024024496 -0.034932617 -0.04113698 0.013978151 0.04741349 -0.034078505
0.0132346805 -0.047917366 0.012909776 -0.05672434 -0.0021661804 0.059363928 -0.03982946 0.06693287
0.025812129 0.053333297 -0.00090492156 -0.053751715 0.034148943 0.0019322778 -0.059460204 0.061020512
0.04086085 -0.025843961 0.04304766 -0.05762043 0.002972314 0.03635865 -0.025963236 -0.010910577
0.015101829 0.011405346 -0.013442813 0.040252946 -0.06476343 -0.05359369 -0.015850468 -0.026788598
-0.012402326 0.031279605 0.022924567 -0.013540552 -0.02793454 -0.048715234 -0.047510333 -0.010944594
0.055994324 -0.05349441 -0.042450424 0.060752127 -0.06407624 0.024998924 -0.054865487 -0.022622477
00000000: 1952 973c 88b2 a13a 17cf 2ebd 329f 973b
00000010: f6ac 36bd 4eec e2bc 55ec 373d 09d9 4a3d
00000020: bb02 523c 3cc9 843d 7021 f93c fe9e 8a3d
00000030: f823 9fbc 1db0 20bd 6db9 753d d995 e43c
00000040: 82d8 f8bb 4b8f 073d acef f13a feab d43c
00000050: f287 5f3d 82c0 6dbd dc1f 293d 6ed8 6e3d
00000060: 02c2 293c c040 4a3d 626b 1fbd 9a13 b83c
00000070: 286b 1c3d 9d98 77bd 1177 373b 6c1d 3fbd
00000080: a5ca 153d d935 0abc 51af 363d ae74 653d
00000090: fa69 05bc ec12 b33b f0c5 8f3d 0f1c 6c3d
000000a0: 52f5 46bd da17 233d e401 323d 5924 693d
000000b0: e44a 5ebd cfe8 c73d 840b 10bd a21e 463c
000000c0: ac88 ec3c 1042 36bd c40a 1bbd d455 853d
000000d0: b05d fb3c d605 6dbd 36b4 c73c 7d96 6a3d
000000e0: 4dfa 7f3d c22a 5abd 3788 5c3d d765 253e
000000f0: 2061 5b3d 04d3 7cbc 766c 523d b937 9bbd
00000100: cd8f 213d 163e 88bc 6601 f0bc d862 2d3d
00000110: bf1f 333d 3960 963d e9c4 6f3d 01c7 f3bc
00000120: 2747 53bc 2b55 703d 613d da3c f413 383d
00000130: 40b9 20bd 3b9e c5bb 7ae1 243c 2549 163d
00000140: 9adc 8bbd 4008 08bd e40f 303d d584 2f3d
00000150: cb73 45bd 1242 323c fe21 f9ba 5bc1 71bd
00000160: daa2 5abd 2372 c6bc 007e 0e3d e74a 58bd
00000170: 3e23 a93c c301 10bd 2338 b73c 0ac0 0dbd
00000180: 4cb6 eabc 00ac a13b 71e3 bebc 574b 813d
00000190: 88f9 393d 7318 5a3d 5b21 74bd 7efe 1f3d
000001a0: 400f 073d 5186 f43c 8e08 fe3c ef0f 23bd
000001b0: c369 4b3d 5ccb 013d 209e 8a3c 461a 093d
000001c0: 933f 183c c1fc 873d a56d 28bc 003e c5bb
000001d0: b518 953c 890c 1dbd 697c 4dbc 72f2 8bbc
000001e0: cbb5 463d 8614 113d 551e 883c 24e5 c63c
000001f0: c2f4 153d 25bc 58bd c837 053d 20e9 8fbd
00000200: 86a0 37bb 88fe 06bd 8bc9 0abb cd35 353d
00000210: 0f8f 3b3d 15ba 22bc a901 353c 1e5a a0bc
00000220: 27c6 1fbd d31f 00bd 0188 293d 83b7 70bc
00000230: 5f8f 983d d704 69bd badb 35bd 1465 723d
00000240: cad1 363d 76b5 033c 51b9 23bd 85ee 25bc
00000250: f773 24bd 0204 713d 1625 223b ca70 213a
00000260: 5d16 67bd 1586 babc fefe 853d bc07 873c
00000270: 3bb2 2c3d 1666 babb 2794 08bd e4b7 553c
00000280: 5152 2dbd 63d4 5b3d 9ec7 923d 9bc6 3ebc
00000290: 4f61 9fbc aa0a ee3a 6c2d c03c b089 3e3d
000002a0: e1cf 6ebd 2d05 7ebc f7b9 8dbc a837 78bd
000002b0: dda9 893d 5195 83bc ebad 553b 19c6 573d
000002c0: 4492 30bc a96f c03c 9a37 383d a6df 8dbd
000002d0: 7663 6abd f1f8 ceba f715 8cbb f682 d93c
000002e0: 89a5 5d3d 50d5 073d 163b 8b3d b380 84bd
000002f0: bc43 423d 2822 8a3d 71a4 8d3d c83e 9b3c
00000300: 8479 c6bc 319f 4ebd 6a98 94bc 8409 593d
00000310: d018 69bc 7f37 893a 1f54 873d 2444 2f3d
00000320: 253f 8c3d dbb3 ed3c 05cf c4bc 8115 0fbd
00000330: 407f 28bd 9d04 653c a634 423d e795 0bbd
00000340: 46d6 583c 0045 44bd 8683 533c c857 68bd
00000350: 7af6 0dbb 9727 733d 3724 23bd 1a14 893d
00000360: f573 d33c 0474 5a3d 4238 6dba c22a 5cbd
00000370: c3df 0b3d 7c44 fd3a 8b8c 73bd a5f0 793d
00000380: b55d 273d b7b6 d3bc be52 303d 6603 6cbd
00000390: 27cb 423b cfec 143d dab0 d4bc 47c2 32bc
000003a0: a96d 773c 7ddd 3a3c 3f3f 5cbc 46e0 243d
000003b0: b0a2 84bd 0f85 5bbd d7d8 81bc c373 dbbc
000003c0: 2033 4bbc 0b1f 003d 4dcc bb3c 31d9 5dbc
000003d0: fad6 e4bc a089 47bd 329a 42bd f450 33bc
000003e0: 4e5a 653d f41c 5bbd 7fe0 2dbd 39d7 783d
000003f0: 673a 83bd 8bca cc3c a2ba 60bd c652 b9bc

attention.0.bias f4 [100]
0.0047840853 -0.04153835 0.0010062233 0.043384712 -0.04741758 0.0037574063 0.016266344 -0.050247926
0.027208786 -0.020394702 -0.0073739663 -0.021736927 -0.06654856 -0.055926442 -0.023899183 0.037473436
-0.021695605 -0.008550207 -0.009165871 0.023409348 0.023129571 0.015220085 0.063319005 0.039965004
0.020231713 -0.013969828 -0.058648344 -0.042580705 0.010148214 0.07119888 -0.041687537 0.03942127
-0.0131716095 -0.035468716 0.023334362 -0.06949067 0.014320892 -0.0075573632 -0.040014468 0.036982354
0.059398603 0.05350927 0.051075134 0.012830057 0.022305835 0.045070004 0.0416078 0.029256904
0.032608237 0.027193505 0.033851232 -0.00770698 0.048780497 -0.0323389 0.0031729396 -0.049049824
0.049476296 -0.057527762 -0.001710478 -0.064957246 -0.012012888 0.009383587 -0.033828683 0.03537552
0.024789456 0.061579496 -0.009217753 0.027291762 -0.008110507 0.009374714 -0.0069396016 0.008260278
0.029947927 -0.03587189 0.0024845556 0.05844624 0.012891947 0.07045128 -0.026031988 -0.010060179
-0.0624444 0.027610622 -0.05497323 -0.032843582 0.07801548 -0.050753985 -0.04564013 -0.05260337
0.044861622 -0.032711968 0.043439046 0.01181911 -0.05873126 0.06372763 -0.058013316 -0.07465473
-0.024426091 -0.013276036 0.05754774 -0.013281545
00000000: d1c3 9c3b 1e24 2abd 40e3 833a 2bb4 313d
00000010: f038 42bd d13e 763b ff40 853c c5d0 4dbd
00000020: f6e4 de3c ca12 a7bc 50a1 f1bb a411 b2bc
00000030: 9d4a 88bd 2013 65bd 38c8 c3bc bf7d 193d
00000040: fbba b1bc 2b16 0cbc 732c 16bc f6c4 bf3c
00000050: 3a7a bd3c aa5d 793c 65ad 813d 58b2 233d
00000060: fabc a53c b5e1 64bc 3f39 70bd 1b69 2ebd
00000070: b244 263c b8d0 913d 8dc0 2abd 3378 213d
00000080: bccd 57bc a547 11bd b427 bf3c 2051 8ebd
00000090: 2da2 6a3c c2a3 f7bb 36e6 23bd cf7a 173d
000000a0: f34b 733d 892c 5b3d 2934 513d 2935 523c
000000b0: baba b63c 539b 383d f16c 2a3d 2dac ef3c
000000c0: 3790 053d eac4 de3c 97a7 0a3d d68a fcbb
000000d0: 0fce 473d cb75 04bd 18f1 4f3b 78e8 48bd
000000e0: a8a7 4a3d 3ba2 6bbd 1e32 e0ba 4e08 85bd
000000f0: b4d1 44bc 9ebd 193c f28f 0abd ece5 103d
00000100: 4213 cb3c c83a 7c3d 0f06 17bc f992 df3c
00000110: efe1 04bc 6798 193c 9965 e3bb 1e56 073c
00000120: 5b55 f53c 67ee 12bd edd3 223b 5365 6f3d
00000130: bf38 533c c348 903d 0941 d5bc 73d3 24bc
00000140: b3c5 7fbd ac2f e23c 9c2b 61bd fe86 06bd
00000150: 94c6 9f3d 69e3 4fbd 25f1 3abd a276 57bd
00000160: d2c0 373d fcfc 05bd 24ed 313d f1a4 413c
00000170: 3190 70bd a283 823d 5f9f 6dbd 94e4 98bd
00000180: 3a19 c8bc bb83 59bc 2eb7 6b3d d69a 59bc

attention.2.weight f4 [100, 100]
0.09228454 0.039252605 0.042966675 0.028366085 -0.09458317 0.019355616 -0.01359716 0.0021772385
0.058227584 0.011449022 -0.065562904 0.008226545 0.02310321 -0.026274338 -0.025708104 0.015612219
0.02284577 -0.045458823 -0.066380516 -0.037253115 0.073883615 0.023650575 -0.086652614 -0.07426442
0.008242016 0.0422464 0.026428638 0.063047096 -0.06761857 -0.08397955 0.09502417 -0.07424625
-0.027451253 -0.08127679 -0.07353082 0.094574146 -0.09416186 0.07514204 -0.07346654 -0.017940534
-0.085745856 0.07273834 0.09668722 0.08602176 -0.012466797 0.08171738 0.007147127 -0.044429556
-0.09103381 0.07377016 -0.07163606 0.0430465 -0.082009636 -0.0672127 -0.082283914 0.07301826
-0.033694245 -0.07330658 0.0050547244 -0.03988465 -0.08536856 -0.049492154 -0.036564995 -0.033626705
-0.007885175 0.011439641 -0.039319392 -0.084923826 -0.018630024 0.06867366 -0.052075353 0.049774557
0.0904338 -0.012689329 -0.0014409806 0.02985209 -0.052712556 0.018588055 -0.03125206 0.023762872
-0.073657945 -0.08384743 0.07148495 0.05234137 -0.047040902 0.023526236 0.027031794 0.06308159
-0.07368426 0.00037594407 -0.088483445 0.053807896 -0.0024239917 -0.08121352 -0.020245373 -0.063966624
-0.0044505065 -0.07749542 0.002595074 -0.026586687 0.032940008 -0.053147424 0.058473364 -0.081836544
-0.08251528 -0.0031915673 -0.015172231 -0.07367461 0.09463302 -0.07147123 0.072414376 -0.054198287
0.068420514 0.06982613 0.051354397 -0.052987088 0.089467585 0.05599748 -0.025552504 -0.006772809
-0.0870424 -0.051528953 0.096727684 -0.07053773 0.054267257 0.1261397 -0.04146395 0.07851056
-0.073696 -0.031567205 -0.056439944 -0.04848973 0.059330426 0.072376415 0.039553776 -0.052717086
-0.026661457 -0.041095316 -0.032795385 -0.030678557 0.052200604 -0.06916474 -0.038528208 0.00096839084
0.005823666 -0.04681828 -0.05986713 -0.01503122 -0.07644682 0.049379427 -0.028423578 -0.05504681
0.093681544 0.09859234 0.080737196 -0.092166826 -0.0860445 0.042630415 -0.056942258 -0.06380698
-0.058913678 0.06666104 -0.093449414 -0.014142316 0.11470583 0.08333933 0.011149088 0.041213807
0.03907685 0.0505773 0.013407597 0.06415059 -0.08149414 0.116453946 -0.04898168 -0.0055281627
0.08269283 0.088238984 -0.05433215 -0.01528411 -0.036527123 -0.05476984 0.08612009 -0.097223125
-0.042752743 0.04652146 -0.042098362 0.06471542 -0.08597444 0.10331072 -0.052918274 -0.08543585
0.039477944 -0.0016839707 -0.05306847 -0.07389245 0.010179948 0.038738143 -0.08020798 0.035611346
0.01299566 0.09987651 -0.07616959 -0.03164354 0.050892416 0.022403214 -0.07784236 -0.036994386
-0.042946704 -0.006017814 -0.074858844 0.082727276 -0.041926097 -0.087008886 -0.013100223 0.004843986
-0.009785545 0.06839993 0.103316836 -0.080318555 0.09511559 0.019005463 -0.07584971 -0.07694785
0.02508867 0.07264688 0.028084366 0.025349919 -0.07943615 0.0444654 -1.8353367e-05 0.08542908
0.052730847 -0.07249498 0.11810152 -0.07882999 -0.0014391606 -0.03338547 0.03147262 0.056066986
-0.0053217183 0.04746838 -0.09020886 -0.077774145 0.03667142 0.06424119 0.02984329 0.012722082
0.03943466 -0.006993308 -0.06961829 -0.05606913 0.02372698 -0.07446275 -0.09559559 -0.04252154
00000000: adff bc3d 57c7 203d d3fd 2f3d fe5f e83c
00000010: d2b4 c1bd ab8f 9e3c 9fc6 5ebc 00b0 0e3b
00000020: 0c80 6e3d ae94 3b3c d845 86bd a1c8 063c
00000030: f142 bd3c 483d d7bc cd99 d2bc 65ca 7f3c
00000040: 0d27 bb3c 0833 3abd 82f2 87bd b996 18bd
00000050: 4b50 973d dabe c13c ed76 b1bd f217 98bd
00000060: 8509 073c 900a 2d3d df80 d83c d61e 813d
00000070: 9b7b 8abd 78fd abbd 089c c23d 6b0e 98bd
00000080: 73e1 e0bc 7274 a6bd 5497 96bd 17b0 c13d
00000090: efd7 c0bd 12e4 993d a075 96bd 07f8 92bc
000000a0: 869b afbd d7f7 943d f303 c63d 2d2c b03d
000000b0: 8941 4cbc 715b a73d 7232 ea3b c4fb 35bd
000000c0: ef6f babd cf14 973d edb5 92bd 8751 303d
000000d0: abf4 a7bd d0a6 89bd 7884 a8bd 998a 953d
000000e0: fa02 0abd c321 96bd 1aa2 a53b 165e 23bd
000000f0: b6d5 aebd 49b8 4abd 2dc5 15bd 28bc 09bd
00000100: d230 01bc 556d 3b3c 5f0d 21bd 8bec adbd
00000110: fe9d 98bc c7a4 8c3d f74c 55bd 68e0 4b3d
00000120: 5b35 b93d e7e6 4fbc 49df bcba 5f8c f43c
00000130: 1fe9 57bd fa45 983c 2902 00bd 5baa c23c
00000140: fad9 96bd 34b8 abbd b466 923d e863 563d
00000150: f6ad 40bd 18ba c03c c871 dd3c ec30 813d
00000160: c6e7 96bd 5c1a c539 cf36 b5bd ab65 5c3d
00000170: d5db 1ebb 4653 a6bd a0d9 a5bc ef00 83bd
00000180: 8ed5 91bb ebb5 9ebd 1e12 2a3b 53cc d9bc
00000190: 1aec 063d 1db1 59bd c481 6f3d eb99 a7bd
000001a0: c5fd a8bd 9d29 51bb f394 78bc b7e2 96bd
000001b0: f5ce c13d 825f 92bd fd4d 943d 06ff 5dbd
000001c0: 0e20 8c3d 0101 8f3d fd58 523d fd08 59bd
000001d0: c83a b73d 9d5d 653d 7c53 d1bc 71ee ddbb
000001e0: 4943 b2bd 0610 53bd 2a19 c63d 1676 90bd
000001f0: 5847 5e3d c42a 013e 1ad6 29bd 25ca a03d
00000200: eeed 96bd 9d4c 01bd 922d 67bd 2b9d 46bd
00000210: 7604 733d 163a 943d 2403 223d dfed 57bd
00000220: 2169 dabc 9053 28bd 7454 06bd 9951 fbbc
00000230: 4dd0 553d 3ea6 8dbd c1cf 1dbd 9cdb 7d3a
00000240: 74d4 be3b 86c4 3fbd 3c37 75bd 8245 76bc
00000250: 2690 9cbd 1542 4a3d 90d8 e8bc c478 61bd
00000260: 1cdc bf3d c8ea c93d 8b59 a53d f6c1 bcbd
00000270: 1938 b0bd 3b9d 2e3d 493c 69bd 3cad 82bd
00000280: 784f 71bd 9585 883d 6862 bfbd 2cb5 67bc
00000290: e4ea ea3d d0ad aa3d aaaa 363c cfcf 283d
000002a0: 0c0f 203d 252a 4f3d 8aab 5b3c 6261 833d
000002b0: 66e6 a6bd 687f ee3d 04a1 48bd 9725 b5bb
000002c0: dc5a a93d a4b6 b43d 638b 5ebd 346a 7abc
000002d0: 779d 15bd 5756 60bd bb5f b03d eb1c c7bd
000002e0: 801d 2fbd 498d 3e3d 556f 2cbd 8589 843d
000002f0: 5e13 b0bd 9294 d33d d5c0 58bd fef8 aebd
00000300: a0b3 213d aeb8 dcba 535e 59bd ed54 97bd
00000310: ccc9 263c e3ab 1e3d 1544 a4bd 34dd 113d
00000320: c0eb 543c 0e8c cc3d cdfe 9bbd a89c 01bd
00000330: 9174 503d f286 b73c d16b 9fbd 6d87 17bd
00000340: e2e8 2fbd 1531 c5bb 984f 99bd eb6c a93d
00000350: b3ba 2bbd b731 b2bd 51a2 56bc 4dba 9e3b
00000360: 8d53 20bc 4315 8c3d c797 d33d 0e7e a4bd
00000370: f6cb c23d 58b1 9b3c 1857 9bbd d696 9dbd
00000380: c186 cd3c e3c7 943d 2f11 e63c a2aa cf3c
00000390: 6caf a2bd 5a21 363d 8ef5 99b7 71f5 ae3d
000003a0: 4dfc 573d 4078 94bd 36df f13d 9e71 a1bd
000003b0: 37a2 bcba 34bf 08bd 6fe9 003d 7fa6 653d
000003c0: cf61 aebb 346e 423d 6cbf b8bd 0d48 9fbd
000003d0: c534 163d e390 833d ea79 f43c 4870 503c
000003e0: 3d86 213d 1f28 e5bb 0994 8ebd bea8 65bd
000003f0: 155f c23c ed7f 98bd 9fc7 c3bd 112b 2ebd
