crowd_nav/rl_model.pth (torch, 392355 bytes, 20 tensors)

mlp1.0.weight f4 [150, 13]
0	0xbaf0e169	-0.0018377724
1	0x3d576c82	0.052593715
2	0x3e658f17	0.22417866
3	0x3a553598	0.0008133291
4	0x3e1eb6ec	0.15499467
5	0xbe8b8a4c	-0.2725395
6	0xbd6c1aee	-0.05764287
7	0x3de24804	0.11048892
8	0xbe45d2ae	-0.19318649
9	0x3db65670	0.089032054
10	0xbda94ef2	-0.08267011
11	0xbdbaf30b	-0.09128388
12	0x3a5c310c	0.00083996425
13	0xbd1a1ad1	-0.03762323
14	0xbdaaafba	-0.083342984
15	0xbdd946c5	-0.10609201
16	0x3de48332	0.11157836
17	0xbce9632d	-0.028489674
18	0x3e76ef77	0.24114786
19	0xbe3fa1c5	-0.18714054
20	0x3ddb9792	0.10722269
21	0xbe4ea36d	-0.2017953
22	0xbe1c5777	-0.1526774
23	0x3e110215	0.1416095
24	0x3e391213	0.18073301
25	0xbd9355bf	-0.07194089
26	0xbe866783	-0.26250848
27	0xbe02849a	-0.12745896
28	0xbe767d84	-0.24071318
29	0xbe1f964b	-0.15584676
30	0x3e3ae884	0.1825276
31	0xbe887f05	-0.26659408
32	0xbd88138e	-0.06644355
33	0x3e06ac15	0.13151582
34	0x3d93c59e	0.07215427
35	0x3de63328	0.11240226
36	0xbe05264d	-0.13002892
37	0x3da5bfc6	0.080932185
38	0x3e88df11	0.26732686
39	0x3e8c4eb4	0.27403796
40	0xbdc760dc	-0.09735271
41	0xbe87ed2c	-0.26548135
42	0x3c0aa515	0.00846221
43	0x3e827405	0.2547914
44	0x3e27d988	0.16391575
45	0xbe01b99c	-0.1266846
46	0x3e3c4569	0.18385853
47	0x3debe0d2	0.115174904
48	0xbd1fe3eb	-0.03903572
49	0x3d718412	0.058963843
50	0xbe19c00d	-0.15014668
51	0xbe6e1897	-0.23251568
52	0xbcca2b37	-0.02467881
53	0x3e24c4ad	0.16090651
54	0xbd741ffe	-0.059600823
55	0xbe2046d4	-0.15652019
56	0x3e0cde17	0.13756596
57	0xbe35670b	-0.17715089
58	0x3e472aa7	0.19449864
59	0x3cf8d9da	0.030377317
60	0x3d4dadab	0.05021445
61	0x3e214302	0.15748218
62	0x3e4a9520	0.19783449
63	0x3d482511	0.048863474
64	0x3dbc382d	0.09190402
65	0x3e799f30	0.24377131
66	0x3d50f2e0	0.051012874
67	0x3d6aae6f	0.05729526
68	0xbd9b1416	-0.075721905
69	0xbe55ba2e	-0.20871803
70	0xbb8a0a49	-0.004212652
71	0x3e7b2ff9	0.24530019
72	0xbe8a5a14	-0.2702185
73	0xbe741df0	-0.23839545
74	0xbe834608	-0.25639367
75	0x3decd6ef	0.11564433
76	0x3e6172ad	0.22016402
77	0xbdee2d81	-0.11629773
78	0xbe4308e3	-0.19046359
79	0x3c70cd7f	0.014697432
80	0xbe58b4b8	-0.21162689
81	0xbde21ddc	-0.110408515
82	0x3e1e7413	0.15473966
83	0x3e8a5210	0.27015734
84	0xbe6538da	-0.22384968
85	0x3e43930d	0.19099064
86	0xbe2503e1	-0.16114761
87	0xbd5098c8	-0.050926954
88	0x3d9a8a1f	0.07545876
89	0x3e7b7269	0.24555363
90	0x3d0cd1e5	0.03437986
91	0x3d409124	0.047013417
92	0xbda42500	-0.0801487
93	0x3e220f25	0.1582609
94	0x3d916aa8	0.07100421
95	0x3e593241	0.21210577
96	0xbe81bd9c	-0.25339973
97	0xbdb78ffb	-0.08963009
98	0xbd0986c1	-0.033575777
99	0x3da93193	0.08261409
100	0x3d061505	0.03273489
101	0xbe2ebbf8	-0.17063892
102	0xbe374753	-0.17898302
103	0xbd4c9c83	-0.04995395
104	0x3d17cc72	0.03706021
105	0x3e572def	0.21013616
106	0xbdb12fc7	-0.08651691
107	0x3e1d33d2	0.15351799
108	0x3e053b3b	0.13010876
109	0x3bf13349	0.00736085
110	0xbcf365fb	-0.029711714
111	0xbd84590d	-0.064622976
112	0xbd5da588	-0.05411294
113	0xbd2a9134	-0.041642383
114	0xbe471912	-0.19443157
115	0x3e1a0098	0.15039289
116	0xbd7ec0ea	-0.062195696
117	0x3cb591ba	0.022164214
118	0xbe528a80	-0.20560646
119	0x3e18fa4f	0.14939235
120	0x3e8b5210	0.27211046
121	0xbd028a31	-0.03187007
122	0x3e3fad8f	0.18718551
123	0x3e0210ee	0.1270177
124	0xbde95f6e	-0.11395155
125	0xbd2aee88	-0.041731387
126	0x3e6d8258	0.23194253
127	0xbe20cab5	-0.15702327
128	0xbe30e315	-0.17274125
129	0x3e2fc67a	0.17165557
130	0x3e41bd5d	0.18919893
131	0xbe88eb0c	-0.26741827
132	0x3e7bc5d3	0.24587183
133	0x3e48dc07	0.19615184
134	0x3d9be34d	0.076117136
135	0x3dbf9fa4	0.09356621
136	0x3cf58747	0.029971732
137	0xbd819861	-0.06327892
138	0x3e215db8	0.15758407
139	0xbdbb4933	-0.09144821
140	0xbe3f7746	-0.18697843
141	0xbe847145	-0.25867668
142	0xbcbd7c14	-0.023130454
143	0xbd4099fc	-0.04702185
144	0x3e88ff20	0.26757145
145	0x3d98bf85	0.074584045
146	0x3e252c0e	0.16130087
147	0x3d90acdd	0.07064221
148	0x3e126c7d	0.14299197
149	0xbdb8286d	-0.089920856
150	0xbe10649f	-0.14100884
151	0x3c1bf3da	0.009518588
152	0xbe6af003	-0.2294312
153	0x3e4aece4	0.19816929
154	0xbe3c267c	-0.18374056
155	0x3e755431	0.23957898
156	0xbd83038c	-0.06397161
157	0xbe2cc794	-0.16873008
158	0xbd9310bc	-0.07180926
159	0xbe24ba25	-0.16086634
160	0xbe3974dc	-0.18110985
161	0xbd0727e0	-0.032997012
162	0x3d268019	0.040649507
163	0x3e79ee0d	0.24407215
164	0x3e826dbb	0.25474343
165	0xbe5c7092	-0.21527317
166	0xbdeb96f5	-0.11503402
167	0xbe65d3b9	-0.22444047
168	0x3e29527e	0.16535375
169	0xbdb99dae	-0.09063278
170	0xbe74a073	-0.23889332
171	0x3c99d5d7	0.018778725
172	0x3da077c7	0.07835346
173	0x3e86e430	0.26345968
174	0x3e2eb71b	0.17062037
175	0xbe760339	-0.24024667
176	0x3e5d1466	0.21589813
177	0x3cbacc14	0.02280239
178	0xbb4597aa	-0.0030150213
179	0xbe70fa0a	-0.23532882
180	0x3cad087c	0.02112221
181	0xbd264008	-0.04058841
182	0xbe518862	-0.20462182
183	0xbe4014f3	-0.18757991
184	0xbe56fdf6	-0.20995316
185	0xbe6d6cca	-0.23186031
186	0x3e3d9014	0.18511993
187	0x3e4b27f4	0.1983946
188	0x3de79902	0.11308481
189	0x3dfcf559	0.12351484
190	0x3e83bfee	0.25732368
191	0xbe358ccc	-0.17729491
192	0xbdcc9e24	-0.099911004
193	0xbe84f2e4	-0.2596656
194	0xbe8715e6	-0.26383895
195	0xbe23f9c5	-0.16013248
196	0xbd60f300	-0.054919243
197	0xbcfd37ca	-0.030910391
198	0x3e2fc2b7	0.17164122
199	0x3e65ef2a	0.22454515
200	0xbe4159b6	-0.18881878
201	0x3df61b44	0.12016919
202	0x3dbcc223	0.09216716
203	0xbe197446	-0.14985761
204	0xbdbfbdc0	-0.09362364
205	0x3dd6e3c5	0.10492662
206	0xbe20ddea	-0.15709653
207	0x3e6eb6ae	0.23311874
208	0x3bc9946f	0.006151728
209	0xbe78bc1c	-0.24290508
210	0xbddd10a1	-0.10794187
211	0x3e13ef48	0.14446747
212	0xbd6ac4dd	-0.05731665
213	0x3dc0bec4	0.09411386
214	0xbd257c51	-0.04040176
215	0x3e812de9	0.2523034
216	0x3e4d01e2	0.2002025
217	0xbe40e5fc	-0.18837732
218	0xbe141293	-0.1446021
219	0x3e89a374	0.26882517
220	0x3e6602cc	0.22462004
221	0x3e555a73	0.20835285
222	0x3e0cc82f	0.13748239
223	0x3e8ac592	0.2710386
224	0x3e3f1137	0.1865891
225	0xbe50e2a6	-0.2039896
226	0xbe763eb4	-0.24047357
227	0xbe4ee565	-0.20204695
228	0x3e812971	0.2522693
229	0x3e04c53f	0.12965868
230	0x3e88efad	0.26745358
231	0x3e1df794	0.15426475
232	0xbd34b52e	-0.0441181
233	0x3e6e4706	0.23269281
234	0x3e42bbe5	0.19016989
235	0xbc4848dc	-0.012224402
236	0x3dfd8aed	0.123800136
237	0x3e1d6c21	0.15373279
238	0x3e3fe831	0.18740918
239	0x3e6048e1	0.21902801
240	0x3e7dee43	0.24797921
241	0x3e7bf09d	0.24603505
242	0xbe880ce0	-0.26572323
243	0xbd80cef3	-0.062894724
244	0x3e0f3099	0.13983382
245	0xbd952a96	-0.07283513
246	0x3d86be41	0.06579257
247	0x3d5dbc3d	0.054134596
248	0x3e89ab0a	0.26888305
249	0xbd99a397	-0.075019054
250	0x3ddbf525	0.10740117
251	0x3e62a379	0.22132672
252	0xbd864c9d	-0.065575816
253	0xbdee3722	-0.116316095
254	0x3cad5116	0.021156829
255	0xbe07c82d	-0.13259955

mlp1.0.bias f4 [150]
0	0x3de95f24	0.113951
1	0xbc08af83	-0.0083426265
2	0x3e8d0501	0.2754288
3	0x3ad18f21	0.001598809
4	0xbdb32195	-0.0874664
5	0xbe1d6fb8	-0.15374649
6	0xbdce51b4	-0.100741774
7	0xbe6ec0b5	-0.233157
8	0x3dceaf19	0.10091991
9	0xbe70fc98	-0.23533857
10	0x3e0b15a1	0.1358247
11	0x3e7dfa0a	0.24802414
12	0x3e87e113	0.26538906
13	0x3e4ae88e	0.19815275
14	0xbafba5c5	-0.0019199183
15	0x3df64da8	0.120265305
16	0x38d792ff	0.00010279379
17	0x3d3ac626	0.045599125
18	0x3d7b16a1	0.061300877
19	0xbe04e7df	-0.12979077
20	0xbda39173	-0.079867266
21	0x3e6be82c	0.23037785
22	0x3ddadbf2	0.106864825
23	0x3d9bc2b4	0.07605496
24	0xbd408704	-0.04700376
25	0x3dc5db71	0.09660996
26	0x3d356f6e	0.04429572
27	0x3ce944bd	0.02847516
28	0x3e222040	0.15832615
29	0x3e0edd38	0.13951576
30	0xbe314cf8	-0.17314517
31	0x3d9bf210	0.07614529
32	0xbdfb4be5	-0.12270335
33	0xbe87cba3	-0.2652255
34	0x3d9ba891	0.07600511
35	0x3dce768a	0.10081203
36	0xbd570539	-0.052495215
37	0x3e8a680a	0.270325
38	0xbe69f97b	-0.22849075
39	0x3e7fbf14	0.24975234
40	0x3e11f75f	0.14254521
41	0xbe89e6eb	-0.2693399
42	0x3daf8dc2	0.0857196
43	0x3e6f2218	0.2335285
44	0xbe57ecdc	-0.21086448
45	0x3e662aef	0.22477315
46	0x3d0cbc1d	0.034359086
47	0xbd44196f	-0.047875818
48	0x3e6aecd7	0.2294191
49	0x3bc64548	0.0060507394
50	0xbc0fc4b0	-0.008774921
51	0x3c2b5f1c	0.010459688
52	0xbd613244	-0.054979578
53	0x3e4c2562	0.19936135
54	0xbdb18804	-0.08668521
55	0x3e4924ac	0.19642895
56	0x3e84ecb2	0.25961834
57	0x3d52c473	0.05145688
58	0x3de472f9	0.11154742
59	0x3e45195f	0.1924796
60	0xbd3f45ba	-0.046697356
61	0x3d2e4973	0.042550515
62	0xbe89aefc	-0.26891315
63	0x3e7f24e5	0.24916418
64	0xbe5fd0d4	-0.21857005
65	0x3e0ad269	0.13556828
66	0xbd4e006c	-0.05029337
67	0xbe62e11b	-0.22156183
68	0x3d4e68f8	0.050393075
69	0x3e0c15c8	0.13680184
70	0x3e76d2a8	0.24103796
71	0xbc004e51	-0.007831172
72	0xbe0aaadb	-0.13541739
73	0xbe21a67b	-0.15786164
74	0x3e567b4b	0.2094547
75	0xbe8a443f	-0.27005193
76	0x3e847255	0.25868478
77	0xbe5eb8e2	-0.21750215
78	0xbe4f8ad7	-0.20267807
79	0xbe47154f	-0.19441722
80	0xbbc4ea52	-0.0060093785
81	0x3e1e6190	0.15466905
82	0x3e287b0d	0.1645319
83	0xbe623888	-0.22091877
84	0x3df07752	0.117415085
85	0x3dd9d15c	0.10635635
86	0xbe4233de	-0.18965098
87	0x3e1c501d	0.15264936
88	0x3e58d2b9	0.21174134
89	0xbe19cc9f	-0.15019463
90	0x3d91ba42	0.07115604
91	0xbe57d6db	-0.21078055
92	0x3e2b1c3b	0.16709988
93	0xbd5f9119	-0.054581735
94	0xbda381b5	-0.07983724
95	0xbe869d59	-0.26291922
96	0xbdf40e11	-0.119167455
97	0xbd071617	-0.03298005
98	0xbe62e0f5	-0.22156127
99	0xbe563bab	-0.20921199
100	0x3df34624	0.11878613
101	0xbe882eab	-0.26598105
102	0xbe87ab1e	-0.2649774
103	0x3e2572de	0.161571
104	0x3dee0f9c	0.11624071
105	0x3e11d5b9	0.14241685
106	0xbd634efa	-0.05549524
107	0xbe8b49fa	-0.27204877
108	0xbe6b3fa5	-0.22973497
109	0x3e3b9215	0.18317445
110	0xbe13c56f	-0.14430784
111	0xbe8b3728	-0.27190518
112	0x3e7ccdbf	0.24687861
113	0xbe3c4afb	-0.18387978
114	0x3e813ae1	0.25240234
115	0x3e280166	0.16406783
116	0xbe696096	-0.22790751
117	0xbce1d4da	-0.027567316
118	0x3d33c7aa	0.043891586
119	0xbe58ad19	-0.21159782
120	0x3db0789b	0.08616754
121	0x3d136efd	0.03599452
122	0x3e537e5a	0.20653668
123	0x3e3c42f1	0.18384911
124	0x3e32e5dc	0.17470497
125	0x3b041e4a	0.0020159655
126	0x3e67cc84	0.2263661
127	0xbe26de92	-0.16295841
128	0x3dfb2a22	0.122638956
129	0x3d955fa7	0.07293635
130	0x3e4ae5ec	0.1981427
131	0xbe58ba6b	-0.21164863
132	0xbe0dfcc3	-0.13865952
133	0x3d44e323	0.048068177
134	0xbe7d23b1	-0.24720646
135	0xbe5abaf6	-0.21360382
136	0x3d4202b8	0.047365874
137	0xbdec5b18	-0.11540812
138	0xbe34c25c	-0.17652267
139	0x3e4ece66	0.20195922
140	0x3c45364f	0.012036874
141	0x3df1179b	0.117720805
142	0xbe311bfb	-0.1729583
143	0x3e3045d1	0.17214133
144	0x3ce8ca22	0.028416697
145	0x3c8a0a49	0.016850607
146	0xbdedffbd	-0.11621044
147	0x3e208355	0.15675099
148	0xbe6061f3	-0.21912365
149	0xbd53feee	-0.05175679

mlp1.2.weight f4 [100, 150]
0	0x3d970481	0.07373906
1	0x3d06c7a0	0.03290522
2	0x3cc8cf19	0.024512814
3	0xbda2f435	-0.07956735
4	0xbd64d019	-0.05586252
5	0x3d28546b	0.041096132
6	0x3d0a4cf2	0.033764787
7	0xbd286c37	-0.041118827
8	0x3d0fd588	0.03511575
9	0xbd9948da	-0.074845985
10	0xbd790c84	-0.06080295
11	0x3d0b3133	0.033982467
12	0x3c866530	0.016405672
13	0xbda36b9a	-0.07979508
14	0xbb4815ef	-0.0030530652
15	0xbbb7c289	-0.005607907
16	0xbd2376f8	-0.03990838
17	0xbc637d67	-0.013884879
18	0x3d38ddaa	0.04513327
19	0x3d8837fa	0.06651302
20	0x3c92f28d	0.017937923
21	0xbc89a778	-0.016803488
22	0x3ca19e02	0.019728664
23	0x3c8e1361	0.017343225
24	0x3d0f4e7b	0.034986954
25	0x3d2037bc	0.039115652
26	0xbd689055	-0.05677827
27	0x3c8a7c31	0.016904922
28	0x3c9e2aad	0.019307459
29	0x3d0e6422	0.034763463
30	0x3d4ea16f	0.050446924
31	0x3d2dc98b	0.042428534
32	0xbce60bc7	-0.028081788
33	0x3da15fae	0.078795776
34	0xbceac99c	-0.028660588
35	0xbd4f786e	-0.05065196
36	0xbc719273	-0.014744389
37	0x3da490ad	0.08035407
38	0x3bd31451	0.006441631
39	0xbc351c94	-0.011054177
40	0xbd9309db	-0.07179614
41	0xbc37c306	-0.011215931
42	0xbcc357e8	-0.023845628
43	0xbd8fe5d2	-0.070262566
44	0xbcad2775	-0.021136979
45	0xbc893d90	-0.016752988
46	0xbd77994a	-0.060448922
47	0x3b3aa8d0	0.0028481968
48	0xbd37624a	-0.04477147
49	0x3942ef9b	0.00018590542
50	0x3bce9031	0.00630381
51	0xbd34a481	-0.044102196
52	0xbda31189	-0.07962329
53	0x3c26df70	0.010185108
54	0xbd6fe9b2	-0.05857248
55	0xbd399814	-0.04531105
56	0x3c89dc74	0.016828753
57	0xbd471b21	-0.048609857
58	0xbd813ad6	-0.0631005
59	0xbc7ca3fc	-0.015419956
60	0x3c84c92f	0.016209213
61	0x3d8a58de	0.06755231
62	0xbd58f27d	-0.05296563
63	0xbc5ad028	-0.013355292
64	0xbd4e2fa3	-0.0503384
65	0x3d744e99	0.05964527
66	0x3cd61fde	0.026138242
67	0x3c754097	0.014969013
68	0x3cc613a9	0.024179297
69	0xbae5b9c4	-0.0017526676
70	0xbb37946b	-0.0028012048
71	0x3d2e0e99	0.04249439
72	0x3d94ec97	0.072716884
73	0xbc7f57fc	-0.015584942
74	0xbcaf5f6f	-0.021407811
75	0xbd39a852	-0.04532654
76	0x3aac7e51	0.0013160204
77	0xbc8fdb87	-0.017560733
78	0xbd70009b	-0.058594327
79	0x3c747fe5	0.014923071
80	0x3cd2a780	0.025714636
81	0x3c927852	0.017879639
82	0x3d9a490d	0.075334646
83	0x3d8c4ed4	0.06850973
84	0xbd1ed91c	-0.03878127
85	0x3d245c59	0.040127132
86	0x3d6e46b7	0.058172908
87	0xbd1224d8	-0.03567967
88	0x3d0b3abb	0.033991557
89	0xbce83f19	-0.0283504
90	0xbd3f39e4	-0.04668607
91	0xbc84dcd2	-0.016218577
92	0x3d228d55	0.039685566
93	0xbbbd6cfd	-0.0057808147
94	0x3d33b617	0.043874826
95	0xbd9c1494	-0.076211125
96	0x39615a62	0.00021491342
97	0x3bdd6802	0.0067567835
98	0x3d50f53f	0.051015135
99	0x3ceb59bc	0.028729312
100	0x3ca494f3	0.020090556
101	0xbd53a541	-0.05167127
102	0xbca221a8	-0.01979144
103	0x3d6aaca4	0.05729355
104	0x3ca36738	0.01994668
105	0x3d0e2fd9	0.0347136
106	0xbd15b289	-0.036547218
107	0xbd117198	-0.035508722
108	0x3cadf2a8	0.021233872
109	0x3d77376b	0.060355585
110	0xbda3972b	-0.079878174
111	0x3cdc561d	0.02689653
112	0xbbac63b9	-0.0052609113
113	0x3d302d50	0.043011963
114	0x3c7db5eb	0.015485267
115	0xbd0a562d	-0.03377359
116	0x3d1e7eb0	0.038695037
117	0x3d1b606a	0.037933744
118	0xbd9b539f	-0.07584309
119	0x3b83efd8	0.0040263943
120	0x3c897dae	0.016783562
121	0x3d663a60	0.056208014
122	0x3b557d1d	0.0032575794
123	0xbb82ed3d	-0.003995566
124	0x3d93e65d	0.07221673
125	0xbd04f4e8	-0.032460123
126	0xbcc6bf7c	-0.024261229
127	0x3cecdfac	0.028915249
128	0xbc50b571	-0.0127385715
129	0x3d82d9e2	0.06389214
130	0xbd11f8f5	-0.035637815
131	0x3c1d04e4	0.009583686
132	0x3b94195e	0.0045196256
133	0xbd9a4c46	-0.07534079
134	0x3d643a16	0.055719458
135	0x3d581b73	0.052760553
136	0xbcf749b6	-0.030186515
137	0x3d875113	0.066072606
138	0x3d123928	0.03569904
139	0xbd82af51	-0.06381095
140	0xbd9f9a8a	-0.07793148
141	0x3da6dfb1	0.081481345
142	0xbd8902e1	-0.06690002
143	0x3b9a5fc7	0.0047111246
144	0xbcd0c9fd	-0.02548694
145	0x3d996b71	0.07491196
146	0xbcb67d9c	-0.022276692
147	0xbd786e4f	-0.060652073
148	0x3d93eca2	0.072228685
149	0xbd3a8321	-0.04553521
150	0xbd97b56b	-0.074076496
151	0x3cccd59e	0.025004204
152	0xbd902e2b	-0.07040056
153	0xbda52b91	-0.0806495
154	0xbd8c745f	-0.068581335
155	0x3d2b99c1	0.041894678
156	0xbd2890ac	-0.041153595
157	0x3c0e4213	0.0086827455
158	0x3d6113be	0.05495047
159	0x3cf16123	0.029465264
160	0xbaad3c04	-0.0013216739
161	0x3d988599	0.07447357
162	0xbcbcd05b	-0.02304857
163	0xbceca617	-0.028887792
164	0x3da23e48	0.079220355
165	0x3d9bce2c	0.076076835
166	0x3cfc02de	0.030763086
167	0x3cc53990	0.0240753
168	0x3cfe5788	0.031047598
169	0x3bd5f259	0.006529134
170	0xbd3d5d60	-0.046231627
171	0xbd4e00ed	-0.05029385
172	0xbd600d9a	-0.05470047
173	0xbd9f2309	-0.07770354
174	0xbcb8803c	-0.022522084
175	0xbd4da4a8	-0.050205857
176	0xbd571935	-0.052514274
177	0xbd52a66e	-0.05142825
178	0x3d04958e	0.03236919
179	0xbc964dd1	-0.018347653
180	0x3c698446	0.014252728
181	0xbd83294e	-0.064043626
182	0x3d50ae03	0.0509472
183	0x3cdbf150	0.026848465
184	0x3d2d89b1	0.04236764
185	0xbd01e1a4	-0.03170933
186	0xbd12a62d	-0.03580301
187	0xbd859d40	-0.06524134
188	0x3cb48176	0.022034388
189	0xbcfe9ba1	-0.031080069
190	0xbc8d16f5	-0.01722286
191	0xb855bf1f	-5.0961153e-05
192	0x3ca16a1e	0.01970392
193	0xbd88562a	-0.066570595
194	0xbc5aa0cc	-0.013344001
195	0x3c720d79	0.01477372
196	0xbd50dd44	-0.050992265
197	0x3d3ca646	0.04605701
198	0xbd290a1b	-0.041269403
199	0x3d13baed	0.03606694
200	0x3c0878e2	0.008329602
201	0x3b102a9a	0.0021998049
202	0x3acab01b	0.001546386
203	0xbd8c636e	-0.06854902
204	0xbc0ef0bc	-0.008724388
205	0x3d7bfc46	0.061519884
206	0x3d5bf46f	0.053699907
207	0x3c30b5df	0.010785549
208	0x3d032cdd	0.032025207
209	0x3be6e520	0.007046357
210	0x3d3b1bf5	0.04568096
211	0xbda06b41	-0.07832957
212	0xbcf0b006	-0.02938081
213	0x3cde5213	0.027138745
214	0xbc520f49	-0.012821027
215	0x3d095777	0.03353068
216	0xbd87afc4	-0.066253215
217	0x3a153268	0.000569141
218	0x3bc1e92f	0.00591769
219	0x3d410c04	0.0471306
220	0x3d73e8b9	0.059548113
221	0x3a0e3dda	0.0005426087
222	0xbc316580	-0.010827422
223	0xbd85638b	-0.06513127
224	0xbda461f7	-0.08026498
225	0x3d0f3e84	0.03497173
226	0xbceacacb	-0.028661152
227	0x3cc09c7a	0.023512114
228	0x3d9c7a19	0.07640476
229	0x3c9fc7de	0.019504484
230	0xbca16cbb	-0.019705167
231	0xbd2575da	-0.040395595
232	0xbcc7cc44	-0.024389394
233	0xbc8d41d4	-0.017243303
234	0x3da43024	0.080169946
235	0xbc6dc301	-0.014511825
236	0xbcb4c673	-0.022067284
237	0xbda16c9f	-0.07882046
238	0xbd19605b	-0.037445407
239	0x3d2752ab	0.040850323
240	0xbd1e5eb3	-0.03866453
241	0x3c3c5469	0.011494734
242	0xbc857b8f	-0.016294269
243	0x3d9274bc	0.071511716
244	0xbd3fbd63	-0.046811473
245	0x3d83ee96	0.06441991
246	0xbcb5fb5c	-0.022214584
247	0x3d327db2	0.043576904
248	0xbda1ce88	-0.07900721
249	0x3d8309b6	0.063983366
250	0x3d0bf562	0.034169562
251	0xbc81420e	-0.015778568
252	0xbd5ee1b4	-0.054414466
253	0x3d476cee	0.048687868
254	0x3d6b8758	0.05750212
255	0xbd761d73	-0.06008668

mlp1.2.bias f4 [100]
0	0xbca35730	-0.019939035
1	0xbcbec4a7	-0.02328713
2	0xbda41ea9	-0.080136605
3	0xbd8da118	-0.06915492
4	0xbb7a3433	-0.0038178086
5	0xbd33d56a	-0.0439047
6	0xbd0d765c	-0.034536704
7	0xb90722e1	-0.00012887597
8	0x3d81ad24	0.06331852
9	0xbb758afd	-0.0037466877
10	0x3cdc7a69	0.026913838
11	0x3d5eef02	0.054427154
12	0xbcb35698	-0.021891877
13	0x3d04d8a4	0.032433167
14	0xbd52997f	-0.051415917
15	0xbd53a0eb	-0.051667135
16	0xbd163214	-0.036668852
17	0xbd24f1b4	-0.04026957
18	0xbb54ec6e	-0.0032489556
19	0xbd82861a	-0.06373234
20	0x3d41f225	0.047350068
21	0xbc40ac3f	-0.011759817
22	0x3bf2f0d9	0.007413965
23	0xbd3f8e03	-0.046766292
24	0xbc2dbec9	-0.010604569
25	0x3d05416f	0.032533105
26	0xba0ee5db	-0.0005451121
27	0x3d90a816	0.0706331
28	0xbd70d0ff	-0.058793064
29	0x3d4ab431	0.04948825
30	0x3da51e48	0.08062416
31	0xbd27ac69	-0.040935908
32	0x3d3df07f	0.046371933
33	0xbd8a5ea2	-0.06756331
34	0x3d117f1a	0.035521604
35	0x3d88e992	0.06685175
36	0x3d7898f4	0.060692742
37	0x3d058d44	0.032605425
38	0x3cfdb11f	0.030968247
39	0xbd91fcf1	-0.07128323
40	0xbc29ee8c	-0.010371815
41	0x3d268037	0.04064962
42	0x3caff6c5	0.021479974
43	0x3cb48430	0.022035688
44	0x3d4d40c0	0.05011058
45	0x3d278328	0.040896565
46	0x3d6417a0	0.055686593
47	0xbd49c148	-0.049256593
48	0x3be7ad6a	0.007070233
49	0x3da429ba	0.08015771
50	0xbd378fac	-0.04481475
51	0xbccf4ab0	-0.025304168
52	0x3ba94774	0.0051659886
53	0xbd4e26c7	-0.05032995
54	0xbce5f863	-0.028072542
55	0x3ca79038	0.020454511
56	0x3cee770f	0.029109506
57	0xbd453ad3	-0.048151802
58	0xbc31bd85	-0.010848408
59	0x3d16d75f	0.036826488
60	0x3c42ad32	0.011882113
61	0x3d37bab2	0.04485578
62	0x3aabe321	0.0013113954
63	0xbd8dc1f0	-0.06921756
64	0xbc3eb72a	-0.011640349
65	0xbd51931b	-0.05116568
66	0xbd6bb226	-0.057542942
67	0x3c5f1b5e	0.013617365
68	0xbb03128e	-0.0020000073
69	0xbd190c99	-0.03736553
70	0xbcb611d0	-0.02222529
71	0x3d4ac78e	0.049506716
72	0xbd8368d7	-0.06416481
73	0x3d7326ca	0.059363164
74	0x3d4a591e	0.049401395
75	0xbd5c936e	-0.053851537
76	0x3a001bc3	0.00048869493
77	0x3d66cc05	0.056346912
78	0x3d8b1332	0.067907706
79	0x3c501c8e	0.0127021205
80	0xbd7b3992	-0.0613342
81	0x3d375a61	0.044763926
82	0xbc6b7349	-0.014370748
83	0x3d4fee3c	0.050764307
84	0x3d6961d8	0.056978077
85	0xbd645baf	-0.0557515
86	0x3d0f3b72	0.0349688
87	0x3cab7038	0.020927534
88	0x3ba72fe9	0.005102147
89	0x3da6302e	0.08114658
90	0x3d2b343b	0.041797858
91	0xbda5cac5	-0.08095316
92	0x3d919436	0.07108347
93	0xbd9c8ff9	-0.07644648
94	0x3d5b475f	0.05353486
95	0x3d031ff6	0.032012902
96	0xbd3f12a9	-0.046648655
97	0xbbdbb804	-0.006705286
98	0xbda52bf3	-0.08065023
99	0xbd19276c	-0.03739111

mlp2.0.weight f4 [100, 100]
0	0x3c09af00	0.00840354
1	0xbd93010b	-0.07177933
2	0x3d8a016f	0.06738555
3	0x3d800ca2	0.062524095
4	0xbd3ea973	-0.046548318
5	0xbd277eaa	-0.04089228
6	0xbd9ab6d5	-0.07554404
7	0x3d3f3e63	0.046690356
8	0x3c6550da	0.013996327
9	0x3d9c8970	0.076434016
10	0xbd8e8668	-0.0695923
11	0x3da8b19b	0.082370006
12	0x3db511d5	0.08841292
13	0x3cf7cea0	0.030249894
14	0x3c959fed	0.018264735
15	0x3d939b87	0.07207399
16	0xbdb2c71a	-0.08729382
17	0xbb9d9767	-0.0048093083
18	0xbda66403	-0.081245445
19	0xbd5955c3	-0.053060304
20	0xb9edbe67	-0.00045346023
21	0xbd85d720	-0.065351725
22	0xbd5f9bc3	-0.054591905
23	0x3bcdeae7	0.006284106
24	0x3d460900	0.048348427
25	0xbb930033	-0.0044861077
26	0x3dbe2362	0.092840925
27	0xbd9587b2	-0.073012725
28	0x3cf9e4d3	0.03050462
29	0x3cd25033	0.025673008
30	0xbdc396e8	-0.095502675
31	0xbc90708d	-0.017631793
32	0xbce3d3cd	-0.027810955
33	0xbb007d67	-0.0019605996
34	0xbdcb3d45	-0.099237956
35	0x3953eccd	0.00020210743
36	0xbd0c6b8a	-0.034282245
37	0x3d966103	0.07342722
38	0x3d8d0eda	0.06887598
39	0x3c3fbb40	0.011702359
40	0xbd9bd037	-0.07608073
41	0xbc6b84e7	-0.014374948
42	0x3dcafc1d	0.09911368
43	0xbd74d803	-0.059776317
44	0x3c98e427	0.018663479
45	0x3db8b1af	0.090182655
46	0x3cd7ba87	0.02633406
47	0xbd5e44ea	-0.05426494
48	0x3dc9e37a	0.09857841
49	0xbda73a6d	-0.08165441
50	0x3d2c4487	0.04205754
51	0xbdc031bb	-0.09384485
52	0x3d807b15	0.06273476
53	0x3d1a32c7	0.03764608
54	0xbd9b2232	-0.075748816
55	0xbd8c230f	-0.068426244
56	0xbd2dfc17	-0.04247674
57	0xbd29f880	-0.041496754
58	0x3c6e1600	0.014531612
59	0xbcbefea0	-0.023314774
60	0xbd88d7c8	-0.06681782
61	0x3d9b7e8f	0.075924985
62	0xbc7e1cda	-0.015509808
63	0xbd9cd2eb	-0.07657417
64	0xbdc1b5f7	-0.09458535
65	0xbdc3e573	-0.09565248
66	0x3d68d8aa	0.056847252
67	0x3d0d91fd	0.034563053
68	0x3cb315a7	0.02186091
69	0x3d190973	0.037362527
70	0xbd058c80	-0.032604694
71	0x3d5a5627	0.053304818
72	0x3dc0ed8f	0.09420311
73	0xbcc694c7	-0.024240864
74	0xbd40a95d	-0.047036517
75	0x3d7ca877	0.061684098
76	0x3d8d06c5	0.06886057
77	0xbdafc9d3	-0.08583417
78	0xbd5c1bb7	-0.05373737
79	0xbdad175d	-0.08451722
80	0x3c954520	0.018221438
81	0x3dc6559d	0.09684298
82	0xbbfd8ccd	-0.007737732
83	0x3d5b4fb7	0.05354282
84	0x3ba92467	0.00516181
85	0x3d970ff3	0.07376089
86	0xbdc0fcd5	-0.09423224
87	0xbdb57cd3	-0.08861699
88	0x3cd56e7a	0.026053656
89	0x3d28bf43	0.041198026
90	0x3d95c10a	0.0731221
91	0xbda174db	-0.078836165
92	0xbd93ebd8	-0.07222718
93	0x3db0f408	0.08640295
94	0xbdc15957	-0.09440868
95	0x3d675e7a	0.056486584
96	0x3d9d75d8	0.076884925
97	0x3d693cad	0.05694263
98	0xbd16396d	-0.03667586
99	0xbd8f0157	-0.069826774
100	0x3d70bfa0	0.058776498
101	0x3dc31b05	0.09526638
102	0xbd4eac5d	-0.050457347
103	0x3cc014ad	0.023447359
104	0x3cbf6227	0.023362232
105	0xbd2e7b98	-0.042598337
106	0x3c515497	0.012776515
107	0x3c1c72aa	0.009548822
108	0x3d990f52	0.07473625
109	0xbcdd565b	-0.027018717
110	0x3b252467	0.00251987
111	0x3db1557d	0.08658884
112	0x3cb65253	0.022256052
113	0xbd8406d0	-0.06446612
114	0xbb9dc300	-0.0048145056
115	0x3d0f8bd2	0.035045452
116	0xbdb589af	-0.08864152
117	0xbd7c9e5d	-0.061674464
118	0xbcd849b3	-0.02640233
119	0xbd48e1ea	-0.049043573
120	0x3dbf1b18	0.093313396
121	0x3d86550b	0.065591894
122	0x3d919e8a	0.07110317
123	0x3d455df0	0.04818529
124	0x3c5e0698	0.013551377
125	0x3ca5efc0	0.020255923
126	0xbd56ac49	-0.052410398
127	0xbb58799a	-0.0033031465
128	0x3cf91fb3	0.030410623
129	0x3b01c30d	0.0019800097
130	0x3d8c1973	0.068407916
131	0x3d6aedfa	0.05735586
132	0x3d873850	0.06602538
133	0xbca98f67	-0.020698262
134	0x3dbca6b2	0.09211482
135	0xbd589d5b	-0.05288444
136	0x3c2d0e40	0.0105624795
137	0x3c8018a0	0.015636742
138	0xbd81f822	-0.06346156
139	0xbda50b8c	-0.08058843
140	0x3cb76c7e	0.0223906
141	0x3d84ba9d	0.06480906
142	0x3dc652eb	0.09683784
143	0xbd24bfdc	-0.040222034
144	0x3c306b27	0.010767735
145	0x3d1dc9c3	0.038522493
146	0xbd9d9975	-0.07695285
147	0x3c352c1e	0.011057882
148	0x3d965840	0.07341051
149	0xbce3bc67	-0.027799798
150	0x3cf75e5e	0.030196365
151	0xbdc980bd	-0.09839008
152	0x3cf89c84	0.03034807
153	0x3d50833a	0.050906397
154	0xbd0eca00	-0.03486061
155	0x3dc65bd8	0.096854866
156	0x3c8bf6fe	0.017085548
157	0x3bc64300	0.0060504675
158	0x3dbc863f	0.09205293
159	0xbd416410	-0.047214568
160	0xbc817e87	-0.015807403
161	0xbd3fedce	-0.046857648
162	0xbdbd47d9	-0.092422195
163	0x3d9a6975	0.075396456
164	0xbce4c193	-0.027924335
165	0xbdbf7ed3	-0.09350362
166	0x3dbbc72a	0.09168847
167	0xba94439a	-0.0011311651
168	0xbd6cb78c	-0.05779223
169	0xbdca9537	-0.09891742
170	0x3cfb6480	0.03068757
171	0xbc668efb	-0.014072175
172	0xbdaaf9ff	-0.08348464
173	0xbdb5ceef	-0.0887736
174	0xba579919	-0.00082244124
175	0x3da8ccd0	0.0824219
176	0xbcb0d835	-0.02158747
177	0x3db99ee1	0.09063507
178	0xbd2cdaa4	-0.0422007
179	0x3d3e4844	0.046455637
180	0xbc89f2ee	-0.01683947
181	0x3d8f9b9f	0.07012104
182	0x3ca3b3bd	0.019983167
183	0xbdbfa6e4	-0.09358004
184	0xbd963252	-0.073338166
185	0xbc468b49	-0.012118169
186	0xbc4a4b9a	-0.012347126
187	0xbbbb6ede	-0.0057200035
188	0x3d213233	0.039354514
189	0xbd60bb17	-0.054865923
190	0xbd73f8aa	-0.059563316
191	0xbba4d733	-0.0050305366
192	0xbd0ddfa7	-0.03463712
193	0xbd393489	-0.045216117
194	0xbd8cb08b	-0.068696104
195	0x3cc5392d	0.024075115
196	0xbdb3de35	-0.08782617
197	0x3d8d8b33	0.06911316
198	0x3d3e744d	0.04649763
199	0xbc64a867	-0.013956166
200	0xbd91b569	-0.07114679
201	0xbd377761	-0.044791583
202	0x3c8c8ec0	0.017157912
203	0xbd6c6ccd	-0.057720948
204	0xbd460df0	-0.048353136
205	0x3d8797dc	0.06620762
206	0x3d995052	0.07486023
207	0xbceb659e	-0.028734978
208	0x3c9c68dd	0.019092971
209	0xbc3e9b63	-0.011633727
210	0xbd961ce0	-0.07329726
211	0xbc11bc04	-0.008894924
212	0x3cdb3a85	0.026761303
213	0xbae02625	-0.0017101212
214	0x3ca2ef3a	0.019889463
215	0x3d2c4321	0.042056207
216	0x3c6767ea	0.014123896
217	0x3dcab76e	0.09898268
218	0x3d8fef5c	0.07028076
219	0x3d848083	0.06469824
220	0xbc9ddd8c	-0.01927068
221	0xbcf49cc1	-0.029859902
222	0xbcab2ec1	-0.020896317
223	0x3c9b9800	0.018993378
224	0xbcfa8947	-0.030583037
225	0xbd5fa4c3	-0.05460049
226	0xbd604df8	-0.054761857
227	0x3c6c191a	0.014410282
228	0x3d4f15f7	0.050558057
229	0xbd5e7e89	-0.054319892
230	0xbc5c78c0	-0.013456523
231	0xbd964a67	-0.0733841
232	0x3d63fe4a	0.05566243
233	0xbd057e2d	-0.032591034
234	0x3ce57994	0.028012075
235	0xbdbc581c	-0.09196493
236	0xbd7092d4	-0.058733776
237	0x3d40808a	0.046997584
238	0x3d654dba	0.05598233
239	0x3dc2e790	0.09516823
240	0x3d3b3dc0	0.045713186
241	0x3db4c007	0.08825689
242	0x3da1724d	0.07883129
243	0xbd9b19c3	-0.07573273
244	0xbd79a9aa	-0.06095282
245	0xbda09318	-0.07840556
246	0xbc1f31df	-0.00971648
247	0x3ccb2704	0.024798878
248	0x3d152e1a	0.03642092
249	0x3d2fb459	0.042896602
250	0xbd2b94c5	-0.041889925
251	0xbd0e517d	-0.034745682
252	0xbc180fe1	-0.00928113
253	0xbc91baad	-0.01778921
254	0xbd656e53	-0.056013416
255	0xbd457198	-0.048204035

mlp2.0.bias f4 [100]
0	0xbdab7067	-0.083710484
1	0xbd543ac4	-0.051813856
2	0xbd9b9ca5	-0.07598237
3	0xbcee9e1f	-0.029128132
4	0xbd91bf08	-0.071165144
5	0xbdc76284	-0.09735587
6	0x3d9c922e	0.07645069
7	0xbd53eae7	-0.051737692
8	0xbdad2ef3	-0.084562205
9	0xbdae58ae	-0.08513008
10	0x3c470627	0.012147463
11	0xbd4cbeac	-0.049986526
12	0x3d2ec80d	0.042671252
13	0xbdb22022	-0.08697535
14	0x3cb3f453	0.021967089
15	0xbd916edc	-0.07101223
16	0xbdc58180	-0.09643841
17	0xbd8d7288	-0.06906611
18	0x3d8bd2cc	0.06827316
19	0xbdba4016	-0.09094255
20	0xbd7b8b71	-0.06141228
21	0xbc25f573	-0.01012932
22	0xbd855c8d	-0.06511793
23	0xbd7e0091	-0.06201226
24	0xbc07bfc7	-0.008285469
25	0xbd74aa77	-0.05973288
26	0x3caa36fb	0.02077817
27	0xbc07675a	-0.008264387
28	0xbcfe2fde	-0.031028684
29	0xbd2ce19a	-0.042207338
30	0x3d8f2cf4	0.06990996
31	0xbc2b5314	-0.010456819
32	0xbd9f413b	-0.077761136
33	0x3d539c1d	0.051662553
34	0xbc035c98	-0.008017682
35	0xbd7963f9	-0.060886357
36	0x3d8a23fa	0.06745143
37	0xbd9dbe1b	-0.07702275
38	0xbc4724ba	-0.012154752
39	0x3d52b454	0.051441506
40	0x3da750a2	0.08169676
41	0xbdc3c273	-0.095585726
42	0x3d7d8086	0.061890148
43	0xbd43ca8a	-0.04780058
44	0x3c3cc2ad	0.011521024
45	0xbc4b32b3	-0.012402224
46	0xbd016b94	-0.031596735
47	0xbbf26029	-0.007396717
48	0x3d4ffded	0.050779272
49	0x3d30ecbd	0.04319452
50	0xbdaeff97	-0.08544844
51	0x3d0f77a7	0.03502622
52	0x3d068803	0.032844555
53	0x3d9575fb	0.072978936
54	0x3dca8888	0.098893225
55	0xbdbffc52	-0.09374298
56	0xbd891ea0	-0.066952944
57	0xbd84606c	-0.064637035
58	0xbcce1f03	-0.025161272
59	0xbdbf7056	-0.09347598
60	0xbc81ddad	-0.015852774
61	0xbbe0096e	-0.0068370616
62	0x3d744867	0.05963936
63	0x3d579811	0.052635256
64	0xbd2b7067	-0.041855242
65	0x3d4916dc	0.049094066
66	0xbcb94e07	-0.022620214
67	0x3da4d727	0.080488496
68	0xbd935267	-0.071934514
69	0xbdc5d3bf	-0.09659528
70	0xbbb5b6b3	-0.005545461
71	0x3dabc4be	0.08387135
72	0xbd8b76bf	-0.068097584
73	0xbd7dead7	-0.06199154
74	0x3ab62c67	0.0013898731
75	0x3bf85f4d	0.00757972
76	0xbdc8caec	-0.09804329
77	0xbc5d6b73	-0.013514387
78	0xbdaf819d	-0.08569644
79	0x3ac54f42	0.0015053528
80	0xbda41d6d	-0.08013425
81	0x3d36d4c7	0.044636514
82	0x3d471514	0.048604086
83	0xbc9b5ed0	-0.018966109
84	0x3c943d69	0.018095689
85	0x3cabc1b3	0.020966386
86	0x3cb3b032	0.021934602
87	0xbdacaf97	-0.084319286
88	0x3d339715	0.043845255
89	0xbd79b097	-0.060959425
90	0xbdab01d7	-0.0834996
91	0x3d85251f	0.06501221
92	0x3bd0f818	0.0063772313
93	0xbd1b143a	-0.037861086
94	0xbd8d05a5	-0.06885842
95	0xbd997456	-0.074928924
96	0x3d8a4888	0.067521155
97	0x3dbc4245	0.091923274
98	0xbc91f65a	-0.017817665
99	0x3db1c9c2	0.086810604

mlp2.2.weight f4 [50, 100]
0	0x3da07dbd	0.07836483
1	0x3db72092	0.08941759
2	0xbd9401bd	-0.07226894
3	0x3dc0f077	0.09420865
4	0x3d503b64	0.05083789
5	0xbda7a7e7	-0.08186322
6	0x3d970896	0.073746845
7	0xbd87f7a4	-0.066390306
8	0x3dae2a47	0.085041575
9	0xbd9b5d0f	-0.07586109
10	0xbd1a730d	-0.037707377
11	0x3dc9c8d8	0.09852761
12	0xbca50fc0	-0.020149112
13	0xbc969314	-0.01838068
14	0x3d945ab5	0.072438635
15	0x3d71751e	0.058949582
16	0xbd7d72ad	-0.06187694
17	0x3db477cf	0.08811914
18	0xbae958ee	-0.0017802992
19	0xbdab33f4	-0.08359519
20	0x3d920fd8	0.07131928
21	0xbd040013	-0.032226633
22	0xbd3ea8a1	-0.046547536
23	0xbd97ccae	-0.074120864
24	0x3b5b6fe3	0.0033483438
25	0xbd92fd5b	-0.0717723
26	0x3ce177e9	0.027522998
27	0x3d1129dd	0.035440315
28	0xbd3eb2d0	-0.046557248
29	0x3db61fc2	0.08892776
30	0x3da74bc6	0.081687495
31	0xbdb5b15d	-0.0887172
32	0x3c101933	0.00879507
33	0x3c2f3c72	0.010695564
34	0xbd79e2ff	-0.061007496
35	0xbbb047fa	-0.005379674
36	0x3da00b56	0.07814662
37	0x3d4c4fea	0.0498809
38	0x3c4d8e81	0.012546183
39	0xbdc0fb61	-0.09422947
40	0x3d7cebbe	0.06174826
41	0x3d841248	0.06448799
42	0x3db4e1b1	0.0883211
43	0x3da5c520	0.08094239
44	0x3c4a6225	0.012352501
45	0x3dca0450	0.09864104
46	0xbdb73dcb	-0.08947333
47	0xbd7f72bc	-0.06236528
48	0xbd465b07	-0.048426654
49	0xbd6436ca	-0.055716313
50	0xbd34b5da	-0.04411874
51	0xbd9bbb53	-0.07604089
52	0x3ce1c65a	0.027560402
53	0xbca780ce	-0.020447161
54	0x3d9d17b8	0.076705396
55	0xbdc12ebc	-0.09432742
56	0xbd686481	-0.056736473
57	0x3d75f1ca	0.06004504
58	0xbcb098c1	-0.021557214
59	0x3b545653	0.0032400086
60	0x3c7bdf67	0.0153730875
61	0x3d165f80	0.03671217
62	0xbd951c94	-0.072808415
63	0xbd85401b	-0.06506368
64	0x3baf02e8	0.0053409226
65	0x3db3cd43	0.08779385
66	0xbdb868e7	-0.090043835
67	0x3dae9de4	0.08526209
68	0x3cd6278d	0.026141906
69	0xbc469f28	-0.012122907
70	0x3ce4cd00	0.027929783
71	0x3d20f331	0.039294425
72	0xbd58abba	-0.052898146
73	0xbd61d4b0	-0.055134475
74	0x3c8d478d	0.017246032
75	0xbc84ed67	-0.016226484
76	0xbd9a3829	-0.07530243
77	0xbd7b87aa	-0.061408676
78	0xbcef50eb	-0.02921339
79	0x3daf94a2	0.08573271
80	0x3cd038a1	0.025417628
81	0xbd4a58dd	-0.049401153
82	0x3d076607	0.033056285
83	0xbd606c56	-0.054790817
84	0xbdad7d4d	-0.08471165
85	0x3d2ca6d7	0.0421513
86	0xbd9b2c13	-0.07576766
87	0xbd07dd6d	-0.033170152
88	0xbd009962	-0.031396277
89	0xbc9c18b3	-0.019054746
90	0xbd170a53	-0.03687508
91	0x3ab85739	0.001406408
92	0xbd9c3820	-0.076278925
93	0xbc9ff9a7	-0.019528223
94	0xbd9505c4	-0.0727649
95	0x3d4408a8	0.047859818
96	0x3d92a120	0.071596384
97	0xbda71e1d	-0.081600405
98	0xbd3deb42	-0.046366937
99	0x3ca72afc	0.020406239
100	0xbd03fa2d	-0.032221008
101	0xbdb8896e	-0.09010588
102	0x3b836858	0.0040102415
103	0xbd12a42c	-0.035801098
104	0x3d24648c	0.04013495
105	0xbd8b0cf3	-0.06789579
106	0xbc8229bd	-0.015889043
107	0xbd5e27b1	-0.05423707
108	0x3ccc0500	0.024904728
109	0x3dc4cc79	0.096093126
110	0xbdb485d3	-0.088145874
111	0x3db0eb8f	0.08638679
112	0x3d12dced	0.035855222
113	0x3cb97306	0.022637855
114	0x3cbe60fa	0.023239601
115	0xbd82cb3c	-0.0638642
116	0xbdca9f93	-0.098937176
117	0x3dbe3402	0.092872635
118	0xbd2de9e0	-0.04245937
119	0xba374f77	-0.0006992737
120	0xbb129fa5	-0.0022372988
121	0x3d7f349d	0.062306035
122	0xbc090fc0	-0.0083655715
123	0xbdc5f4f8	-0.09665865
124	0xbc878d95	-0.016547004
125	0xbd5455a6	-0.051839493
126	0xbd661265	-0.056169886
127	0xbcea24ad	-0.028581942
128	0x3da97047	0.08273368
129	0xbd70892a	-0.05872456
130	0x3cd7ee02	0.026358608
131	0x3bc24f80	0.0059298873
132	0xbca0b49a	-0.019617368
133	0xbc67f766	-0.0141581055
134	0x3d990eb6	0.07473509
135	0xbd2633af	-0.040576633
136	0xbd2840d8	-0.041077465
137	0x3d879e40	0.06621981
138	0xbd872516	-0.065988705
139	0x3da9a3a6	0.082831666
140	0xbb88aa68	-0.0041707046
141	0xbc651933	-0.013983059
142	0xbdb237c9	-0.087020464
143	0xbc938800	-0.018009186
144	0x3d9ce0f3	0.07660093
145	0xbb84cfc2	-0.004053087
146	0xbc183afe	-0.009291409
147	0xbdb4114b	-0.08792361
148	0xbcabbf4d	-0.020965243
149	0xbca4d320	-0.020120203
150	0xbc53553c	-0.012898739
151	0xbdcb7269	-0.099339314
152	0x3c118673	0.008882153
153	0xbd0cece7	-0.034405615
154	0xbd1791d3	-0.037004303
155	0xbd3838c6	-0.04497602
156	0x3d9e982e	0.0774387
157	0xba5c0c00	-0.0008394122
158	0x3d0c3cb4	0.03423758
159	0xbc278e00	-0.0102267265
160	0xbc840b60	-0.016118705
161	0xbd2fc4dd	-0.042912353
162	0x3db27ef5	0.087156214
163	0x3d4cf6f3	0.050040197
164	0xbd1108bd	-0.035408724
165	0xbd752f11	-0.05985934
166	0xbdb90458	-0.09034032
167	0x3c88a233	0.016678905
168	0xbd2e6a19	-0.04258165
169	0x3dc7f1ef	0.09762942
170	0xbd8bdeda	-0.06829615
171	0xbd0a18c5	-0.03371503
172	0xbc239789	-0.009984859
173	0x3d8fd36a	0.07022746
174	0x3cd28e67	0.025702668
175	0x3b69f000	0.003569603
176	0x3c15d001	0.00914383
177	0xbc10a440	-0.008828223
178	0x3d8ae951	0.06782783
179	0x3bbcda71	0.005763345
180	0x3d4d1397	0.05006751
181	0xbd7af1c7	-0.061265733
182	0x3d4cc08f	0.049988326
183	0xbdc63e3d	-0.0967984
184	0xbd965077	-0.07339566
185	0x3db2d3d8	0.08731812
186	0x3d89e666	0.06733398
187	0x3db2fbd8	0.08739442
188	0x3cbf4830	0.023349851
189	0xbd9f3aad	-0.077748634
190	0xbcd122bf	-0.025529264
191	0xbd1a396e	-0.037652425
192	0xb9aa9d0a	-0.0003254193
193	0xbd4bad80	-0.04972601
194	0xbcdf05d5	-0.02722446
195	0xbcdc8c3a	-0.026922334
196	0xbd1518f0	-0.036400735
197	0x3d11168f	0.035421904
198	0x3c0f4015	0.008743306
199	0xb98401ef	-0.00025178443
200	0x3db82ee2	0.08993317
201	0x3d117351	0.035510365
202	0xbcde40f0	-0.027130574
203	0xbd546201	-0.051851276
204	0xbd464bb3	-0.048412036
205	0xbc9435ca	-0.018092055
206	0xbd958e46	-0.07302527
207	0x3d8a9d60	0.06768298
208	0xbd3ba347	-0.04581001
209	0x3d0d58be	0.03450846
210	0x3d85af3f	0.06527566
211	0x3d204e40	0.039137125
212	0x3d001790	0.03127247
213	0xbc92e449	-0.01793112
214	0x3dbb14e3	0.09134843
215	0xbdc43bf7	-0.0958175
216	0xbb9a1e1a	-0.0047032954
217	0x3cc4e6fa	0.02403592
218	0xbd24eaf9	-0.04026315
219	0x3cbc0def	0.022955863
220	0xbdb177f4	-0.08665457
221	0xbcf80427	-0.030275417
222	0x3c7211d3	0.014774757
223	0xbcdf0ca0	-0.0272277
224	0xbda01df5	-0.07818214
225	0x3d76178a	0.060081042
226	0xbd88c30f	-0.066778295
227	0xbdb4b4eb	-0.0882357
228	0xbd3e805d	-0.046509136
229	0x3c6ee267	0.014580346
230	0x3dbe2ae6	0.09285526
231	0xbd98cd60	-0.07461047
232	0xbd86834a	-0.0656801
233	0x3d374bf0	0.044750154
234	0x3d9cf996	0.07664792
235	0x3c775a91	0.015097276
236	0x3cf3f879	0.029781567
237	0x3da1d92f	0.079027526
238	0xbd95744e	-0.07297574
239	0xbdab0b2e	-0.08351742
240	0x3c8bc164	0.01705999
241	0xbd5a87d3	-0.05335219
242	0xbc5b0399	-0.013367557
243	0xbc537780	-0.012906909
244	0xbdaf7269	-0.08566744
245	0xbc88bf68	-0.016692832
246	0xbda59333	-0.08084717
247	0x3c9f02bd	0.019410485
248	0x3d4da06a	0.05020181
249	0x3dbc4893	0.0919353
250	0xbd96e88d	-0.07368574
251	0xbc84aa68	-0.016194537
252	0x3c4166da	0.011804307
253	0x3c0228a8	0.0079442635
254	0xbbeeb61a	-0.007284892
255	0xbd102281	-0.035189155

mlp2.2.bias f4 [50]
0	0xbc9d40c2	-0.019195918
1	0xbc79ca0b	-0.015245925
2	0xbdb3f4bc	-0.08786914
3	0x3da8effc	0.082488984
4	0xbd0ee131	-0.034882728
5	0xbd44914f	-0.04799014
6	0xbd9e821f	-0.077396624
7	0xbdc8351f	-0.09775757
8	0x3dca1170	0.09866607
9	0x3db763f1	0.08954609
10	0x3d89acd4	0.067224175
11	0x3d7ccc12	0.061718054
12	0xbdbb1c7c	-0.09136292
13	0x3d8c9e6b	0.06866153
14	0xbd52f597	-0.051503744
15	0xbd0bce46	-0.034132265
16	0xbd73bcaa	-0.059506096
17	0xbda3e9aa	-0.08003552
18	0xbc2e6a60	-0.010645479
19	0xbd87851e	-0.06617187
20	0x3ca5b4ab	0.02022775
21	0xbda34c05	-0.07973484
22	0x3d9440df	0.07238936
23	0xbbc5372c	-0.00601854
24	0xbb2e053b	-0.002655341
25	0xbcdd9532	-0.027048681
26	0xbc8916b4	-0.016734459
27	0x3d9c54d2	0.07633366
28	0x3ce54dd5	0.027991215
29	0x3bb9501b	0.0056553013
30	0x3d0f4628	0.034979016
31	0x3d2e63e4	0.042575732
32	0xbd90f7a3	-0.07078483
33	0x3d392a23	0.0452062
34	0xbda2d2b8	-0.07950348
35	0xbaf0702b	-0.0018343976
36	0xbb7eb9a2	-0.003886797
37	0x3cceef86	0.025260698
38	0xbd585a1d	-0.052820314
39	0x3d13080b	0.035896342
40	0x3d9f6f03	0.07784846
41	0x3d09f44b	0.03368024
42	0xbdb0713c	-0.08615348
43	0xbd1d2108	-0.03836158
44	0x3c4998cf	0.012304499
45	0xbb9c4a2b	-0.0047695837
46	0x3d8ce852	0.06880249
47	0xbdbc2c20	-0.09188104
48	0x3d6ea145	0.058259267
49	0x3ca39fdc	0.019973688

attention.0.weight f4 [100, 200]
0	0x3d1525a3	0.036412846
1	0xbd2e5742	-0.042563684
2	0xbcbe6907	-0.02324344
3	0xbd66ba62	-0.056330092
4	0x3cf1f7b0	0.029537052
5	0xbd1ab743	-0.03777243
6	0x3c87d61e	0.016581591
7	0xbd639c45	-0.055568952
8	0x3d6774cb	0.056507867
9	0xbcf42002	-0.029800419
10	0xbba1d5d0	-0.0049388185
11	0x3d61f655	0.05516656
12	0xbd840c14	-0.06447616
13	0x3d285e4c	0.041105554
14	0x3c7726ae	0.015084906
15	0xbb8231c2	-0.0039732167
16	0x3ba7a7c2	0.005116434
17	0x3d517817	0.051139917
18	0x3d7eac1b	0.06217585
19	0xbcd97860	-0.026546657
20	0x3b8f64be	0.004376023
21	0x3d2daee5	0.04240312
22	0xbc9f4747	-0.019443167
23	0x3ce1be0e	0.027556445
24	0xbce4affd	-0.027915949
25	0x3b28c1d2	0.0025750292
26	0x3c4082e8	0.0117499605
27	0x3d0eea2b	0.03489129
28	0xbd53d993	-0.051721167
29	0xbcfd46ba	-0.030917514
30	0x3d08051b	0.033207994
31	0x3d5b5808	0.05355075
32	0xbd5ead63	-0.054364573
33	0x3c17fd42	0.00927669
34	0xbd8d9c72	-0.06914605
35	0xbd1afd49	-0.037839208
36	0x3d653635	0.0559599
37	0x3d65556b	0.055989664
38	0x3cac9847	0.021068705
39	0x3cfe9292	0.03107575
40	0xbd0b4543	-0.0340016
41	0x3ccf6eff	0.025321482
42	0xbd2918e9	-0.04128352
43	0x3d7bea7a	0.06150291
44	0xbd26a746	-0.040686868
45	0xbd7182ed	-0.05896275
46	0xbd5f6a63	-0.054544818
47	0x3d1d886f	0.03846019
48	0x3c29c5b8	0.010362081
49	0x3d864383	0.065558456
50	0xbc9a396f	-0.018826215
51	0x3d03565d	0.032064784
52	0xbd89e703	-0.06733515
53	0xbd3bc643	-0.045843374
54	0x3cb91ea7	0.022597624
55	0xbd373da0	-0.044736505
56	0x3d1d59a4	0.038415566
57	0xbd555c7c	-0.052090153
58	0xbafd4da8	-0.0019325512
59	0x3c91e77c	0.017810576
60	0xbd2190fa	-0.0394449
61	0x3ccd30f3	0.025047755
62	0x3c9846d1	0.018588455
63	0x3cc67803	0.024227148
64	0x3d8efe78	0.0698213
65	0x3c25e786	0.010126
66	0xbd154a1e	-0.036447637
67	0x3c39837c	0.011322852
68	0x3c8dc903	0.017307764
69	0xbd2f8c67	-0.042858507
70	0xbd57d942	-0.052697428
71	0xbcd1e9c0	-0.025624156
72	0x3d316e5e	0.043318145
73	0xbd081f66	-0.03323307
74	0x3c82f820	0.015987456
75	0xbd3a1d2d	-0.04543798
76	0x3c85f49d	0.016351992
77	0xbb877b97	-0.004134606
78	0xbd6b2cec	-0.057415888
79	0xbc4f4a6c	-0.012652021
80	0x3d11c66e	0.035589628
81	0xbd8df511	-0.06931508
82	0x3c55df7e	0.013053773
83	0x3aac1c6a	0.0013131027
84	0x3d74beba	0.059752204
85	0xbbb2d19a	-0.0054571154
86	0x3c7e3fce	0.015518142
87	0x3c0e3193	0.008678812
88	0x3ce7ad10	0.028280765
89	0xbd8b5545	-0.06803373
90	0xbd1f2e73	-0.038862657
91	0xbca66942	-0.020313863
92	0x3d5eab39	0.05436251
93	0xbcd71965	-0.026257226
94	0xbca68864	-0.020328708
95	0xbd8be9d0	-0.068317056
96	0x3d8fc8d3	0.07020726
97	0x3c87de91	0.01658562
98	0x3d2e25ae	0.042516403
99	0xbd09a73a	-0.033606745
100	0x3d8ba8b6	0.068192884
101	0x3cb6fc4a	0.022337098
102	0xbc515566	-0.012776708
103	0xbb7cc03c	-0.003856673
104	0x3d51407a	0.05108688
105	0x3cdac4d7	0.026705189
106	0x39c85bde	0.0003821542
107	0xbc0c4276	-0.008560767
108	0xbbfd1c28	-0.0077243038
109	0xbd830f02	-0.06399347
110	0x3d69acbc	0.057049498
111	0x3d84b690	0.064801335
112	0xbd112ec3	-0.035444986
113	0x3d75283b	0.05985282
114	0xbc9387d9	-0.018009113
115	0xbce1c943	-0.02756179
116	0xbcd9d6b0	-0.026591629
117	0xbcf33aed	-0.029691184
118	0xbd5ae4a9	-0.053440724
119	0x3c86697b	0.016407719
120	0xbd529828	-0.05141464
121	0xbc5f34a1	-0.013623388
122	0x3cba238a	0.022722024
123	0x3cc917f0	0.024547547
124	0xbc9a4914	-0.018833674
125	0xbbbfa37f	-0.0058483477
126	0xbd8e8333	-0.06958618
127	0x3d132af8	0.03592965
128	0xbd632347	-0.055453565
129	0x3d886237	0.06659358
130	0xbc7bf405	-0.015378003
131	0x3d572018	0.05252084
132	0x3d13afe3	0.03605641
133	0x3bcc6f4f	0.006238855
134	0x3bff1baf	0.0077852826
135	0x3d0b8504	0.0340624
136	0x3d5e3d96	0.05425795
137	0x3d8fe52d	0.07026134
138	0x3d5b6658	0.0535644
139	0x3bba270a	0.0056809234
140	0x3c9b713b	0.018974891
141	0xbcf7f2d2	-0.030267153
142	0xbd75e843	-0.060035955
143	0xbb8488ad	-0.0040446133
144	0xbd6d5de3	-0.057950865
145	0x3c5ab97e	0.013349889
146	0xbd042259	-0.03225932
147	0x3c40ce9a	0.011768008
148	0x3d75ad1f	0.059979554
149	0xbd214621	-0.03937352
150	0x3cd39b03	0.025830751
151	0x3d757136	0.05992242
152	0x3d81e058	0.06341618
153	0x3d57b71e	0.05266487
154	0xbd475dcb	-0.048673432
155	0xbc66b269	-0.014080622
156	0xbcc8065c	-0.024417095
157	0xbb93ae2c	-0.004506847
158	0xbb98326f	-0.004644684
159	0x3d1b9b90	0.037990153
160	0x3d1c7615	0.03819855
161	0xbc950abe	-0.018193599
162	0x3a8eb9b2	0.0010889082
163	0xbd1f3189	-0.0388656
164	0xbd0c4803	-0.034248363
165	0x3d2bcd12	0.041943617
166	0x3d6215f0	0.055196702
167	0xbd378207	-0.044801738
168	0xbd121dfc	-0.035673127
169	0x3d1eb017	0.03874215
170	0x3d85b9db	0.0652959
171	0xbc9b440c	-0.018953346
172	0xbbea608f	-0.007152624
173	0xbd52941a	-0.051410772
174	0x3accac55	0.0015615324
175	0xbc9290a9	-0.017891245
176	0x3d4ab725	0.049491066
177	0x3d8f66f6	0.0700206
178	0x3cda0f4f	0.026618628
179	0xbac23fa7	-0.0014819995
180	0xbd1eee18	-0.038801283
181	0x3d300b29	0.042979393
182	0x3c5356e7	0.012899137
183	0x3d11834a	0.035525598
184	0xbd5b0b15	-0.053477366
185	0xbd1448e6	-0.036202334
186	0x3c8e584a	0.017376084
187	0xbd14a127	-0.0362865
188	0xbd268387	-0.040652778
189	0xbd3c38ac	-0.045952484
190	0x3cbd786f	0.023128716
191	0x3d20b666	0.03923645
192	0xbc828444	-0.01593221
193	0xbbab4ecf	-0.0052279006
194	0xbc5a2950	-0.013315514
195	0xbd0153a0	-0.03157389
196	0xbd381be5	-0.044948477
197	0xbd75b35a	-0.059985496
198	0x3d20f0c6	0.03929212
199	0xbd75c26e	-0.059999876
200	0xbc0918b7	-0.008367709
201	0xbc849a80	-0.016186953
202	0xbc136a93	-0.008997577
203	0x3c1ff120	0.0097620785
204	0x3d0ade56	0.033903442
205	0x3c5a0f5f	0.013309329
206	0xbbbd3166	-0.005773711
207	0x3d1901e4	0.03735532
208	0x3cc21b52	0.023694668
209	0x3d45f3f7	0.048328366
210	0x3d4b06c8	0.049567014
211	0xbc83975e	-0.016063388
212	0x3d8e1c85	0.069390334
213	0x3d6d770d	0.057974864
214	0xbd826238	-0.0636639
215	0x3c0d463b	0.008622701
216	0x3cc3a218	0.023881003
217	0xbccb19a7	-0.024792505
218	0xbcb22f9e	-0.021751221
219	0x3d7807c7	0.060554292
220	0x3cefdde0	0.029280603
221	0xbd734180	-0.059388638
222	0xbd58130b	-0.052752536
223	0x3d14fd55	0.03637441
224	0xbd6f2666	-0.05838623
225	0xbce4a2fb	-0.027909746
226	0x3bfb70ba	0.00767335
227	0x3d19f019	0.03758249
228	0x3d4ca50f	0.0499621
229	0x3cc60914	0.02417425
230	0x3d354e87	0.044264343
231	0x3cf96895	0.030445376
232	0xbbf42c50	-0.0074515715
233	0xbccc4d5a	-0.024939228
234	0x3d8b201f	0.06793236
235	0xbd523b9a	-0.05132637
236	0x3cfd8d1b	0.030951073
237	0xbc4b9c73	-0.012427437
238	0x3d88e4c3	0.06684258
239	0x3c7d4a30	0.015459582
240	0x3c58be21	0.013228924
241	0x3d65ee39	0.05613539
242	0xba306a10	-0.0006729672
243	0xbaa6796b	-0.001270098
244	0xbbb6edfd	-0.0055825696
245	0xbb3ff7a4	-0.0029291892
246	0xbba19151	-0.004930653
247	0xbd900c15	-0.070335545
248	0xbcbf3ea5	-0.0233453
249	0x3d8ca585	0.06867508
250	0x3d1c4a49	0.03815678
251	0x3cdf88eb	0.027286967
252	0xbcef2e01	-0.029196741
253	0x3c7aa9c4	0.015299264
254	0xbbf42e27	-0.007451791
255	0xbd57a5df	-0.05264842

attention.0.bias f4 [100]
0	0xbc6abc45	-0.0143271135
1	0xbcb0700a	-0.0215378
2	0x3bbe9d21	0.005817071
3	0xbd26ebad	-0.0407521
4	0x3d856988	0.06514269
5	0xbcf056e7	-0.029338313
6	0xbadef5a9	-0.0017010468
7	0x3d67c797	0.056586828
8	0x3cfdc1d8	0.030976221
9	0xbce4aca6	-0.027914356
10	0xbd0dd6c6	-0.034628652
11	0x3be3cbf0	0.0069518015
12	0x3d78325d	0.060594905
13	0xbcf3914d	-0.02973237
14	0x3d8677e5	0.06565837
15	0xbd848153	-0.06469979
16	0xbd47c45e	-0.048771255
17	0x3ccb107e	0.024788138
18	0xbca4b2ad	-0.02010473
19	0x3ca13eb4	0.01968322
20	0x3d3da616	0.04630097
21	0xbd010a6e	-0.031504087
22	0xb9da074d	-0.0004158564
23	0x3d62a207	0.055330303
24	0xbc9a160d	-0.018809343
25	0x3cdd9deb	0.02705284
26	0x3aadfaba	0.0013273575
27	0x3d886d08	0.06661421
28	0xbb97d49a	-0.0046334984
29	0xbcb5e4bc	-0.022203796
30	0x3d86c796	0.06581037
31	0x3cac04e5	0.020998428
32	0x3d4161ad	0.04721229
33	0xbd11b4b5	-0.035572726
34	0xbd0e943a	-0.03480933
35	0x3cee1ff7	0.029067976
36	0xbd5b4d78	-0.053540677
37	0xbd302a3c	-0.043009028
38	0x3cc7f8c9	0.024410622
39	0x3c43c109	0.011947879
40	0x3d23f76d	0.040030885
41	0xbd868e11	-0.06570066
42	0xb9ef47a5	-0.00045639012
43	0xbd200b26	-0.039073132
44	0x3d7cfc0e	0.061763816
45	0x3ccbf6b2	0.024897907
46	0x3c094efd	0.008380649
47	0xbc3761df	-0.011192768
48	0xbbebe8ca	-0.0071993815
49	0x3ca5aa0c	0.020222686
50	0x3c690188	0.0142215565
51	0x3d397c0d	0.04528432
52	0xbcf11429	-0.029428558
53	0x3bdff5f4	0.00683474
54	0xbd2f401e	-0.042785756
55	0x3cf6bcc1	0.030119302
56	0x3d8e1e05	0.069393195
57	0xbc273a3a	-0.010206753
58	0xbd301169	-0.042985354
59	0x3d908a18	0.07057589
60	0xbc277301	-0.01022029
61	0xbc8fa151	-0.017532976
62	0x3ca36a6a	0.019948203
63	0xbd862078	-0.06549162
64	0xbd4c5302	-0.04988385
65	0x3c8fc9ff	0.017552374
66	0x3c75f5b9	0.015012198
67	0xbd5721a8	-0.05252233
68	0xbcb0ba2b	-0.021573147
69	0xbce93d64	-0.028471656
70	0x3cc0931a	0.023507643
71	0x3d16cc6b	0.036816042
72	0xbd0068be	-0.03134989
73	0xbd65e73d	-0.05612873
74	0x3d230c26	0.039806508
75	0xbd04defc	-0.032439217
76	0x3cb32e26	0.021872591
77	0xbd29fd8f	-0.041501578
78	0x3d879a9a	0.06621285
79	0x3d84f04e	0.06491147
80	0xbd24e791	-0.0402599
81	0x3d117200	0.03550911
82	0x3d22c19b	0.039735418
83	0xbd625341	-0.05525518
84	0x3c20ac0d	0.009806645
85	0x3c92debe	0.017928477
86	0xbd523812	-0.051323004
87	0xbc98a9d9	-0.018635677
88	0x3c49d751	0.012319402
89	0x3d52358a	0.05132059
90	0x3a6b27ea	0.0008970486
91	0xbd54ee7a	-0.05198524
92	0x3d8713b8	0.06595558
93	0xbd720763	-0.059089076
94	0xbd8741fd	-0.06604383
95	0x3d0b0467	0.033939745
96	0x3d434cc7	0.047680642
97	0xbbdfb3e1	-0.006826863
98	0x3c85d4b4	0.016336776
99	0xbd6cafcb	-0.057784837
