result/2robots_2000/il_model.pth (torch, 392547 bytes, 20 tensors)

mlp1.0.weight f4 [150, 13]
00000000: 59a1 b4bd 86b2 a03d 00d7 783e 9010 673d
00000010: aaeb de3d 740e 433e 46ce 2a3e cf73 643e
00000020: 14de 023e d131 b83e 3b9b 903e a4a0 a43c
00000030: c427 d0bd a46a 263d c3cf c0be 4d30 c5bd
00000040: dfb1 98be 7da2 6fbc 54d4 d83d 197c bdbd
00000050: 960b 7b3e 0ba6 933d 9a43 0a3e a4ed fbbc
00000060: e2eb e33d d644 373e 054f 8fbe 207c 28be
00000070: b091 ebbd 6000 d13d 35d4 82be 2a34 2e3e
00000080: 4e9a 9dbd d0a1 2abe 5f4a b2bd d433 e63d
00000090: baa2 41be 5271 81bd 81c5 3cbe 2a72 99be
000000a0: a247 a73e 5d3e 00be 7393 bfbd 6b1f 5c3e
000000b0: 1d49 c0bc 0fec 05be 6328 ecbc 5e6e 38be
000000c0: 4c42 d83e 0bc2 e1bc ae9d 9bbd 1951 f8bd
000000d0: 9f28 4b3e e540 b6be 5ca6 c3bd 6b7e 823d
000000e0: 61a5 703e f158 4e3d c107 68bc 1365 c7bd
000000f0: cb2a 52bd db2c 353d ee72 8d3d 9397 6e3e
00000100: 73b9 513b 0cb4 93bd ca85 a9bd f4ff aabd
00000110: 7cfe e03d 7fdd 81bd 0919 8b3e 9a58 10be
00000120: 2a80 34bc 011e 24be 67bb 7bbe ec23 d53b
00000130: ceb6 11be c339 913e 81b3 ef3d 4aff 91be
00000140: db4d 7a3d 7f98 d2bd 9fad 613e fda1 75be
00000150: 7d11 873c a06d c43e 82f2 80be 5f46 8f3d
00000160: 8c30 543e 39d3 94bc 9a96 aabe 775e 3ebd
00000170: 1c89 953d e147 65bd 2652 483e 03fb b03d
00000180: 59ae 86be 19d7 9d3e ad6c 263e 1ddf 25be
00000190: 70cc 633e edd7 46be 9dde 9f3d 57c3 7ebe
000001a0: 71be 86bd f8a9 383c b813 a13d a12b 08bd
000001b0: bb5c 81be e8db 43be 2397 89be b2e7 063d
000001c0: 7abd 343e fb69 cdbd 9ba6 09be b0b9 823c
000001d0: 210b 7abe f47d 203d 2306 13be 88ec a53d
000001e0: c289 07bc a663 0f3d 315b 58be 641c 8c3e
000001f0: 6e47 223e f415 acbe c67c 23be dcd3 10be
00000200: 8bfd e7bd 3a4c 8a3e 85bd 0c3c 42af 363e
00000210: b556 11be 98d5 103e 325f 503e b10d 7c3e
00000220: 7759 0f3d 6124 3f3e 1549 7fbe cd61 ea3d
00000230: bc8e b23d a7f4 acbd 65cb 32bc 5a28 813d
00000240: 0216 a6be 1ac8 95bd ee4e d13d 042c 2abd
00000250: 02de e5bd c4c5 773d a0e8 333e 7443 aa3d
00000260: 2d28 8d3d 110e bbbd 816d 113e 9855 053e
00000270: ceaa 26be 8ab6 87be 0cf6 1ebe 4167 c23d
00000280: a773 a53e 9a92 813c 9665 d0bd 83b7 93bd
00000290: 87cc 963e c337 e53e 431b 8dbe 9c9e 763e
000002a0: f813 47be 21ec 5ebe b73d ebbd 5133 013d
000002b0: 135c 853e c409 83be e753 1cbe 811f 95be
000002c0: 6024 523e e7e4 e43d ff1f 94bd 5c6a 2b3e
000002d0: 8f13 13be 89fe 8abe 71f4 7b3d fa17 16bc
000002e0: b4bb 7f3e d4ac 9abb 2111 84bc 31f7 7b3e
000002f0: a771 c83d cfc4 b23d 597f fabc 6359 d03d
00000300: 3d57 833e 3688 b13d 3ee2 2cbe 0850 013e
00000310: 2211 96bd bcb9 86bd 4d2b c4bd c493 413e
00000320: 9177 143e 1f40 a0bd 2eb8 723e 7772 b5bc
00000330: 8145 483e 2604 7f3e ba75 dfbc 1635 ba3d
00000340: a224 443d 724c 9a3c e229 89be 2cde 35be
00000350: c16d 4ebe b438 133e c755 da3d 5bfe 4d3e
00000360: 105c 1a3d a81c ee3d b1fa 973d f521 66be
00000370: 85f7 78be 621c 63be 8cd2 04bd d9c1 80bd
00000380: dbde 59be 1500 d93c a943 20bd 6352 913e
00000390: c2a2 443e 7645 ee3c 3709 edbd 23a6 55be
000003a0: 2141 1c3e 1c56 8a3d bae9 36be d248 e83c
000003b0: e043 683d d791 163e 4f83 d83c 653a eebd
000003c0: 0eb6 823e 70d6 443e f165 dcbd 5ff6 0b3e
000003d0: 981b 263d 1faf 653e 9da1 8dbe 6b77 6a3e
000003e0: 8ea3 2e3e 0d32 2f3e d845 493e ad90 323c
000003f0: 24d9 71be b7b5 e83a e512 cd3e 752a f23d
-0.08819837 0.07846551 0.24300766 0.05641228 0.10884793 0.19048482 0.1668025 0.22309802
0.12780029 0.35975507 0.2824343 0.02009613 -0.10163835 0.040629044 -0.3765851 -0.09628353
-0.29823205 -0.014626143 0.105873734 -0.092521854 0.24516138 0.072094046 0.1350235 -0.030752964
0.111289755 0.17897353 -0.27989975 -0.164536 -0.11502397 0.1020515 -0.25552526 0.17012087
-0.07695447 -0.16663289 -0.087055914 0.11240354 -0.18909732 -0.06320442 -0.18434717 -0.29969913
0.3267184 -0.1252379 -0.093542956 0.2149636 -0.023472363 -0.1307833 -0.028827852 -0.18010852
0.4223808 -0.027558347 -0.075984344 -0.12124843 0.19839714 -0.35596386 -0.09553215 0.063717686
0.23500587 0.05037779 -0.014162005 -0.09736075 -0.05131034 0.04423223 0.06906687 0.23300008
0.0032001405 -0.072120756 -0.08277471 -0.083496004 0.10986039 -0.06341075 0.27167538 -0.14096299
-0.011016885 -0.1602707 -0.24583207 0.0065045264 -0.1422989 0.2836438 0.117041595 -0.28515083
0.061109405 -0.102829926 0.22038887 -0.23987575 0.016487831 0.38364887 -0.2518502 0.06995844
0.20721644 -0.018167125 -0.33318025 -0.046476807 0.07301542 -0.055976752 0.19562587 0.08641627
-0.26304892 0.3082817 0.16252394 -0.16198392 0.22245955 -0.19418307 0.07806132 -0.24879204
-0.065792926 0.011270992 0.07865089 -0.033244733 -0.2526606 -0.19126856 -0.2687312 0.032935806
0.17650405 -0.1002998 -0.13442461 0.015957683 -0.24418308 0.03918262 -0.1435781 0.081017554
-0.00827259 0.03500714 -0.21128537 0.2736541 0.15847561 -0.336105 -0.15965566 -0.14143318
-0.11327656 0.2701128 0.008590107 0.17840293 -0.14193232 0.1414398 0.20348814 0.24614598
0.03499743 0.18666221 -0.24930222 0.11444435 0.08718631 -0.08445101 -0.010912751 0.063065246
-0.32438666 -0.07313557 0.10220133 -0.041545883 -0.11223985 0.06049134 0.17569208 0.08313647
0.068924285 -0.09133542 0.14201929 0.13020933 -0.16276094 -0.26506454 -0.15523547 0.0949235
0.32314798 0.015816975 -0.10175626 -0.072127365 0.29452917 0.44769105 -0.27559862 0.24083942
-0.19441211 -0.21769764 -0.114863805 0.03154308 0.2604681 -0.25593388 -0.15266381 -0.29125598
0.20521688 0.11176472 -0.07232665 0.16739792 -0.1436293 -0.2714732 0.061512414 -0.00916099
0.24973947 -0.0047203097 -0.016121449 0.24606015 0.097873025 0.087289445 -0.030578302 0.10173299
0.25652495 0.08668558 -0.1688318 0.12628186 -0.073274866 -0.06578395 -0.095785715 0.18904024
0.14498736 -0.0782473 0.23703071 -0.022149308 0.19557764 0.24903926 -0.027277816 0.090921566
0.0478865 0.01883528 -0.26789767 -0.17760533 -0.20159055 0.143771 0.10660892 0.2011656
0.037685454 0.116265595 0.074208625 -0.22473891 -0.24313171 -0.22178796 -0.032427356 -0.062869735
-0.21276419 0.026489297 -0.039127026 0.2838317 0.19202712 0.029085856 -0.11574023 -0.20864157
0.1525922 0.06754705 -0.17862597 0.028355036 0.056705356 0.14704071 0.0264298 -0.116322316
0.25529522 0.19222426 -0.10761631 0.13668202 0.04055366 0.22430085 -0.27662364 0.22897117
0.17054579 0.17108937 0.1965555 0.010898751 -0.23617989 0.001775435 0.40053478 0.11824504

mlp1.0.bias f4 [150]
00000000: a944 673e a423 97be aef6 8abe fbc6 913e
00000010: 3f9f 94be 3672 c1bc 9bff c8be 2a2c da3d
00000020: bff4 86be bfd8 1fbe baef a33e 1bc4 3abe
00000030: ef7d eabc 05a2 fe3d ce19 733d cffe 74be
00000040: 6963 9b3d 8901 49be 9abc 98be 4efe 8fbe
00000050: 9dad fabd c24b 60bc c18a 203e 77e4 b8bd
00000060: 8766 323d f216 a0bd 7bc1 46be 6310 823d
00000070: 11df 0c3e f4ca f3bd 062e 8ebb 1b27 03be
00000080: 1a32 a63e 1547 5d3d 665c aebe 62a5 a6bd
00000090: fd49 ad3d 5b16 703e 1e53 6abe 28d1 84be
000000a0: 2f9d 983e 0a91 ab3e 0029 2abe 5531 583e
000000b0: 319b 15be 8b66 d03e 25bc a6bc 83d5 153e
000000c0: d57b 663e 3ac3 23be bbd3 88bd 8da2 863e
000000d0: d0e1 92bd 7023 85bd 0cc3 113e 7fec 213d
000000e0: 35b1 5abe a3b6 bbbe 1f30 3e3e df8e fa3d
000000f0: c935 443e f8f1 313d 9cbb 13be 4a4b 8cbc
00000100: 4b7c fabd 4a12 3e3e 145e 753e f27b 72bd
00000110: 1bdc d4be efa9 62be 1d32 013e 7370 9b3e
00000120: c672 16be ddae c83c 5b57 093e 92f3 9c3c
00000130: 0a29 a33a 215e 86bd 1c63 07be 6ee0 50be
00000140: 1dc3 363e a2d5 813e 5cb5 773e d01f 63bc
00000150: b3c4 8d3c 82e0 4bbe 63be 1abe b840 8fbd
00000160: 8032 4bbe 3074 6b3c 2988 60be fd34 3bbd
00000170: ee1b 863e 7059 4dbd 972c 0d3e ced7 cebc
00000180: 9a6b 653e 3a33 413e c81a e2bd 7f3f 813d
00000190: 06fb 88be 4535 d33d 2b64 5abe ca4d 7abe
000001a0: 66c0 0ebe 752b 86bd 4e5b bbbe 0a99 13be
000001b0: e6c3 423e 6659 0e3e 2537 d63d e882 53be
000001c0: 49d1 1e3e 51ac 6fbe d799 00be cfd5 863e
000001d0: 2114 9e3d 0a43 bc3d 5a13 16be 63c4 84bd
000001e0: 82fe 6b3e 619b 873e 84b4 713d 191a 42be
000001f0: ba71 0e3b a2ca 2e3e 4a81 49bc 44d5 a7be
00000200: a06c aabe 3151 483e 4545 433d 1cc0 d9bd
00000210: 3c4a 16bd c2f8 01be 7f2c c83d 1fb0 c2bd
00000220: f888 81be 1e77 0a3d c885 9bbe 8f2b 6b3e
00000230: 0d40 0bbe 8e8a 55bd e5d6 823e 6b4a 863e
00000240: bbba 33be 5be9 a0be f840 363e 8074 89be
00000250: 2e6f 53bd 43d4 383e
0.22584786 -0.2951938 -0.27141327 0.28472123 -0.29027745 -0.02361403 -0.39257511 0.10652955
-0.263586 -0.15610026 0.32018834 -0.18238871 -0.028624503 0.124332465 0.05935078 -0.23925327
0.0758732 -0.19629492 -0.29831392 -0.28123707 -0.12240145 -0.013689937 0.1567793 -0.09027951
0.04355481 -0.078168765 -0.19409744 0.06350782 0.13756968 -0.119039446 -0.0043389825 -0.12807886
0.324601 0.054022867 -0.3405487 -0.08137013 0.08461378 0.23446028 -0.22883269 -0.25940824
0.29807422 0.33509094 -0.16617203 0.21112569 -0.14609982 0.40703234 -0.020353386 0.1463223
0.22508176 -0.15992442 -0.066810094 0.2629589 -0.071719766 -0.065009 0.1423456 0.03953218
-0.21356662 -0.36662778 0.18573044 0.12234282 0.19161142 0.04344365 -0.14427036 -0.017125744
-0.12230738 0.18561664 0.23961669 -0.059200235 -0.41574177 -0.22135137 0.12616773 0.3035923
-0.1469222 0.024497444 0.1341223 0.019159112 0.0012448144 -0.065609224 -0.13221401 -0.20398113
0.17847867 0.253583 0.24190277 -0.013862565 0.017305708 -0.19909862 -0.1511169 -0.06994766
-0.19843483 0.014370963 -0.21926941 -0.04570483 0.26193184 -0.050134122 0.13786541 -0.025249388
0.22404328 0.18867198 -0.11040264 0.06310939 -0.26754016 0.10312895 -0.21327274 -0.24443737
-0.13940582 -0.065512575 -0.36593097 -0.14413849 0.19020042 0.1390129 0.10459737 -0.20655406
0.15509523 -0.23405577 -0.12558685 0.26334998 0.07718683 0.09192474 -0.1465582 -0.0648277
0.23046306 0.26485732 0.059010044 -0.18955268 0.0021735267 0.17069486 -0.012298891 -0.32779896
-0.33286 0.19562222 0.047673482 -0.10632345 -0.03669189 -0.1269255 0.09774112 -0.09506249
-0.2529981 0.033805005 -0.30375504 0.22965835 -0.13598652 -0.05213409 0.25554577 0.2622865
-0.17551701 -0.31428036 0.17798221 -0.26846695 -0.0516197 0.18049721

mlp1.2.weight f4 [100, 150]
00000000: b8f2 413b 6c62 2e3d 93c3 8b3d cd54 babd
00000010: 33d6 3bbc 8401 913d 4d88 3fbc 76df 32bd
00000020: 3742 b83d 7897 86bd 5323 95bd 2df2 5b3c
00000030: afc8 28bd 66f9 93bc 73d2 a6bd 48b4 603b
00000040: 7720 d8bc 83a1 65bd e854 353d 4977 92bd
00000050: 1956 54bd 5b61 343d e259 903d 68ab 88bc
00000060: 8720 823d cbab aabb 97ae 6b3d 6ece 31bc
00000070: ae88 acbc 527a 4fbd 3b08 4fbd d3a1 373d
00000080: d124 7ebd 34be 633c cd07 8d3d 5501 3a3d
00000090: 1d0a 173d d4a3 843d 4bfb d33c 0dea 87bd
000000a0: 82ef 9abd 5bb5 903c 0149 1abc 6de5 7abd
000000b0: a60b dbba 29a2 8ebd 6a1d 3dbb d2d8 0abc
000000c0: f391 e1bb 49e6 863c 7c8c 7f3d 58b9 94bd
000000d0: d05d 163d 2f63 6cbd 9163 81bc e470 053d
000000e0: fe9a 7ebd 5cb2 573d ff92 763d 0780 94bd
000000f0: 1780 87bd 5899 a8bc 4c69 9a3b 9cca 9b3d
00000100: 5e85 9cbd 9ed2 35bd 6b88 b3bd ad56 60bd
00000110: 9728 583c 1e63 9f39 3c73 493d 537e 46bd
00000120: 8edf 923d cb6b 383c c0fb 263d 946b a5bd
00000130: 9555 bbbb 6455 323d 7cad 0d3d 8e1c 12bd
00000140: 1794 2ebd 7641 3bbc 50d5 443d 34bd 8bbd
00000150: b6df 33bb 8eb7 3bbd fd4a 533d fc22 57bd
00000160: 6e8b 023d bc40 bfbd 364c 95bd eacd be3c
00000170: 9bf1 7b3d dda6 55bd c420 fb3c 8a9c 1fbd
00000180: 8e10 e1bb 52a7 e7bb b40d ac3d e59b febb
00000190: a224 94bd bbc5 39bd 4183 933c 0313 473c
000001a0: 571b 8abd eb90 9d3c 3c6f 253d 59de 14bd
000001b0: 9a34 9e3b 6b45 853d 07f5 2ebd a96b 793d
000001c0: bc56 bd3c 3d37 1d3d afec 4bbd 3ec9 c3bc
000001d0: 54af ca3c eef8 603d 63e7 153d de19 a0bc
000001e0: b103 98bc fa08 21bd 014d 3dbd 9f76 52bd
000001f0: c1eb 993b df38 433d c919 7c3d 7d71 493d
00000200: 9d84 82bc a8a6 9b3d af9e 763c 709c 8e3d
00000210: 6c67 74bd b6b4 30bd 99e3 f33c e291 763c
00000220: 2d3c 5ebd 6714 0a3d 66fb 25bd ffd6 5fbd
00000230: 10e1 54bd 322d e83c 0598 35bc 5ba6 4fbd
00000240: 2c5a a73d aa5e 753c 158a 7dbd e5ec 59bd
00000250: 0a82 973c f14f 893d eadb c03c b60b 163e
00000260: eff7 33bc 41a4 483c 74c6 e33c bad7 dabc
00000270: aaf9 a93c 2b75 bbbc d491 f33c 0f45 06bd
00000280: 3eef b3bc d9fb cb3c dd8c d33d 0bea 20bb
00000290: dc5b b03d 1a03 4f3d fcf7 b7bc 814f c23d
000002a0: 4c6b 5c3c e493 a23d 4d2c 56bc 9bdc 663c
000002b0: baf2 013e fec9 b73d 5753 2bbd a14b 0d3d
000002c0: 12db a2bd 6d6f cf3a b81c 4b3c 736d f43c
000002d0: 77c6 973d d087 1d3d c641 ab3a fc36 c4bd
000002e0: e767 6c3d 761d 943d c9f5 febd 7558 97bc
000002f0: dd18 ab3a 8257 1c3d 6b78 25be c021 a13b
00000300: ced6 b2bd 23d6 16bd c054 a7bd 2402 ebbd
00000310: 57f8 7d3d 0d74 e2bd 5181 1f3d 9295 cc3b
00000320: 819b b13c 9579 4bbc f9a8 3f3d 6e34 bbbc
00000330: eb55 2d3d 3865 90bc 5f93 b5bd 8d62 e13c
00000340: 07fc cf3d 89da 5ebd a078 55bd de6e a3bd
00000350: 7d50 c8bc 9080 34bd 9355 843d cb42 bf3c
00000360: 4083 7abc 9dda 04bd bea7 66bd b5be ca3b
00000370: 2ece a0bc 4e3c 17be 08d1 dc3c f2de bf3c
00000380: c832 72bd ce4f 8a3c 45c5 8c3d 770e 4dbc
00000390: 1e79 6f3c 9825 b5bc 265b b2bd e9ee e9bd
000003a0: c489 efbd d84b 6cbd 7bd4 c73d cab3 ac3d
000003b0: b95b e8bc a150 0d3e 4257 853d 5a6b 153d
000003c0: 904f d0bc c519 073e 473b 9bba ca1f 613d
000003d0: 7d98 45bc a77a 97bd 5723 893d e5fe 8cbc
000003e0: cd57 92bd 629d be39 e096 883d 015b 1c3d
000003f0: bf66 853d d977 2c3c 565b 6fbd 924e cabd
0.0029594135 0.04257433 0.06824412 -0.09098206 -0.011464643 0.07080367 -0.0116902115 -0.04367014
0.089970045 -0.06571859 -0.07282128 0.013424438 -0.04120701 -0.018063258 -0.08145609 0.0034287143
-0.026382668 -0.056062233 0.044270426 -0.07151658 -0.05183992 0.044038158 0.07048394 -0.016683295
0.0635386 -0.0052084676 0.05753955 -0.010852439 -0.021061268 -0.050653763 -0.05054496 0.044832062
-0.06204683 0.013900328 0.068862535 0.045411427 0.03687488 0.0647656 0.025876662 -0.066364385
-0.07565214 0.017664602 -0.00941682 -0.061253954 -0.0016711846 -0.06964523 -0.0028856643 -0.008474546
-0.0068838536 0.01646723 0.062389836 -0.07261914 0.03671056 -0.057711776 -0.015794547 0.032578364
-0.06215953 0.05266033 0.06019878 -0.07250982 -0.06616228 -0.020580932 0.0047122594 0.07607004
-0.07642625 -0.044390313 -0.08766254 -0.05477016 0.013193271 0.0003040069 0.04918216 -0.048460316
0.07171546 0.011256169 0.04076743 -0.080771595 -0.0057169893 0.043538466 0.034589276 -0.035671763
-0.0426217 -0.011429181 0.048054993 -0.06823197 -0.0027446575 -0.04582935 0.051585186 -0.052523598
0.03187125 -0.09338519 -0.07289927 0.023291547 0.06150971 -0.052161086 0.030655272 -0.038967647
-0.0068684286 -0.0070695067 0.08401051 -0.007770049 -0.0723355 -0.045354586 0.018006923 0.012150529
-0.06743496 0.019234141 0.040389284 -0.03634486 0.004828048 0.06507381 -0.042714145 0.06089369
0.023112647 0.038382757 -0.049786266 -0.02389967 0.024741806 0.054924898 0.03659762 -0.019543584
-0.018556448 -0.0393152 -0.046216015 -0.051382657 0.0046972935 0.04766166 0.06154803 0.049180496
-0.015932376 0.076001465 0.015052482 0.06963432 -0.059668943 -0.04314109 0.029771613 0.01504943
-0.054256607 0.033710863 -0.040522955 -0.054648396 -0.05197245 0.028341863 -0.011083608 -0.05069576
0.08171496 0.014976183 -0.061899263 -0.053204436 0.018494625 0.06704701 0.023542363 0.14652905
-0.010984405 0.012246192 0.02780459 -0.026714195 0.020748932 -0.022883018 0.029732622 -0.032780703
-0.021964666 0.024900364 0.10329602 -0.0024553563 0.08611271 0.050540067 -0.022457115 0.094878204
0.013453316 0.07938364 -0.013072086 0.014090682 0.12690249 0.08974074 -0.041827526 0.034495953
-0.079519406 0.0015826054 0.012396984 0.029837346 0.07410901 0.0384596 0.0013065867 -0.095808
0.057716276 0.07232182 -0.124492235 -0.018474797 0.0013053674 0.03816939 -0.16159217 0.0049173534
-0.08732377 -0.03682531 -0.08170462 -0.11475018 0.062004413 -0.11057291 0.038941685 0.006243416
0.021680595 -0.012419124 0.046792004 -0.022852149 0.042318266 -0.01762639 -0.088659994 0.027512813
0.10155492 -0.05440763 -0.05211699 -0.079801306 -0.024452442 -0.04406792 0.064616345 0.023347279
-0.0152900815 -0.03243505 -0.056312315 0.006187285 -0.019629564 -0.14769098 0.026955143 0.023421738
-0.05913046 0.016883757 0.06873564 -0.012515656 0.014616279 -0.022112653 -0.087087914 -0.114225216
-0.116961986 -0.057689518 0.09757324 0.084327295 -0.02836405 0.13800289 0.06510784 0.03647933
-0.025428563 0.13193424 -0.0011843228 0.054961957 -0.012060282 -0.07396441 0.06696194 -0.017211387
-0.07145653 0.00036356883 0.06669402 0.038172726 0.06513738 0.010526621 -0.058436714 -0.09878267

mlp1.2.bias f4 [100]
00000000: 3f2d 0dbc 6f94 08be d79d 84bd c1e5 adbc
00000010: ca43 7dbd 948f 1bbd 6c04 133d 50db 93bd
00000020: efd0 523a c305 42bd 615f c33d 3eef 9dbd
00000030: 693d 90bb 0ca2 68bd 144e c6bc 9023 d23c
00000040: 85a4 24bd bda3 aabc fbe0 90bb 79f1 543c
00000050: 102b 643d e8c7 2cbc 7dee f0bc 08f7 2a3e
00000060: 036b 713d 95c8 91bd 1a21 dc3c 3604 e53d
00000070: 4d1a fdbc 22c2 bfbc 3c09 7c3d 01ea bb3d
00000080: 72e9 edbc 4539 503d b6e7 c43d 1687 a73d
00000090: b1f8 243e d634 e0bc 2a70 81bc 2ab7 aa3d
000000a0: cb9f 11bd 1abc 133d c32a abbd 22ba 6ebd
000000b0: 6e9e 783e 1197 8d3d edf2 5a3d ec4d ca3c
000000c0: 7492 523e c430 9cbc a83e 723d 16c2 a2bc
000000d0: 871b a4bd 05cb 3ebd 6aa3 4e3d 4aac d23d
000000e0: 0203 62bc c05e 9f3d 328d 8cbc 448b 053d
000000f0: 5c40 38be 4115 8dbd 1f43 0dbe f04a 4fbc
00000100: 8482 ec3c 4323 6cbd 802c 54bd 0f6b f6bc
00000110: 3be5 c4bc b194 e1bd c9e2 b93a ea0d 923d
00000120: 2578 80bd f966 5dbc 4834 3cbd b53e 3d3d
00000130: 88a8 1d3a b6fc 113d 8343 d13d d9fd 353d
00000140: 91d5 fd3c f034 3f39 836b edbc b0fc 5cbd
00000150: 0c6f 77bd fe64 9ebd 07e7 8b3d 81d8 33bd
00000160: bd63 503d ab49 ab3d c659 963d 34b3 5d3c
00000170: a9ce 26be 4db2 e7bd 9174 bebc 9dd0 8c3d
00000180: 1a66 aa3d 4b6a 113b 58ef 41bc 59e8 3c3d
-0.008616745 -0.13337873 -0.06475418 -0.02122772 -0.061832227 -0.037978724 0.03589289 -0.07219565
0.0008041998 -0.047368776 0.095396765 -0.077116475 -0.004401852 -0.056795165 -0.024207152 0.025651723
-0.04019596 -0.02083003 -0.004421351 0.012997025 0.05570513 -0.010545708 -0.029410595 0.16695797
0.058939945 -0.07118336 0.026871253 0.11182444 -0.03089633 -0.023408 0.061532244 0.09175492
-0.02904198 0.050835866 0.09614508 0.081800625 0.16110493 -0.027368944 -0.015800554 0.08335717
-0.03555278 0.03606806 -0.083577655 -0.05828298 0.24279186 0.06913579 0.05345433 0.02469536
0.2056368 -0.019066222 0.059141785 -0.019867938 -0.08013063 -0.046580333 0.050448813 0.10286768
-0.013794662 0.07781744 -0.01715717 0.032603517 -0.17993301 -0.068888195 -0.13795136 -0.012652144
0.028870828 -0.057650816 -0.05180025 -0.030080346 -0.024035087 -0.11014689 0.0014181967 0.0713156
-0.06272916 -0.01351332 -0.045948297 0.04620238 0.0006014188 0.035641395 0.10217955 0.04443154
0.030985625 0.000182349 -0.02898193 -0.05395192 -0.060408637 -0.077341065 0.06831174 -0.043907646
0.050876368 0.083636604 0.07341342 0.013531495 -0.16289772 -0.11313305 -0.023248943 0.06875727
0.083202556 0.00221886 -0.011836849 0.04612002

mlp2.0.weight f4 [100, 100]
00000000: fa8f 173d 341e 08bc 7f07 9ebd 117e 7e3d
00000010: e1c1 84bd 9c8a 49bb 2f30 963d 4bd2 00bd
00000020: 9ee3 89bd ff88 e7bc 3bad abbd adf1 8e3c
00000030: b94b 05bc a7fc 213d aa7f a7bd c843 593c
00000040: fd3a f3bc 15eb 4cbc 842f f2bc ca47 2c3d
00000050: bc3f 92bd fb68 a33d 4da1 bf3d 622d 2b3d
00000060: 8a14 043c 2c41 a5bd ed54 153c ffe3 0a3e
00000070: cd33 83bc c79c 63bd d048 0bbd 2795 d7bd
00000080: 3bef 263c 1d40 e43c 9798 88bc f7b6 9abd
00000090: c389 cabd e020 c1bd 5558 6e3d deb1 01bd
000000a0: d718 443d e590 71bb 7bed 903d 92f9 f8bc
000000b0: b586 7e3d e1b9 8d3c dbef 903d fd2b e03d
000000c0: d69a 68bb c636 2d3c b1bc ff3c 9454 03bd
000000d0: d5c9 b7bd 7dd4 93bd da06 83bc 6a2b e23d
000000e0: f4c0 9ebd 092c 173d b691 483d 8ad0 e1bd
000000f0: bbb5 b4bd 5549 7abc 98d1 943d 6320 b0bd
00000100: c407 c3bd 28eb 5b3d 385a 5f3d 9ec3 f83d
00000110: 89f0 c43c 3e8a cfbd ac9f 863d d967 933c
00000120: 84af 0b3d 3c3e 373d 43d9 2abd fad5 813d
00000130: bbcb fa3d 1b89 9fbd 1d68 ba3d 9d2d a53d
00000140: d5b4 8d3d 1c6e bb3c e39e 1ebb 4452 763d
00000150: 7e75 eabc c443 5abc 4bde 91bd 0221 32bd
00000160: bf88 783b 5bb7 a8bd 45c8 d43d 21d8 8cbc
00000170: bb18 b93b de5e 77bd 085c d4bd 910a 0dbd
00000180: 76a6 bdbc 8fc2 e2bd cedd d9bc ba66 d03c
00000190: 773d 853d fb69 a1bc 1091 b2bd 79a1 d63c
000001a0: fea2 b03c ae89 79bc e9e8 cbbd 03ec a53c
000001b0: 2354 15bd 44be afbc 5ca6 cbbc 4a1f a8bd
000001c0: 0040 103d 30b1 24bd b07a c1bd 4884 ad3d
000001d0: 344f be3c 2962 71bd 6431 cb3d ab4d 4a3d
000001e0: 2263 8e3d 0c30 613d a75c 07bd 912b b33b
000001f0: d06b 8e3d 2e27 5ebd 9a96 963d 623b a03d
00000200: 6678 e6bc 3b17 70bd 27eb b93c 0f42 ef3c
00000210: a7af a8bd eda1 75bd a30c 19bd 8a5b 8d3b
00000220: 9228 98bd 3bb5 39bd 78db 403d bee4 093d
00000230: ea2c 853a 5536 df3c 1dc4 073d 079a b4bd
00000240: 3077 bfbd 0491 ff3d 4048 a4bc 376c 7fbd
00000250: a5c8 843d d950 22bc 9706 b93d 525b 353d
00000260: 513d b5bc 6851 dbbd c005 71bd c13c babd
00000270: 6777 973d 4365 6e3c 6721 ea3c 88ae 89bb
00000280: 623f 30bd 11f1 803d 774d 31bb 8ab5 61bd
00000290: 7073 aa3d 20a5 963b ebe8 75bd dea8 e0bb
000002a0: 1258 5a3d 156c 933d ffbb 75bd 22c0 d13d
000002b0: a4a7 6f3d 02f2 83bd ef07 18be 2521 543d
000002c0: f882 333d 0757 aabd a7b9 d53c 49ed 4dbd
000002d0: 9383 5fbd ba7b a63d 5636 dd3c fbf2 613d
000002e0: 0b44 e1bb c870 c23d a076 683d c0bc 283d
000002f0: 94bd a0bd 6f0f e13c e633 cfbd 8309 b03d
00000300: 108a 9fbd e952 f4bc 66a3 d1bd 84f4 4bbc
00000310: ccbd 20bd 5535 e53c 4579 58bd 4695 b33d
00000320: 4956 f7bc 9104 e73d e839 a83c 6afa 39bc
00000330: d9c5 893d df7b 26bc 043b 873c 2ed6 d73c
00000340: 4bab d43d 6b7a 16bd 25b2 4fbd 7b13 a5bd
00000350: 99d3 613a 122a 31be 6622 acbc fec4 343d
00000360: 31cc ccbd 0cee c0bc d227 dcbc 9e4a 403d
00000370: c3c6 ca3d 6883 05bd 6ff1 113c a655 873c
00000380: 198e 403d 23c8 67bd 0565 b4bd d686 f23d
00000390: a068 e53c 3c27 dfbd 0ae5 2bbd 5e9b bebc
000003a0: b202 bbbd d3f4 e3bc 7599 9abd 1d78 073d
000003b0: 2e64 5dbd 68bd 96bd 7e8f 873c 2c99 01bd
000003c0: 511d dc3d 9438 0cbe a222 32bc fd88 b0b9
000003d0: 3477 cf3c 9c23 e33c 6085 49bd 90e1 aa3d
000003e0: 7756 5cbd 99f3 403d b4eb 0bbd f5c9 88bc
000003f0: f05d 983d 5750 263d 1ffc 43bd 4640 a43c
0.03700254 -0.008307982 -0.077162735 0.062131945 -0.06482292 -0.0030752784 0.07333409 -0.03145055
-0.06732868 -0.028263567 -0.083826505 0.017449224 -0.0081357295 0.03954759 -0.08178647 0.013260789
-0.029691214 -0.01250722 -0.029563673 0.04206065 -0.071410626 0.07979008 0.093569376 0.041791327
0.0080615375 -0.08069071 0.009114486 0.13563536 -0.016015911 -0.055569436 -0.034004986 -0.105264954
0.010188873 0.027862603 -0.016674323 -0.07554429 -0.09889557 -0.094300985 0.05818971 -0.031663768
0.04787525 -0.0036860046 0.07076546 -0.030392442 0.062140185 0.017300548 0.07076999 0.1094589
-0.003549268 0.010572141 0.031217905 -0.03206308 -0.08974043 -0.07218263 -0.015994478 0.11043437
-0.07751647 0.03690723 0.048967086 -0.11026104 -0.08823725 -0.015276273 0.07266539 -0.08599927
-0.095229656 0.05369106 0.0545294 0.12146686 0.024040477 -0.101337895 0.06573424 0.017993854
0.03410293 0.044737086 -0.041711103 0.06339641 0.1224589 -0.07789823 0.09101889 0.08065341
0.069192566 0.022879653 -0.002420359 0.06013705 -0.028620478 -0.013321821 -0.07122477 -0.04348851
0.0037923304 -0.08238097 0.10389761 -0.017192902 0.0056487 -0.060393207 -0.10369116 -0.034433905
-0.023150664 -0.11072265 -0.026595023 0.025439609 0.06505864 -0.019703856 -0.08719075 0.026200043
0.021562096 -0.015230579 -0.099565335 0.02025414 -0.036457192 -0.02145303 -0.0248596 -0.08209093
0.035217285 -0.04020804 -0.09447229 0.08472496 0.023231126 -0.058931503 0.0992153 0.049390476
0.06952502 0.05497746 -0.033047345 0.00546784 0.06954157 -0.054236583 0.07352944 0.078238264
-0.028133582 -0.058615904 0.022695137 0.029206304 -0.08236628 -0.059968878 -0.037365567 0.004313891
-0.07429613 -0.04533885 0.0470843 0.03366541 0.001016048 0.027247587 0.033146013 -0.08818441
-0.09348905 0.124788314 -0.020053983 -0.06235906 0.064835824 -0.009906971 0.0903446 0.044276543
-0.022123965 -0.107088864 -0.058843374 -0.09093619 0.07395821 0.01455051 0.02858038 -0.004201714
-0.043029197 0.0629598 -0.002705423 -0.05510477 0.08322799 0.004597321 -0.06003658 -0.006856068
0.053306647 0.071983494 -0.05999374 0.102417246 0.058509484 -0.06442644 -0.14846776 0.05178942
0.043826073 -0.083173804 0.026089502 -0.05027512 -0.05456884 0.08129068 0.027003448 0.055163365
-0.0068745664 0.094941676 0.056753755 0.04119563 -0.07848659 0.02747318 -0.10117321 0.08595564
-0.07790005 -0.02982469 -0.10236244 -0.012448434 -0.039243504 0.027979532 -0.052850027 0.08768706
-0.030192511 0.11280168 0.020535424 -0.011351207 0.067271896 -0.010161369 0.016507633 0.026347246
0.10384234 -0.03673784 -0.050707 -0.08060356 0.00086145994 -0.17301205 -0.021012496 0.04413318
-0.09999884 -0.02355101 -0.026874457 0.04694616 0.09901192 -0.032596022 0.00890766 0.016520333
0.047010515 -0.05658735 -0.088083304 0.11842124 0.02800399 -0.10896155 -0.041966476 -0.023267444
-0.091313735 -0.027826702 -0.07548801 0.033073533 -0.054050617 -0.07360345 0.016547915 -0.031640217
0.10747779 -0.13693458 -0.010872515 -0.000336714 0.025325395 0.02772694 -0.049199462 0.08343804
-0.053793397 0.047107313 -0.03416033 -0.016697863 0.07439792 0.04060396 -0.047847863 0.02005018

mlp2.0.bias f4 [100]
00000000: 0a16 133e 120d 3a3d 6ee0 25bd e9e6 e9bd
00000010: 3835 3f3d 25e3 7cbd 38ee 71bd 4a20 0a3e
00000020: 3133 073e 5b22 443d e073 803e 6d1c bf3d
00000030: a8fa b23d 2b8b 45bd 8ab7 22bd 0154 c7bc
00000040: 7267 44bd cd57 8cbd c821 4cbd 3bf5 55bd
00000050: 2da7 a53d a13a db3d dd7d 38bd 2dfc 12bd
00000060: 9453 813b 01fc bbbd 434e b43d 845a 18bd
00000070: 89ef 8a3d dbdb 1abd c26a 903d b15e 8b3c
00000080: 2030 d03d 7686 d1bc 692b ffbd 6270 82bc
00000090: 3331 2c3d 39c0 a5bc 2a97 773d da89 e43d
000000a0: e19e c1bd ccec 43be e0ad df3d 4451 66be
000000b0: 7130 19be 91c7 e73d 6cd2 ec3d b5f2 bb3d
000000c0: 8823 163d b64b aebd 95e6 1abd 192f e43d
000000d0: d7ca 23bb 447f ed3d 3b9b db3d 649d cdbd
000000e0: 93d1 563c 3ff0 e5ba 9ef5 603d 339c 39bd
000000f0: 59bb 26bd 6c86 153e d759 8c3d d267 63bd
00000100: a312 cbbd e09d 83bd a730 603d 7e28 323e
00000110: ae99 83bc 863a 313e 06f9 8abd 9fe2 b53d
00000120: 8885 d0bd bc69 a33b ab7f b13d 1340 84be
00000130: 9f5c a23d 7841 ccbd 11bd 21be 1fa1 393e
00000140: 888f c4bc 2015 743d 4c89 3cbd 40d7 1dbc
00000150: c4f1 dc3d 10bb a33d c6af 333d dd7b 1b3e
00000160: 8e80 183c 6d8a 36be b8af c43c be35 0a3d
00000170: 0cab 013d c09f cfba 4720 05bd fc67 053e
00000180: 55d1 c7bc 950f 6a3d 2225 9c3d 2159 1abd
0.14363876 0.04542262 -0.040497236 -0.11420996 0.046681613 -0.06174006 -0.059065074 0.1348888
0.13203122 0.047884326 0.25088406 0.09331594 0.08739215 -0.048228424 -0.039725818 -0.024332048
-0.047950216 -0.06852684 -0.049836904 -0.052235823 0.08088527 0.10704542 -0.045041908 -0.035885025
0.003946731 -0.09178925 0.0880399 -0.037195697 0.06783969 -0.037807327 0.070516124 0.017012926
0.10165429 -0.025576811 -0.12459452 -0.015922729 0.042039108 -0.02023326 0.060446896 0.111591056
-0.09454132 -0.191333 0.10921836 -0.22491938 -0.14959885 0.11317361 0.11563572 0.09177152
0.03665498 -0.085105345 -0.037817556 0.11141796 -0.0024992728 0.115965396 0.10722967 -0.100397855
0.01311149 -0.0017542912 0.05492174 -0.04531498 -0.040706012 0.14602059 0.06853073 -0.055518933
-0.09915664 -0.06426597 0.0547339 0.17398259 -0.016064491 0.17307481 -0.06785779 0.08881115
-0.10181719 0.0049869698 0.08666929 -0.25830135 0.07927822 -0.09973425 -0.1579478 0.18127869
-0.023994222 0.05959046 -0.046029374 -0.009633839 0.10788301 0.07994664 0.043868802 0.15183969
0.009307994 -0.17826243 0.02400957 0.03374266 0.031657264 -0.0015840456 -0.032501485 0.13027948
-0.02439181 0.057143766 0.0762427 -0.037682656

mlp2.2.weight f4 [50, 100]
00000000: 0ee0 a93d 8820 9abd 3d4d b4bd 25a6 3fbd
00000010: 215e 8bbd 1ecd 3d3d 9f68 363e 127f e8bd
00000020: a265 fb3d 4c1b c53c d0ea b33d 3965 6ebd
00000030: e15d fabc 8b4d e63c d2c1 4ebc 425c 453d
00000040: 5279 8a3c 57ed a03d 0069 23bd 1a13 80bc
00000050: 0f59 c03d 8921 bcbd 2b6a afbd 4ed2 083d
00000060: ad9c bdbd 5a25 753d 27e9 b5bc 6bb8 15bd
00000070: 4798 05bb 857a b0bd ae58 413d 54eb 32bd
00000080: 6022 353d c7b5 9ebd ab67 d93c 3066 d73c
00000090: 2953 28bd b7e6 07bd 3ff6 5e3d af9a 9ebd
000000a0: 81dd 9ebd f32c 853d c389 c93d 6327 32bc
000000b0: a72b c1bc c5e1 a3bd 2b88 cb3c 7039 4dbd
000000c0: c057 7ebc c49f b4bd 07db 003d 8f43 16bc
000000d0: 50fb 11bd a572 9f3d 4f1f 483d a342 903c
000000e0: eda0 713c d66e 003b 62c6 d23c 5dda 44bd
000000f0: 38cd ef3d 0a4e 1dbc 8ad5 523d e5a9 5fbd
00000100: 6558 e73c 191e a4bb 6a21 313d 8bfd fdbb
00000110: 6765 043d 37f9 903d 3329 c83d c9f7 acbd
00000120: ada0 e0bc 7598 12bd ed52 cfbd 1832 473d
00000130: d3e8 c93b 509f d33d 5ab6 1f3d b9a7 8c3d
00000140: f0c2 c73c e086 1d3d d1ea a83d 036e 35bd
00000150: 8857 623d f832 a43d 0314 5d3c fed3 323d
00000160: f4ee 0e3d 6070 03bc 9ac9 f73d 1a69 c8bc
00000170: 6f4f 06be 0a44 88bd d7c9 82bd 65b8 6c3b
00000180: 970b 613d a569 933d daad 753c 78c1 7c3d
00000190: 5e37 8bbd 1296 f63c f361 e63d 00bc c53a
000001a0: 36e7 f73d 5226 833d 960d 36bd df31 c83b
000001b0: 822f efbd d414 83bd 0529 d0bd f333 633d
000001c0: e75d 983d 47d3 aa3d f36b f03c 164e 9d3d
000001d0: 65ab 9bbd a3fe ac3c b948 3d3c 75ae aabd
000001e0: bd3d a9bc f3e7 00bb b330 ccbd 7ea0 a2bd
000001f0: 5942 69bc 33e4 7a3d 545a ac3d 49c5 093e
00000200: 7d3d 273d a228 f23d 0006 86bd e601 bdbd
00000210: d293 233d c6ad c83d 845c f9bd a1da 4e3d
00000220: 61ad 453d bb39 58bd 69e2 de3d 808e aa3d
00000230: 14bb cc3d 6e0b e23c 23b8 99bc e8c4 a0bd
00000240: f2d7 003e 91dc 96bd c892 c1bd 9e91 2fbc
00000250: b1dd 91bd 22f8 12bd b7c8 babd c4a9 d93d
00000260: 267f 12bd 59d9 65bd 01a4 0bbd 9e88 d1bd
00000270: d50a babd d689 873b 5f11 0a3e cbc0 443d
00000280: a1d4 ab3b e3d1 cc3d ef1c f6bc 54e9 e7bd
00000290: 9324 22bd 0f53 e5bb 2097 7cbd a98f 303d
000002a0: f644 d93b 9df2 a1ba e98c 433d a048 3e3c
000002b0: d72e b2bd 8084 70bd c8f3 67bd 16d0 053d
000002c0: 4a5f 96bc 2d73 f5bd aa18 0bbd 603c eb3d
000002d0: f4c4 df3d 5218 03be f42a 003c f818 d93d
000002e0: ba10 df3d d6a7 79bd 7e35 04bd 7db5 8fbd
000002f0: a8ba d93c 6f63 c53d ee3f f13c 8cb5 84bd
00000300: de60 233e d94f 9abc 21f3 3fbd 807d 193d
00000310: 0a79 2f3d bda6 953d 59b2 31bd 5228 06bd
00000320: 392f 123c edfa d43d 0e1c 5fbc 4e70 01bd
00000330: 048f 2cbe e240 9ebd fd1b 0a3d 7507 f93a
00000340: 7853 d83d 5311 0b3d 2db6 073e 88bb 41bd
00000350: 2d57 61bd 3499 33be b97d c1bd e054 b53d
00000360: d972 51bc 81dd d63d 8d7c 583d e947 dc3d
00000370: c73a d03c 1fcf 4abd 6642 cabd 57be 353a
00000380: 3fd5 8c3d 7de8 a13d 6044 8bbc bc08 103e
00000390: ccf8 dbbd 02f3 b0bd 624c e93d 7441 433d
000003a0: ca0e 54bc 6603 8bbd 4137 2abd e5f3 b0bd
000003b0: 689b c5bd 274e 4d3d 6ba2 28be 9064 6cbd
000003c0: 899b 8abc f819 98bd 2dee adbb cad4 3abd
000003d0: ec69 79bc 3ff0 ffbd 240a 13bb ebd3 c1bd
000003e0: a6c0 6fbd 32f9 dc3b 70b9 c63c 850b 9c3c
000003f0: 3180 44bb 4b0a b63d 1479 34bc 3d6d 933d
0.08294688 -0.07525736 -0.088037945 -0.046789307 -0.06805063 0.046338193 0.17813347 -0.11352362
0.12275244 0.024060868 0.08785021 -0.058202002 -0.030562343 0.028113147 -0.012619453 0.048183687
0.016903553 0.07857769 -0.039895058 -0.015634108 0.093919866 -0.09186084 -0.08565172 0.033403687
-0.09258399 0.059850074 -0.022205902 -0.036552828 -0.0020384954 -0.08617119 0.047203712 -0.043681458
0.044222236 -0.07749515 0.02653869 0.026293844 -0.041094933 -0.03317901 0.054434057 -0.07744347
-0.07757092 0.06502714 0.09840729 -0.010873648 -0.023580385 -0.080020465 0.024845203 -0.050103605
-0.015523851 -0.088195354 0.03145888 -0.009171381 -0.03564006 0.077855386 0.048857983 0.0176099
0.01474784 0.0019597313 0.025729362 -0.04805981 0.11709064 -0.0096011255 0.051473178 -0.054605383
0.028240392 -0.0050084707 0.043244757 -0.007751172 0.032323267 0.07078784 0.09773483 -0.08445699
-0.027420366 -0.035789926 -0.10123239 0.048631757 0.006161788 0.10333121 0.038992263 0.06867928
0.024384946 0.038458705 0.08247913 -0.04429437 0.055259258 0.08017534 0.013493541 0.043659203
0.034895852 -0.008022398 0.12098999 -0.024464179 -0.13116239 -0.066536024 -0.06386154 0.003612065
0.054942694 0.071978845 0.014995063 0.061707944 -0.0679767 0.030100856 0.11249151 0.0015085936
0.12104647 0.064037934 -0.04444655 0.0061094607 -0.11678983 -0.06400457 -0.10164074 0.055469465
0.074397855 0.08341079 0.02934835 0.07680909 -0.0760105 0.021117514 0.011552983 -0.08334056
-0.020659322 -0.0019669503 -0.09970226 -0.07940768 -0.01423701 0.061252784 0.08415666 0.13454165
0.040830124 0.11824156 -0.06544113 -0.09228878 0.039935894 0.0979877 -0.12175849 0.05050147
0.04826105 -0.05278943 0.10883028 0.08327961 0.0999662 0.02759334 -0.018764561 -0.07850057
0.12582377 -0.073662885 -0.094518244 -0.01071587 -0.071223624 -0.03588117 -0.091203146 0.10628083
-0.03576579 -0.056115482 -0.034091953 -0.10231136 -0.09084097 0.0041363044 0.13483189 0.048035424
0.005243853 0.1000097 -0.030043093 -0.11323801 -0.03958566 -0.0069984267 -0.06166756 0.043105755
0.0066305352 -0.001235563 0.047741804 0.011613995 -0.0870034 -0.05872011 -0.056628972 0.03266915
-0.018355984 -0.11984859 -0.03395907 0.11486125 0.10926238 -0.12802246 0.007822741 0.106004655
0.10891862 -0.060951076 -0.032277577 -0.07017038 0.026578262 0.09638106 0.02944943 -0.0647994
0.1595492 -0.018836902 -0.046862725 0.0374732 0.04284004 0.073071934 -0.043382976 -0.032753296
0.008922392 0.10399423 -0.013617529 -0.031601243 -0.16851431 -0.07727219 0.033718098 0.0018999415
0.105627954 0.03395207 0.13253088 -0.047297984 -0.055014778 -0.17538911 -0.09447808 0.08854079
-0.0127837295 0.10491467 0.052853156 0.10755903 0.025418652 -0.049513932 -0.09875946 0.0006932965
0.06876611 0.07905672 -0.017000377 0.14065832 -0.107408136 -0.086401 0.11391522 0.047669843
-0.012942979 -0.067877576 -0.0415566 -0.08640269 -0.09648782 0.05012336 -0.16468208 -0.05771309
-0.016919868 -0.07426828 -0.005307934 -0.045613088 -0.015223008 -0.12496995 -0.0022436464 -0.09464248
-0.058533333 0.0067435736 0.024258345 0.019048462 -0.0029983635 0.08888682 -0.011015195 0.0719857

mlp2.2.bias f4 [50]
00000000: ddfc 54bd 546c f8bd 893f e83c ca8f 613d
00000010: 8bfe 89bd 07c5 94bc 6fe2 0abd 68fc 343e
00000020: b72a a73c 4cd8 433e 03d9 093e ae1d 7d3e
00000030: eb44 a1bc 8d45 463c 46ac 1bbe fe91 b1bd
00000040: c2ca 003e 49da d83d d303 c2bd ee41 983d
00000050: 0ff1 b13c 0345 373e f56a 41be 72a0 16bd
00000060: d278 27be 91d1 f33c e861 b0bd 8db0 0c3e
00000070: bfa0 3b3e 3a8e 8d3c 33b7 05bd 9012 083e
00000080: 3b04 243d 1af9 303e 3ba1 09bd a2f7 e33b
00000090: c02b 3f3d e852 723d dcb6 c6bd 22e3 0dbc
000000a0: 476d 413d 9ff8 4abe 70fb b4bd 2341 59be
000000b0: 576a 98be 0e01 653e e53a 2c3e 169c f3bd
000000c0: 2af9 5fbc 91f5 08bd
-0.05199896 -0.12130037 0.028350608 0.05506877 -0.06738003 -0.018160356 -0.03390735 0.1767441
0.02040611 0.1912548 0.1346169 0.24718353 -0.019686183 0.012101543 -0.15202436 -0.08670424
0.12577346 0.105885096 -0.09473386 0.0743445 0.021721391 0.1789742 -0.18888457 -0.036774106
-0.16354683 0.029763015 -0.08612424 0.13739224 0.18323039 0.017279733 -0.032645416 0.13288331
0.040043097 0.17282525 -0.033601027 0.0069570104 0.046672583 0.059161097 -0.097028464 -0.00866011
0.047223356 -0.19821404 -0.088370204 -0.21216254 -0.2976863 0.22363684 0.16819341 -0.118950054
-0.013670245 -0.033437315

attention.0.weight f4 [100, 200]
00000000: 426d 18bd b7c0 043d 5b5e 0bbd 5056 2abd
00000010: 3993 87bd d4f7 67bc 7d1d c53c bddf 633d
00000020: 0548 71bd 3e5c c03c e641 8e3c 0371 06bd
00000030: 729e 6fbd dba1 8d3b 2106 0f3d a1a7 6c3d
00000040: 5e1f 55bd 4190 823d 6911 dd3c 8872 62bd
00000050: 40e0 d93c 3f67 89bc 3062 3d3d 34d6 22bc
00000060: 941f 87bd a84c 90bc 228a 843d d49b 213d
00000070: 2a66 7a3d bcc6 ffbc 1ae5 70bd f4eb 7bbc
00000080: d4be 8b3c d5e0 6bbd 2115 70bd 20da 43bd
00000090: 128a aa3c 18b1 853d c340 613d dae2 e23c
000000a0: de07 863c 122c dbbc 19a3 7dbd 0a08 703d
000000b0: e36a 843b c231 66bd ec63 8fbd 295c a83c
000000c0: c0d9 e63a 8b72 a8bc 94a0 bb3c 029d 853d
000000d0: 0eae 8b3d 379c 263d 1908 40bd 5819 e7bc
000000e0: 5122 9f3c dc33 fabc 671a 16bd afbd 42bd
000000f0: 6db4 c0bc b1b6 923b d499 59bc 6d4b 8dbd
00000100: d584 dabc adb2 003d f5ab 72bd b667 603d
00000110: 4e56 593d 5542 1dbd 1fca 3c3d 7853 663d
00000120: ca83 3cbd ece0 75bd 5d4a fc3c e6c1 213d
00000130: 41f7 6f3d fbda 523c da64 05bd 90f6 1f3d
00000140: d79a 08bd 73bd 66bd 6ab8 a43c cf18 073d
00000150: b373 123d 0af6 723d 6b9a 7dbd 8b83 413d
00000160: 3788 7a3d 2653 f3bc 42cc 3d3d 3e84 9abc
00000170: 69ef 8abc 9198 17bd cbb3 82bc 0534 52bd
00000180: a7ff 2fbd 2bc7 2c3d 0fa5 8cbd cc0d 26bd
00000190: a813 a53c b952 4d3d 6d68 483d 17d4 24bd
000001a0: 464f 233d fa43 223d 399e 5cbd eb6d c7bc
000001b0: f4e6 c23c 3eb0 c4bc 607b 78bd 3f04 52bd
000001c0: fc87 ce3c 2e31 473d bff5 bbbc fb1e 59bd
000001d0: 5bf7 1dbd ebf4 c33c 47ae 0bbb 1bbf da3c
000001e0: 4d7b f73c afc0 653d 8d7e 103d 66a6 c53c
000001f0: 0fdd 293d e2fb 7abd 3551 0abd 115e fb3c
00000200: 9a58 723d e374 2dbc b4bb 37bd 38fb 463d
00000210: fb25 79bd f452 fdbb 837a 8d3a 410d 81bd
00000220: b57d da3b e0b2 b4bc 9b31 6fbd 99a0 3abd
00000230: 1ae0 083b 87c9 303d 2c96 9e3a c7a2 e03c
00000240: 0d9e 81bd b3fd 59bd ede0 723d 688f e1bc
00000250: 66a1 f53a c7af f2bc 17e5 67bd 4f5a 21bd
00000260: 5ffc 77bd edae eb3c 21c6 0c3d 4f49 faba
00000270: 9d2c 1e3d dbce b93b c84e 33bc 829c 4639
00000280: ab85 c7bc efc8 09bd 8f8a f63c 5425 113d
00000290: 99a3 53bd 8608 373d 7672 5bbb e3aa aebc
000002a0: 7cc9 23bd 0f5e 5bbd 73ce 5cbd 2d86 953d
000002b0: 540d 8f3d 9f53 683c eaa4 3f3d ab63 453c
000002c0: faff 3b3d 78b4 403d 16b0 babb d60f 07bd
000002d0: 3895 37bd 4a9c 21bd 4e1b 63bd 3e3d ad3c
000002e0: 19af 10bd b4ec 21bd 4654 4abb 2482 913d
000002f0: 31c4 413c 9a73 ac3b 421d 67bc e4aa 043c
00000300: 554f abbc df98 0b3c 6016 043d b7e2 713d
00000310: 74c6 1f3c d2bb 80bd c63a a7bc 92de 543d
00000320: 71b6 b23c cfca 423d 7b5d 89bd 5416 76bd
00000330: b467 72bb 9b04 483d e18c 2dbd bd3a 803d
00000340: 31ea dabc 7f34 643d 237b 823d 619a 7b3b
00000350: 7167 bb3c d5fe 2bbd 3f84 2ebd 520b 0a3d
00000360: 6f15 633c e34a 14bc e743 483d 8e20 60bd
00000370: ac1e 043d 4b96 443d 070e 8c3d d857 82bd
00000380: ca51 72bd 941d a3bc bbef afbb 3aca 0c3d
00000390: 2889 b83c e037 323b 86be 123d a2a3 253c
000003a0: 292b 863d c6e8 a9bd 97ad 7dbd 5abf c43c
000003b0: 8d41 0cbd d74d 2cbd 5530 85bd 2f1c 0cbd
000003c0: 7d81 41bb 9b18 b53a b24d 8a3d c1f1 c8bc
000003d0: 4d6f cd3b a5ad 2cbd a135 123d 9210 6d3d
000003e0: edc1 60bd f1e8 143c 4d0f c7bc 1aa0 8d3d
000003f0: 4374 60bd ce9d 843d 861c 39bd f599 463d
-0.03721357 0.03241035 -0.03402553 -0.04158622 -0.06619877 -0.014158208 0.024061913 0.055633295
-0.058906574 0.023481485 0.017365407 -0.03282262 -0.058500715 0.004322273 0.034917954 0.05777705
-0.052031867 0.063751705 0.02698584 -0.055285007 0.026596189 -0.016772864 0.046236217 -0.009938765
-0.0659782 -0.017614678 0.06471659 0.03945525 0.061132587 -0.031222694 -0.05881224 -0.01537608
0.017058767 -0.057587463 -0.0586139 -0.047815442 0.02081779 0.065279186 0.054993402 0.027696062
0.016361173 -0.026754413 -0.06192312 0.058601417 0.004041062 -0.056199796 -0.070014805 0.020551758
0.0017612502 -0.02056243 0.022903718 0.065240875 0.06820308 0.04067632 -0.046882723 -0.028210327
0.019425543 -0.030542307 -0.036646273 -0.047544178 -0.023523534 0.004477345 -0.013281304 -0.06899152
-0.026674667 0.0314204 -0.059246022 0.054786406 0.053060822 -0.038393337 0.046091195 0.056231946
-0.04602412 -0.060028955 0.030797178 0.039491557 0.05858541 0.012869592 -0.032566883 0.0390535
-0.03335079 -0.056333017 0.020107467 0.032982644 0.03575487 0.059316672 -0.061914843 0.04724459
0.06116506 -0.029702734 0.046337374 -0.018861886 -0.016959863 -0.037010733 -0.015954873 -0.05131914
-0.04296842 0.04218213 -0.0686742 -0.0405405 0.020150974 0.05012772 0.048927713 -0.040241327
0.039870523 0.03961561 -0.05386183 -0.024344405 0.023791768 -0.02400982 -0.060664535 -0.05127358
0.025211327 0.048630886 -0.02294433 -0.05300806 -0.038565975 0.023920497 -0.0021313594 0.026702454
0.030210162 0.05609196 0.03527694 0.024127197 0.041470584 -0.06127537 -0.03376885 0.030684503
0.05916653 -0.01058695 -0.044856742 0.048579425 -0.060827237 -0.007730836 0.0010793958 -0.06301356
0.0066678175 -0.02205795 -0.058396917 -0.045563314 0.0020885528 0.04316094 0.0012099198 0.027421368
-0.06328974 -0.053220462 0.059296537 -0.027534202 0.0018740117 -0.029624833 -0.05661496 -0.039392766
-0.060543414 0.028769935 0.034368638 -0.0019095334 0.038616765 0.005670411 -0.010944076 0.00018941055
-0.02435573 -0.03363889 0.030095367 0.03543599 -0.05166969 0.044685863 -0.0033484972 -0.02132172
-0.039987072 -0.0535565 -0.053907823 0.073009826 0.06984964 0.014180093 0.046788134 0.0120476885
0.045898415 0.04704711 -0.0056972606 -0.032974087 -0.04482004 -0.03945569 -0.05544596 0.021147367
-0.035323236 -0.03953238 -0.0030872985 0.071049005 0.011826561 0.005262804 -0.014106097 0.008097384
-0.020911852 0.008520334 0.0322479 0.059054103 0.009751905 -0.06285824 -0.020413768 0.051970072
0.02181551 0.047556695 -0.06707283 -0.060079888 -0.0036988081 0.048832517 -0.04237068 0.062612034
-0.026723 0.055714127 0.06371143 0.0038391578 0.022876473 -0.041991074 -0.04260659 0.033702202
0.013860091 -0.0090510575 0.04889288 -0.054718547 0.032255813 0.047994893 0.06838613 -0.06364411
-0.05916003 -0.019911565 -0.0053691543 0.034372546 0.022526339 0.0027193949 0.03582623 0.010109814
0.06551201 -0.08296351 -0.061933126 0.024017025 -0.0342422 -0.04206642 -0.06503359 -0.034206565
-0.0029526644 0.0013816537 0.067531005 -0.02452934 0.0062693716 -0.042157788 0.035695676 0.05787713
-0.054872442 0.009088741 -0.024299288 0.069153026 -0.054798376 0.06475411 -0.045193218 0.04848667

attention.0.bias f4 [100]
00000000: c8ed 8d3c 5f4d a4bc 8568 573c e8f0 933d
00000010: 0f71 af3b 7e0f c6bd 7a51 94bc c395 a13d
00000020: 2f00 65bd 07a4 9b3d c13d 6c3d 064c 6dbc
00000030: d594 973d 055b 29bd e856 35bd 85d6 9d3c
00000040: f837 ad3c 2cfc d6bc 7923 493d fab9 b1bc
00000050: 9134 ccbc 24c2 09bd 6117 c23c bead 163d
00000060: b686 0c3d 9c10 b2bd ba60 1f3c 1e5d 84bd
00000070: 7f9f 91bc 6566 0b3d 1be3 013d 8d5e 5abd
00000080: f186 373d 8856 0a3c 0738 8a3d dfd3 85bd
00000090: a958 9b3d 66da 633d b391 3e3c dc6f 9b3b
000000a0: a331 50bc 0853 84bd 69fe 14bd 5bd5 823d
000000b0: ecdc 473d 9ff2 8bbd 5d8b 523d c0ca cd3c
000000c0: 50b0 32bb 8227 22bc 52e6 85bd f364 7cbd
000000d0: 488e 5a3d e9f6 023d 977a 92bc c254 38bc
000000e0: 9a3b a5bc ad5f 2abd 68f0 7e3d d68c 31bd
000000f0: a796 173d 21ae 77bd 1439 523d 6bdf 94bc
00000100: 9889 723d 8c79 a5bc 9849 553c d062 4abd
00000110: 298f d3bc 7512 f0bc 537b 89bc 6b91 473d
00000120: 5bbf c2bb fd6c 82bd 70fc 74bd c120 8a3d
00000130: 7315 1f3b bdac 9d3c d735 4cbd 4c6a 443b
00000140: ea7c 5d3d a0c7 83bd f355 2d3d 4e16 ac3d
00000150: b7f7 f33c a3c0 f7bc 5e5d 523d c849 373d
00000160: 1cbf ed3c 9839 6cbd 59f2 943c 1e16 823c
00000170: d80c 2f3d 0ae8 2fbd d93b 7cbd 06d5 b63d
00000180: 5b7f 913d 9d2a eb3c 9fb2 3b3d 6718 d43c
0.017325297 -0.020056425 0.013147478 0.072236836 0.005354054 -0.09670924 -0.018105257 0.07889893
-0.05590838 0.07599645 0.05767608 -0.014483457 0.07401434 -0.04134657 -0.044272333 0.01926733
0.021144852 -0.026243292 0.049106095 -0.021695126 -0.02492741 -0.033632413 0.023692789 0.036786787
0.034308158 -0.08694574 0.009727651 -0.06463073 -0.017776249 0.034033198 0.031710725 -0.053312827
0.044806425 0.008443482 0.067489676 -0.06534552 0.0758527 0.055628203 0.011631417 0.0047435593
-0.012707147 -0.064611495 -0.036375437 0.063883506 0.048794672 -0.06833386 0.05140244 0.025121093
-0.0027265735 -0.009897115 -0.06538071 -0.06161971 0.053358346 0.031973753 -0.017880721 -0.011250677
-0.020170022 -0.04159515 0.062240988 -0.043347202 0.037008908 -0.060468797 0.051323965 -0.01817294
0.05921325 -0.02019956 0.013018034 -0.04941064 -0.0258251 -0.029305676 -0.016782438 0.048722666
-0.0059432215 -0.06368444 -0.059811056 0.067445286 0.002427426 0.019247407 -0.049856033 0.0029970584
0.054074205 -0.0643456 0.042318296 0.08402692 0.029781206 -0.030243224 0.051358573 0.044748098
0.029021792 -0.057672113 0.018181967 0.015879687 0.042736858 -0.0429459 -0.061580513 0.0892735
0.07104369 0.028706843 0.045824643 0.025890542

attention.2.weight f4 [100, 100]
00000000: 983a 9abb 4c21 9a3d 304f 14bd ce36 bcbc
00000010: 54e7 d03d 3364 063d 0a94 d23d 417c 5abd
00000020: dc54 b33d 6868 093d 3b3d b73d bdb6 90bd
00000030: 9e6e 8cbd f100 e4bc 9cba aabd 9313 bcbb
00000040: 35f8 aebc 2d6e 63bb 74b7 ac3d 9c27 42bd
00000050: a697 673c 06d8 8d3d 20c2 4ebc 11db dbbc
00000060: c9a6 69ba f5d0 be3d 6c8c ce3d 2283 7b3d
00000070: 0b3e 643d 649f 8f3d a815 883c 12b8 723c
00000080: d117 92bd 644e 0bbd 9419 d3bb d139 68bd
00000090: d883 043d 1a88 45bd b01c 44bd 6e47 c9bd
000000a0: 7d43 113d d0c8 ae3d a310 f53b b5e2 30bd
000000b0: 769e 913d a89a 2d3d d46d 47bd 2bf5 acbc
000000c0: 40f8 a13d d261 b9bc 2db5 433d 8775 923b
000000d0: 4a1e 30bd 5ed8 6d3c 3e9f 39bd e494 153c
000000e0: 96be bd3d eb17 993c f2cf 2f3d c6c6 2cbd
000000f0: 8a29 85bc 157c a6bd 647c a53c aac8 de3c
00000100: 0156 b53d 7d07 5f3d ac75 5bbd 0ddb e8bc
00000110: d9df 91bc 25e0 75bd ff78 ca3c 5966 91bd
00000120: 5f01 a7bd ea13 8fbd 336d b3bd b1c2 0c3d
00000130: fb1d 423d b33a 9d3d 5f5e 8d3c 3bdd 01bd
00000140: 669a aebd dbad c53d 62da a63c 42a3 943d
00000150: 1af8 053d 6b20 be3d 5a3e cebd 3f27 8dbc
00000160: fa77 db3d 3f29 893d b945 db3c da4c 6b3d
00000170: f028 333d 7423 75bd 28ab a1ba c485 c53c
00000180: a55f 6dbd fa58 4ebd ee08 54bd 12ef 5c3d
00000190: 0878 ac3d fbc5 d8bb 3f8f 7fbc 181c c83d
000001a0: fcb2 4c3d ef80 01be 2ce5 1abd bd97 11bd
000001b0: 6503 b4bc ec0a 0fbd 6a77 5cb9 7506 6c3d
000001c0: 81ef dfbc 378f d8bc 0821 9ebd 629c a43d
000001d0: fd30 903d f787 a23d 2efe ba3c f92f b7bc
000001e0: 2c3c d93d 5c2a 11bc 926b 693d f1da 6f3d
000001f0: 6541 0b3d 818b cd3c ef4f 903c 0725 253d
00000200: 566e b9bd 7bda 08bd b38d d1bc e90b 14bd
00000210: 8acd 8e3d d0a7 de3d d417 84bd 9765 983d
00000220: 650b ab3c d5c9 343d afd3 c73d b792 763d
00000230: 1729 3fbd 2ba0 d3bc 551d 52bc 5cec 95bd
00000240: 42ee bebd 7dd2 d93b ceb6 c0bd 73a9 543d
00000250: 6269 963d fa6b 7f3d 1a35 b33d ad9a 94bd
00000260: 791e 58bd 172c ff3c dff8 933d 3b9a c03c
00000270: eac8 c23d 4590 89bc f4c4 463d 692a 0f3c
00000280: ff13 28bc 015a 9d3d c6bd c33d 2db7 a93d
00000290: b750 80bd 707b 38bd 2f64 91bd 85c7 963c
000002a0: 5548 88bd b55f 11bb 7094 923d 9ed7 b7bd
000002b0: 9481 243d 389f 953d 4d92 363a 146e c63d
000002c0: d9d3 b33d 3e08 f7bd fa90 9b3d 108b d8bc
000002d0: 98ea c3bd 0250 ce3d df0f a83d d64a 9ebd
000002e0: d031 56bc 5b3e 933d 6e4e 3a3d 6b58 683d
000002f0: 77ea 9f3d f0c1 693d 970e adbb 2d77 3c3d
00000300: fac4 13bd 3b28 10bd d6ad fdbc 6f1d 26bd
00000310: aba1 b13d 0554 853d 1184 c8bc 72f2 73bd
00000320: 3b5e b9bd cd58 5f3d ca45 8f3d 236f 703d
00000330: 804e 14bd 4a1b 4e3d a0bd 69bd eacd 47bd
00000340: eda3 8fbd 9a08 8bbb 3360 54bb 5a39 c43c
00000350: d3e8 a9bc dde1 383d 48da 85bd 70dd 50bd
00000360: 80f2 8a3c 4d73 023c 6504 8fbd 8f6b 813d
00000370: 67bb 973d ea8b 433d 13eb 823c 13b6 bebd
00000380: 00fd e7bb a017 e1bc b30f 9e3b b713 2bbd
00000390: 80d5 833c 3b30 863d 657a b0bd 5a04 11bd
000003a0: 22d0 c0bd 0026 a5bc 904f 333d b34e 15bd
000003b0: d591 a33d 3375 4abd a746 1fbd a399 22bd
000003c0: 2de7 a93d c3bf 29bd d7ef 2cbd 1010 173d
000003d0: e5d3 9abd 7af8 38bd a758 5f3d 5aa0 453d
000003e0: 10a2 1a3d 2798 32bc 9a11 99bb ba31 b0bc
000003f0: 50bc 34bd 5045 b7bd 1518 9e3d a716 05bc
-0.004706692 0.07525882 -0.03620833 -0.022975352 0.10200372 0.0328104 0.102821425 -0.053341154
0.0875642 0.033546835 0.08947226 -0.070661046 -0.06857036 -0.02783248 -0.08336374 -0.005739638
-0.021358589 -0.003470312 0.084334284 -0.047401056 0.014135277 0.06925969 -0.012619525 -0.026837857
-0.00089130976 0.09317199 0.10085377 0.061404355 0.05572323 0.07012823 0.016611889 0.014814394
-0.07133449 -0.034010306 -0.006442258 -0.056695763 0.0323523 -0.0482255 -0.04787892 -0.09828077
0.035464752 0.08534396 0.00747879 -0.043184955 0.07110302 0.04238382 -0.048688725 -0.021112999
0.07908678 -0.022629652 0.047780205 0.0044695768 -0.042997636 0.014516918 -0.04531788 0.009129737
0.09264867 0.018688163 0.04292292 -0.042181753 -0.016255159 -0.081291355 0.020200916 0.027195293
0.088542946 0.0544505 -0.053579018 -0.028424764 -0.017806934 -0.060028214 0.024715899 -0.070995994
-0.081545584 -0.0698622 -0.087610625 0.03436536 0.047391873 0.076772116 0.017256914 -0.031705122
-0.08525543 0.09652301 0.020367805 0.072577015 0.03270731 0.09283527 -0.10070486 -0.017230628
0.10716243 0.0669732 0.026766645 0.05744634 0.043740213 -0.059848264 -0.0012334334 0.024111636
-0.05795254 -0.050377823 -0.05176633 0.053938933 0.08421332 -0.006615398 -0.015598117 0.097709835
0.04997538 -0.1264684 -0.03781621 -0.0355451 -0.021974275 -0.034922525 -0.0002102532 0.057623345
-0.027335884 -0.026435478 -0.07721144 0.0803764 0.07040594 0.079360895 0.02282628 -0.022361742
0.1060718 -0.008860197 0.056987353 0.05855841 0.033997912 0.025090935 0.01761624 0.040318515
-0.09054248 -0.033411484 -0.025580263 -0.03614417 0.06972797 0.108718514 -0.06449857 0.07441252
0.020879457 0.044137795 0.09757172 0.060198512 -0.046670046 -0.02583321 -0.012824376 -0.073204726
-0.09322788 0.0066474066 -0.09409867 0.051919412 0.07344319 0.062358834 0.08750363 -0.072560646
-0.052763436 0.031148953 0.07225203 0.023511043 0.095109776 -0.016792426 0.048527673 0.008738139
-0.010258674 0.076831825 0.09557681 0.08286891 -0.06265395 -0.045039594 -0.07099187 0.018405685
-0.06654421 -0.002218229 0.071572185 -0.089766726 0.040162638 0.07305759 0.00069645495 0.096889645
0.08780641 -0.12062119 0.075960115 -0.026433498 -0.095662296 0.10073854 0.08206152 -0.077291176
-0.0130734 0.07189628 0.045484953 0.056724947 0.078083925 0.05706972 -0.0052812803 0.046012092
-0.036076523 -0.035194617 -0.03096668 -0.040555414 0.08673414 0.06510166 -0.024477037 -0.059557386
-0.09051176 0.054528046 0.06995733 0.05869974 -0.036207676 0.050318994 -0.057065606 -0.04878036
-0.07013688 -0.0042429687 -0.0032405972 0.023953129 -0.020740902 0.045137275 -0.065357745 -0.05099243
0.016961336 0.00796206 -0.0698326 0.06319343 0.07408791 0.047740854 0.015981233 -0.09312072
-0.0070797205 -0.027477086 0.004823649 -0.04176685 0.016093016 0.06552168 -0.08617095 -0.03540454
-0.09414698 -0.020159721 0.04377705 -0.036452007 0.079868 -0.049428176 -0.03888574 -0.0396973
0.082960464 -0.041442644 -0.042220917 0.036880553 -0.07559947 -0.04515884 0.054527905 0.048248626
0.03775221 -0.010900534 -0.0046712877 -0.021508086 -0.0441249 -0.08948767 0.07719437 -0.0081230765
