result/2robots_2000/rl_model.pth (torch, 392547 bytes, 20 tensors)

mlp1.0.weight f4 [150, 13]
00000000: 01bb b8bd b554 cc3d 00d7 783e 279f 803d
00000010: 33a1 f23d 5a1f 393e 1bab 453e 5772 653e
00000020: ba69 053e a29a c13e d4e0 933e 8cf8 0c3d
00000030: 78f9 b5bd c4c5 9f3c b26f cebe 4d30 c5bd
00000040: bac7 9cbe 7f88 47bc f323 e83d da9a c5bd
00000050: afcb 8e3e da15 bb3d 507d 1f3e 71a9 1ebd
00000060: a0eb fe3d 8eeb 263e 8b3f 8fbe 60df 28be
00000070: b091 ebbd 82c5 d03d b4e2 82be 6d42 2e3e
00000080: a6b7 a8bd d058 28be aaf7 b1bd aae4 e63d
00000090: b6c0 41be bfe2 82bd 5f00 3dbe 34ff 98be
000000a0: 5633 b23e 5d3e 00be 9178 b2bd 38e2 553e
000000b0: 6a87 10bd 2b5d 1cbe cb28 42bd 0412 36be
000000c0: 65a8 dd3e 2458 adbc 4857 97bd 821b debd
000000d0: 3fc9 6a3e da55 c6be 5ca6 c3bd af62 5e3d
000000e0: 79da 803e 78c1 7e3d d2fb 223d 0556 edbd
000000f0: a2d6 5bbd 13fd 5f3d 884c 743d e18e 733e
00000100: 8d2c 80bc cd1e 9ebd f073 bebd f4ff aabd
00000110: c0b7 da3d 2143 8ebd 1bac 8c3e 0629 19be
00000120: e791 9fbc c372 27be b6e6 7ebe 5359 613b
00000130: 87b6 0fbe bb15 8e3e b2a2 163e 149e 96be
00000140: db4d 7a3d 4622 d8bd e600 613e 653b 6dbe
00000150: 7862 9a3c f3d3 e03e 85a9 80be 8ba8 953d
00000160: e16a 513e b74d 4fbd 455c adbe 7d4a 9ebd
00000170: aa7c a43d e147 65bd bd8f 4a3e 6473 9b3d
00000180: a992 87be c7ca ac3e 2c72 443e 08aa 26be
00000190: 5ed4 5f3e 569a 44be 3523 5c3d b046 7abe
000001a0: 3702 3dbd 02a0 dd3a b813 a13d 58f1 13bd
000001b0: 61b6 71be 1c8f 3cbe 48bf 95be fdd1 3b3c
000001c0: 440c 383e 19e1 e4bd c597 0cbe 7f82 4a3c
000001d0: 87ed 7fbe a62a 403d 1186 13be 88ec a53d
000001e0: e9ea 09bc b73e 453d 3b73 5ebe 69d7 8b3e
000001f0: 6c46 333e 2dfb b3be 4fe4 23be 93f9 10be
00000200: d7d0 e4bd 8326 8a3e 3148 663c 3df6 583e
00000210: b556 11be 131e 1b3e 76a9 4b3e c7a2 733e
00000220: f7da b13c 1792 5b3e c225 7abe 0f8c dc3d
00000230: 971f c73d b899 d7bd c447 163c d1b3 7d3d
00000240: 7b11 b0be 1ac8 95bd af53 c53d 7c2f 41bd
00000250: 60d3 e1bd 43e5 393d 8c88 333e 5114 bb3d
00000260: b4c2 ad3d 5009 c7bd 9639 193e dbb4 f23d
00000270: ecc3 03be 0de0 8abe 0cf6 1ebe ae9d be3d
00000280: 9076 b73e 574d a73c cfde 08be 5be9 80bd
00000290: 39db a33e d607 f63e 750d 8ebe 7818 643e
000002a0: 8bdd 4abe d63a 5ebe 54b7 fbbd 5133 013d
000002b0: ff1f 843e 9356 87be 3704 1bbe 1fdd a8be
000002c0: babf 553e 2e04 ef3d ed30 a2bd 9df1 283e
000002d0: f08a 11be 4877 8dbe 13d3 713d eaaf 833b
000002e0: b4bb 7f3e 33e6 48ba 5cd9 96bc 9229 7a3e
000002f0: a53e fd3d 3cdf cd3d 25c8 e0bc dc05 c73d
00000300: db5d 853e 1f7f 853d 86c9 24be 73cb 0c3e
00000310: 452f 8fbd bcb9 86bd e31a c2bd 05cb 3f3e
00000320: c63b 163e cd03 bdbd a0ea 8a3e 417d 0ebc
00000330: e965 5c3e 0a06 803e 218d b4bc 6956 be3d
00000340: efe1 5f3d c4b9 8b3c e229 89be 5c6a 36be
00000350: da43 52be d492 1a3e 5524 ed3d 4561 5d3e
00000360: 1992 003d 584d ee3d e6e1 963d 21dc 56be
00000370: 5010 7abe 45cc 80be d968 2abd d9c1 80bd
00000380: 6ab1 5cbe a357 263d a692 0abd 2c3f 923e
00000390: c613 573e d1e6 a83c 752f d8bd b278 58be
000003a0: 1206 223e 3120 7e3d 5819 62be c9be ad3c
000003b0: e043 683d 3b60 143e 1f1a 193c 55f1 f1bd
000003c0: 6c92 913e e7ce 443e a0db e6bd 7aa0 233e
000003d0: 4f54 1d3d 1106 6b3e 39d3 8fbe a775 6b3e
000003e0: e82c 453e 0d32 2f3e 2208 503e 9079 503b
000003f0: f542 81be 6e33 9f3c 7922 e63e 90d1 0c3e
-0.09020043 0.09977094 0.24300766 0.06280356 0.118471526 0.18078366 0.19303553 0.22406898
0.13028613 0.37813288 0.28882468 0.03441672 -0.08885473 0.019503482 -0.40319592 -0.09628353
-0.3062113 -0.012178539 0.11334982 -0.09648676 0.27889773 0.09135027 0.15575147 -0.03873581
0.12447286 0.16300794 -0.27978167 -0.16491461 -0.11502397 0.101939216 -0.25563586 0.17017527
-0.08238153 -0.1644013 -0.08689816 0.11274083 -0.1892117 -0.06390905 -0.18457173 -0.29882205
0.3480479 -0.1252379 -0.087144025 0.20887077 -0.03528539 -0.15269916 -0.047402184 -0.1778031
0.43292537 -0.021160193 -0.073896945 -0.108450904 0.22928332 -0.38737375 -0.09553215 0.05429333
0.2516668 0.062196225 0.039790936 -0.115886725 -0.053671487 0.05468471 0.0596433 0.23784973
-0.015646243 -0.077207185 -0.09299457 -0.083496004 0.10679579 -0.069463976 0.27475056 -0.14957055
-0.019478751 -0.16352372 -0.24892697 0.0034385517 -0.14034472 0.27750954 0.14710501 -0.2941748
0.061109405 -0.10553412 0.21972999 -0.23167188 0.018845782 0.43911704 -0.25129333 0.07307538
0.20450927 -0.050611224 -0.3385946 -0.07729051 0.0803159 -0.055976752 0.19781394 0.075903684
-0.2647908 0.33748457 0.19184178 -0.162758 0.21858355 -0.191995 0.053744514 -0.24441028
-0.04614469 0.0016908648 0.07865089 -0.036118835 -0.23604728 -0.18413967 -0.292475 0.011463639
0.17973429 -0.111757465 -0.1372977 0.012360214 -0.24992953 0.046915673 -0.14406611 0.081017554
-0.008417823 0.048155513 -0.21723644 0.27312782 0.17507333 -0.3515257 -0.16005062 -0.14157705
-0.111726455 0.26982507 0.014055298 0.21187682 -0.14193232 0.15148191 0.19888863 0.23792563
0.021710856 0.21442448 -0.24428466 0.107689016 0.09722822 -0.105273664 0.009172384 0.061939064
-0.34388337 -0.07313557 0.09635102 -0.047164425 -0.11026645 0.045384657 0.17532557 0.091347344
0.08484402 -0.09718573 0.14963374 0.11850902 -0.12867707 -0.27124062 -0.15523547 0.09307419
0.35832644 0.02042262 -0.13366245 -0.06294509 0.3200319 0.48052853 -0.27744642 0.22274959
-0.19811074 -0.21702132 -0.122908264 0.03154308 0.2580566 -0.26433238 -0.15138327 -0.32981202
0.20873919 0.11670719 -0.07919488 0.16498418 -0.14213157 -0.27630067 0.059039187 0.0040187733
0.24973947 -0.0007663697 -0.018414192 0.2442992 0.12365464 0.10052344 -0.027439186 0.097179145
0.2604817 0.06518387 -0.160925 0.13749485 -0.06991438 -0.06578395 -0.094777845 0.1872979
0.1467124 -0.092292406 0.2713213 -0.008696855 0.2152325 0.25004607 -0.022039952 0.09293825
0.054658826 0.017056353 -0.26789767 -0.1781401 -0.20533696 0.15095073 0.115791954 0.21619137
0.03138933 0.11635846 0.073673055 -0.2098241 -0.24420285 -0.25155845 -0.041603897 -0.062869735
-0.21552053 0.04061092 -0.03383126 0.2856382 0.21003637 0.020617874 -0.10555927 -0.21139792
0.15822628 0.06204242 -0.2207998 0.021209138 0.056705356 0.14489834 0.009344607 -0.118136086
0.28432024 0.19219552 -0.11272359 0.15979186 0.03841048 0.22951533 -0.28090838 0.229941
0.19255412 0.17108937 0.20315602 0.0031810738 -0.25246397 0.019433703 0.44948176 0.13751817

mlp1.0.bias f4 [150]
00000000: c216 7d3e 97c3 a4be 7328 8bbe adb2 9c3e
00000010: 33b4 a4be e295 0abd 659e cdbe b81f e93d
00000020: 76db 8bbe af58 20be 5b12 b53e efba 4ebe
00000030: e184 0ebd 6628 ee3d 118a 943d 818e 71be
00000040: 02be 973d e866 52be a264 9cbe cab9 84be
00000050: 91ab ccbd 6da4 cdbb 6fec 293e cf2e eabd
00000060: 9953 4a3d cbf6 aabd 7bc1 46be e7c0 5f3d
00000070: 5a26 1f3e a95c eebd 78a7 71bc d5e6 13be
00000080: 258e a73e 94d1 6f3d 1305 bebe e374 a3bd
00000090: 0e3f d93d 08f2 653e a360 65be 00c3 85be
000000a0: 816c a93e 0133 b33e 9882 42be 23ce 583e
000000b0: 6556 10be 9333 df3e dbb3 20bc f60c 183e
000000c0: 2c87 6b3e ea58 2bbe d088 e1bc c298 8b3e
000000d0: c0d4 50bd 2a95 9bbd a2e4 103e d5f7 d83c
000000e0: 3a67 57be dd63 cebe 058c 463e 7c0c 003e
000000f0: 490f 463e f0b5 e93c 9cbb 13be 16bb 91bc
00000100: f825 04be 1cf8 4c3e 1fb7 713e f27b 72bd
00000110: a5b6 e4be 6176 6dbe c197 033e 80fb a63e
00000120: 5c47 1dbe 9e98 c83c d478 e43d b7bf 343d
00000130: 4dfd 31bb f569 71bd 6e4a 10be ab1a 58be
00000140: ae35 323e 2226 883e ad29 8a3e d01f 63bc
00000150: e491 76bb c288 4cbe 90f0 0ebe 0f82 46bd
00000160: b18e 68be 45f6 163d 0c80 60be 8464 07bd
00000170: 4769 923e 295b 18bd 671e 023e 5b89 5dbc
00000180: d0f2 573e 437f 4e3e 560b 02be 49c1 833d
00000190: 06fb 88be 9d0d ff3d c559 59be 93a7 81be
000001a0: d28a 13be bc57 aabd fdc6 c7be 8cd5 05be
000001b0: 2644 453e 0a2c 173e 555c d03d 6d08 54be
000001c0: 01eb 263e 7bb9 81be 7e8c edbd efbf 983e
000001d0: b897 d43d a53d c53d c224 2dbe 547b 52bd
000001e0: c22f 693e d876 973e cf77 843d 9fde 4bbe
000001f0: 218d 3fbb 181d 233e 7325 98bc 7a6e b5be
00000200: 70af adbe f6ea 4c3e fa9f f43c 1cc0 d9bd
00000210: ddf9 ebbc be03 07be 2755 f83d 222b c3bd
00000220: f888 81be 0221 283d 0682 95be 1aa6 733e
00000230: 2338 22be 7c7a 29bd dd1b 7d3e ce32 873e
00000240: 113d 40be 4633 a7be c529 3a3e 8c84 8ebe
00000250: cebe 56bd 045d 463e
0.24715713 -0.32180473 -0.27179298 0.3060507 -0.3216873 -0.033834346 -0.40159908 0.11383003
-0.27315873 -0.1565883 0.35365567 -0.20188497 -0.034794692 0.11628799 0.072528966 -0.23589517
0.07409288 -0.20547068 -0.30545527 -0.25922996 -0.09993661 -0.0062757046 0.16594099 -0.11434709
0.04939613 -0.08347853 -0.19409744 0.054627325 0.15541974 -0.11638767 -0.0147494 -0.14443524
0.32725635 0.05854948 -0.37113246 -0.07981279 0.1060773 0.22455609 -0.22400145 -0.26125336
0.33090594 0.3499985 -0.1899513 0.21172385 -0.14095457 0.43594036 -0.009808506 0.14848694
0.23000783 -0.16733137 -0.027531058 0.27264982 -0.050984144 -0.0759681 0.14149716 0.026485363
-0.21035472 -0.40310565 0.1938935 0.12504762 0.19341768 0.028529137 -0.14427036 -0.017789405
-0.12905109 0.20016521 0.23605011 -0.059200235 -0.44670597 -0.23189689 0.12850858 0.32613754
-0.15359253 0.024486836 0.11155859 0.044128146 -0.0027159036 -0.05893894 -0.14090893 -0.21103923
0.1740329 0.26591593 0.2698492 -0.013862565 -0.0037623579 -0.19974044 -0.13958955 -0.048463877
-0.22710682 0.036855955 -0.21923846 -0.033054844 0.28595945 -0.037196312 0.1270691 -0.013521518
0.2108872 0.20165734 -0.12699637 0.064333506 -0.26754016 0.124537684 -0.2122565 -0.2532316
-0.14408424 -0.08317515 -0.39019004 -0.13069743 0.19264278 0.14762893 0.10173861 -0.20706339
0.16300584 -0.25336823 -0.115990624 0.29833934 0.103805006 0.096308984 -0.16908553 -0.051387146
0.22772124 0.29582858 0.06468164 -0.19909142 -0.0029228406 0.15929067 -0.018572545 -0.3543585
-0.3392291 0.20011505 0.029861439 -0.10632345 -0.028805668 -0.13185021 0.121256165 -0.09529711
-0.2529981 0.041047104 -0.29200763 0.23793831 -0.15841727 -0.041376576 0.2471766 0.26405948
-0.18773295 -0.32656306 0.18179996 -0.278355 -0.05242806 0.1937142

mlp1.2.weight f4 [100, 150]
00000000: ee1e a3bb c7ca 2e3d a663 8a3d f4dd a9bd
00000010: 3c20 bcbb 46f0 883d 753d 81bc c20a 46bd
00000020: 1120 ca3d 4a98 86bd 5269 99bd e64d 413c
00000030: b70a 00bd 239a 1bbc 75df adbd 06ce b73b
00000040: 3823 d8bc 228b 84bd b5f2 0f3d df44 a5bd
00000050: c942 60bd 5b61 343d 1961 943d 5196 9abc
00000060: 8420 823d 9b92 0bbc 97ae 6b3d 6e52 b8bc
00000070: 120c 3cbc 5162 15bd 891b 2ebd 6cf3 553d
00000080: d124 7ebd be02 7d3b 7646 a43d d7f4 393d
00000090: 6a68 123d 0f51 a23d c461 943c 9a9f 89bd
000000a0: 3037 a5bd 91f1 7d3c fec2 8dbc 1384 81bd
000000b0: f25d 15bc 4a4f 97bd 407e 5c3b c677 08bc
000000c0: 10dc e4bb bf56 b53c 4252 623d 3069 99bd
000000d0: a0f0 543d c58b 72bd 3010 64bc 9abb 1a3d
000000e0: 70b8 86bd 1098 8b3d 5b5b 8f3d 9477 94bd
000000f0: 7167 87bd 90ba f7bc 4c69 9a3b 1a88 983d
00000100: a5ca 9dbd 5647 57bd d6e4 a0bd ad56 60bd
00000110: db8d 483c 1723 eb3b 4a12 2d3d f212 63bd
00000120: 0969 9d3d cb6b 383c 17f8 1e3d 5c1f aabd
00000130: 9555 bbbb 94e2 2d3d 69ec e83c d5dc 0fbd
00000140: aee8 00bd 48df 8dbc 3510 2c3d 34bd 8bbd
00000150: 7fe9 8b3a 5288 3cbd 407c 6a3d 5441 7bbd
00000160: 4af2 403d c029 c5bd 364c 95bd a815 9e3c
00000170: eed2 723d 3f8a 7bbd 2b10 c63c d556 4fbd
00000180: c7d6 6bbc 465f 54bc 1096 ab3d b406 1abc
00000190: a224 94bd 6162 13bd 8639 933c c3e8 933c
000001a0: 40df 8ebd 7fc8 113c 1a1a 1e3d c9ed 43bd
000001b0: b2ab 29b9 992a 883d 6af9 2ebd 3c86 843d
000001c0: 708a be3c 2423 6c3d 2688 61bd 0c08 93bc
000001d0: 386a a73c f52c 613d 45ab 413d 0363 c8bc
000001e0: 8ccf 79bc 5677 47bd 06eb 3abd 2f1d 5dbd
000001f0: 525c 0c3b 2752 6b3d a88a 5e3d 1c80 3d3d
00000200: af17 b3bc 462d 8e3d 31e0 743c 709c 8e3d
00000210: 3afb 7dbd 9ac3 3abd 72c1 c93c f386 763c
00000220: 2d3c 5ebd 60bd b73c 3778 63bd 3364 89bd
00000230: ce2a 4dbd d578 b93c 8b93 b3bc c5ec 7bbd
00000240: 9725 9e3d 1a29 153c df4d 5cbd 3d56 32bd
00000250: 8f28 133d 7991 873d e865 bf3c 973e 2a3e
00000260: 4068 39bc 4a16 e13a e2b9 f53c bca7 ddbc
00000270: 5556 683c 1da0 f9bc 1d28 ef3c c1fe 1cbd
00000280: a083 55bd 821c f83c 2f09 0a3e 0927 fdba
00000290: 5b7a a13d 22bc 6b3d 191d c6bc 4d95 db3d
000002a0: fac7 e03c 5a63 a43d 8ea0 15bc 90a7 503c
000002b0: 140c 0b3e d34a c33d 4df6 25bd 9c8e 0c3d
000002c0: 12db a2bd 57ac 7c3b 9545 2e3a 28a4 e73c
000002d0: dee6 d33d ae98 093d 8106 07bc 086b bfbd
000002e0: efa0 883d a8ff a13d 7118 12be 0e96 b9bc
000002f0: ca2e ca3c 89d5 473d 66bf 45be 1d3b fcbb
00000300: 090e bcbd ddb3 39bd 922e 4cbd 5b7f 1cbe
00000310: ef68 983d 9d43 cdbd a5fc 0c3d b137 963c
00000320: 356d d93b d343 b23b 1782 e33c d649 01bd
00000330: b6a4 173d 281d 8c3a c5c0 a5bd 0ab6 073d
00000340: 6505 003e e34c 7fbd acc0 65bd cfa2 9bbd
00000350: 7d50 c8bc e25e 06bd 4f5e af3d 3244 5b3c
00000360: fda2 b73b 9dda 04bd 6115 8bbd 658b a63c
00000370: 6f1a 9cbc be08 17be 3957 383d f2de bf3c
00000380: 2ccd 75bd 67fb a03c efa2 8c3d 78b6 6ebc
00000390: 9800 243d e381 dabc 52c8 bfbd d6e6 dabd
000003a0: 7c23 06be d84b 6cbd 1ac8 053e fc56 ae3d
000003b0: 9d34 61bd 8862 163e eb2e 873d 9059 2e3d
000003c0: 9cea cfbc a3f3 0b3e 966b 1bbc 3d16 9f3d
000003d0: 6bf1 21bb a283 7fbd 62ba 7b3d 58e2 98bc
000003e0: cc56 80bd ed48 28bc e096 883d 97a7 1b3d
000003f0: 6c72 853d b51f 733c f9a1 6dbd eda8 d7bd
-0.0049780523 0.042673852 0.06757288 -0.08294287 -0.0057411473 0.066864535 -0.015776375 -0.048350103
0.098693974 -0.065720156 -0.074907914 0.011798358 -0.03126022 -0.009497198 -0.08489887 0.0056092767
-0.026383981 -0.0647185 0.035143573 -0.08069777 -0.05475119 0.044038158 0.072450824 -0.018870505
0.06353858 -0.00851884 0.05753955 -0.022500243 -0.011477487 -0.036470715 -0.04250673 0.0522341
-0.06204683 0.003860637 0.08021252 0.045399513 0.03574411 0.07925617 0.018113025 -0.06719895
-0.08067167 0.015499488 -0.017304894 -0.06324019 -0.009116637 -0.0738817 0.0033644587 -0.008329337
-0.0069842413 0.02213609 0.05525423 -0.07490766 0.05198729 -0.059215326 -0.013919875 0.037776567
-0.065781474 0.06816113 0.069998465 -0.0724937 -0.06611527 -0.030240327 0.0047122594 0.07447834
-0.07704667 -0.052558266 -0.07856147 -0.05477016 0.012240852 0.007175814 0.04225377 -0.05543799
0.076860495 0.011256169 0.038810816 -0.083067626 -0.0057169893 0.04245241 0.028433042 -0.03512271
-0.0314719 -0.017318383 0.042007644 -0.06823197 0.0010674446 -0.046028443 0.0572474 -0.0613416
0.047106065 -0.09627104 -0.07289927 0.019297436 0.05928319 -0.06141114 0.024177631 -0.05061992
-0.014394469 -0.012962168 0.083782315 -0.009401012 -0.0723355 -0.035982493 0.017971765 0.018055325
-0.06976175 0.0088979 0.03859911 -0.04783419 -0.00016181057 0.0664875 -0.04271833 0.06470916
0.023259372 0.0576507 -0.055061482 -0.017948173 0.020436391 0.054974515 0.047282476 -0.024461275
-0.015247237 -0.048697792 -0.045634292 -0.05398291 0.0021417332 0.057451393 0.05433145 0.046264753
-0.02186188 0.06942229 0.0149460295 0.06963432 -0.062007166 -0.045596696 0.024628375 0.015046823
-0.054256607 0.022429168 -0.055534568 -0.067085646 -0.05008965 0.022640625 -0.02192094 -0.061505098
0.077220134 0.009104038 -0.0537852 -0.043539274 0.03592735 0.066195436 0.023364022 0.16625439
-0.011316359 0.001717278 0.029995862 -0.027057521 0.014180739 -0.030471856 0.029193932 -0.03832889
-0.05212748 0.030287031 0.13480066 -0.0019314002 0.078846656 0.057552464 -0.024183797 0.10721836
0.027439106 0.08026762 -0.0091325175 0.0127352625 0.13578826 0.09535756 -0.040518094 0.03431569
-0.079519406 0.003855487 0.0006647942 0.028276518 0.10346769 0.033592872 -0.008241297 -0.093465865
0.06671321 0.07910091 -0.14267136 -0.02265456 0.024680514 0.048787627 -0.19311294 -0.0076974765
-0.091823645 -0.045337547 -0.0498491 -0.15282957 0.074418895 -0.10022662 0.034420628 0.018337103
0.006635333 0.005440214 0.027771993 -0.031564556 0.037022315 0.0010689842 -0.080934085 0.03313259
0.12502058 -0.062329184 -0.05609195 -0.07599413 -0.024452442 -0.03280533 0.0856291 0.013382958
0.0056041465 -0.03243505 -0.06791187 0.02033014 -0.019055573 -0.14749429 0.045005057 0.023421738
-0.06001012 0.019651128 0.068670146 -0.014569871 0.04003963 -0.026673263 -0.0936438 -0.1068856
-0.13099474 -0.057689518 0.13064614 0.08512685 -0.054981817 0.14686024 0.06600746 0.042565882
-0.025380425 0.13667159 -0.0094861 0.077679135 -0.0024710547 -0.062381394 0.061457045 -0.018662617
-0.06266555 -0.010271293 0.06669402 0.038001623 0.06515965 0.0148391025 -0.058015797 -0.10530267

mlp1.2.bias f4 [100]
00000000: 679b 32bc 86b4 21be 3393 7bbd 66bb f8bc
00000010: 904b aabd 021a 2dbd 1156 183d 3ff5 cdbd
00000020: 3cfc 393c d9eb 3ebd fc5b c43d f652 86bd
00000030: 09e2 21ba dd4e 69bd 848a e6bc b510 133d
00000040: 3747 37bd 74a8 1cbd 709c 04bc c04e a43c
00000050: c0d5 533d 837c f0bb ad8f 14bd fe6f 3f3e
00000060: fc7b 853d c745 9bbd f5fb c83c 5c98 e73d
00000070: 3538 68bc d760 8cbc c8ec 883d da10 d33d
00000080: 1b94 1fbd b473 573d 76ad a73d 81b0 983d
00000090: ef19 363e 985f e0bc a9c8 b4bc f457 b83d
000000a0: 01c0 54bd 3404 5b3d fe2e c1bd 938f 60bd
000000b0: 3d2c 8a3e 5f44 a93d 6a18 5b3d 4a34 563d
000000c0: ff89 6b3e 6259 d2bc 3abb 733d 197f 95bc
000000d0: 3d50 a0bd abb9 38bd 1574 433d ff30 e53d
000000e0: 558f 63bc 483d a33d cfbf 93bc 33f3 183d
000000f0: 55d3 5fbe 84c8 92bd 3931 20be b954 67bc
00000100: 4dad 3d3d 0281 4fbd ecc6 7ebd 07b1 8abc
00000110: e788 2cbd 06b9 edbd 2e0a 093c 83ad ad3d
00000120: 1bf3 a0bd e1dd e2bc 03e4 91bd 8704 4e3d
00000130: bcec 74bb f1a5 f13c 2893 c73d c0a5 353d
00000140: b105 1e3d 1e2b c53b 0a69 1dbd 4f21 4bbd
00000150: 7016 6dbd 934b 9abd 4e57 413d 2724 10bd
00000160: fe01 3a3d 2e87 c53d 33ba 733d 3053 d53c
00000170: 6dd9 18be 2d84 08be faf5 95bc 6f7e 803d
00000180: 63fd c23d 2173 1c3c dd66 3cbc 9326 333d
-0.010901309 -0.1579152 -0.061419677 -0.030362796 -0.08315194 -0.04226113 0.037191454 -0.100565426
0.011351641 -0.04661164 0.09587857 -0.06558792 -0.00061753445 -0.056959976 -0.028142221 0.035904605
-0.04474565 -0.038246587 -0.008093938 0.020057082 0.05171752 -0.0073390617 -0.036269832 0.18695065
0.06517789 -0.07581668 0.024534205 0.11308357 -0.014173557 -0.01713602 0.066857874 0.103059486
-0.038959604 0.052600577 0.08187382 0.074555404 0.1778333 -0.027389333 -0.022068338 0.09001151
-0.05194092 0.053470805 -0.09432791 -0.054824423 0.26986876 0.08264994 0.05349008 0.05229596
0.2300186 -0.025677387 0.059504725 -0.018249081 -0.07827804 -0.04509894 0.047718126 0.11190986
-0.0138891535 0.07970673 -0.018035797 0.037341308 -0.2185796 -0.071671516 -0.15643777 -0.014119321
0.04630785 -0.05066014 -0.062201425 -0.016930116 -0.042122748 -0.11607556 0.008364243 0.0848036
-0.07858869 -0.02769369 -0.07123568 0.050297286 -0.003737255 0.029498072 0.09744865 0.044347525
0.038579646 0.006017103 -0.03843025 -0.049592312 -0.057882726 -0.07533946 0.0472024 -0.035190728
0.045412056 0.09644924 0.059503745 0.026040643 -0.14926691 -0.13331671 -0.018305767 0.06274115
0.09520986 0.009548933 -0.011499134 0.04373796

mlp2.0.weight f4 [100, 100]
00000000: 22bf 143d 2923 59bc d9ec 9dbd b1f1 743d
00000010: a0ef 93bd 48a5 163b 2f0f 973d 65b1 02bd
00000020: be7f a2bd fd1f e7bc bf57 c1bd 6ae8 9d3c
00000030: fbbc 433b c05a 8c3d 6a80 a9bd 11c3 2b3c
00000040: 37f5 6abc 1c08 56bc 2d0b cfbc f90b 4a3d
00000050: f087 8cbd 5499 9f3d c0a7 ad3d 1653 233d
00000060: 1f4b 643b 53c0 acbd 48b1 373c b156 1a3e
00000070: b113 03bd 4d5d 53bd 0054 09bd 4e4f e2bd
00000080: 5679 c43c 855e 363c a862 1dbc 29f8 89bd
00000090: 7544 ddbd f9b7 c1bd dc60 643d af39 1abd
000000a0: 861d 223d 5fd4 24bc ce54 8a3d df09 b4bc
000000b0: 637c 653d cdec 253c dbef 903d 3de0 043e
000000c0: c3b8 5fbc 64fe 92bc 1f31 bb3c b058 03bd
000000d0: 0f2d c6bd a2fa 85bd f663 cfbb c07f e23d
000000e0: 2bc5 9ebd f7da da3c 0d3e 0b3d 4eaa fbbd
000000f0: e1a1 a3bd 6bb5 8cbc 8648 a93d 70a3 aebd
00000100: 50d6 e5bd f8d3 6f3d cd4e 543d 3665 0b3e
00000110: 95c6 cc3c 3218 dbbd 8e01 8a3d 1029 bb3b
00000120: d2c4 383d fcd0 3a3d 8676 9fbc d3e6 843d
00000130: 30c1 f93d ca32 9cbd 1d0e c03d 9d2d a53d
00000140: 56fe 793d 2bf2 2a3c 95a9 a9bc 2ed5 713d
00000150: 774d c7bc d9d1 67bc 1ff9 9abd 5c1d 34bd
00000160: 4d1d ab3a 0536 afbd fe57 c73d 1edc 01bd
00000170: 687a b6ba 8215 91bd 1e10 efbd c6b4 12bd
00000180: 5440 23bd 225f eebd 2ceb 8abc 83a1 053d
00000190: ca4e a33d 27ea 3cbc 46a2 b2bd 59c5 df3c
000001a0: bc8a 223d 45db 2dbc bd77 cebd 1789 033d
000001b0: 52e3 e7bc b095 afbc 741f 9bbc 7f5e aabd
000001c0: 283d 813d d2e2 13bd d29a c1bd 88b8 b93d
000001d0: 5f87 f23c 474c 7bbd 59e2 d43d e961 873d
000001e0: 66ee 923d 1932 5f3d 373b 04bd 8428 733b
000001f0: c32f 9a3d a8dd 63bd 5d3d 933d 9c8b 9f3d
00000200: 99b6 2bbd a077 a2bd 653c 253d 38a7 aa3c
00000210: 6833 79bd 1c05 8abd 7339 1fbd 02d7 bd3b
00000220: 9a00 adbd 82b5 39bd eb3c 333d 3c07 1f3d
00000230: 604b cebb d162 d33c e35f 053d 980e b3bd
00000240: 8a41 afbd dc36 083e 4048 a4bc d485 69bd
00000250: fcf2 923d 8310 0abd f5d1 bb3d e245 353d
00000260: 55b1 d5bc 23a4 debd a17f 74bd 95d5 c6bd
00000270: 205f 973d a4cc b73c 42c8 cd3c afbf 9cbb
00000280: c5fe ffbc 7015 873d f58e e53c 81b2 61bd
00000290: a708 cf3d 0f6c 943c 4a0a 6ebd 2e27 7cbb
000002a0: 12e1 593d cf88 903d e938 80bd 49c0 013e
000002b0: 575b a13d f9f3 7bbd 0071 0dbe 9944 423d
000002c0: d88a 383d d62b 92bd e0ce f83c 49ed 4dbd
000002d0: 12d0 3cbd d3a1 ce3d 102b 0a3d f5e4 603d
000002e0: e2ff e83a 1c02 c13d 4f76 813d b7cc 6c3d
000002f0: 1cc3 9fbd 5000 c73c bd78 d4bd 3178 ab3d
00000300: 133d 9abd 821e 10bd f1b9 e9bd aa60 3cbc
00000310: e132 52bd 6aea 033d b36a 05bd 249a c73d
00000320: 6243 f4bc 1f4a ea3d 4984 aa3c 99bf 28bc
00000330: ff78 5e3d 6478 50bc 032d 443c 235f c03c
00000340: 332e c63d 8ab8 16bd 5adc 3bbd d249 a7bd
00000350: 2904 67bb 3c46 3bbe 2a8a b0bc 0f46 763d
00000360: c2dd 08be dec4 8bbc 095d c8bc 7a67 533d
00000370: 3bbd c93d 29f9 12bd 3be5 953b bea2 e83b
00000380: e584 513d 59a3 80bd d401 b1bd d600 ef3d
00000390: cb93 043d a5af ffbd 1dd7 37bd be4c 4cbd
000003a0: 60ce e0bd ed2d 0abd 9ae7 9fbd 6945 fe3c
000003b0: d7d8 32bd edaa 96bd ddd9 1c3c 930e c3bc
000003c0: 2f32 fc3d d256 14be 38b8 3bbb 6a60 54bc
000003d0: 8d63 413d 2f3c 1c3d 6085 49bd 4a8b a43d
000003e0: 63ff 61bd b9a7 833d 74cf 23bd 0691 89bc
000003f0: 25b1 8b3d dc14 e33c dd3e 41bd 6d2e f73c
0.03631509 -0.013253012 -0.07711191 0.059800807 -0.07223439 0.00229867 0.07375943 -0.031907458
-0.07934521 -0.028213495 -0.09440564 0.019275863 0.002986728 0.06853247 -0.08276446 0.010483519
-0.01434069 -0.013063457 -0.025273884 0.049327824 -0.068618655 0.07792917 0.084792614 0.03987416
0.0034834815 -0.084351204 0.011211701 0.15072133 -0.0320012 -0.05160265 -0.033527374 -0.110502824
0.023983639 0.011130934 -0.009606041 -0.06736786 -0.10804073 -0.09458918 0.055756435 -0.037652668
0.039578937 -0.010060399 0.067544565 -0.021977363 0.056026828 0.0101272585 0.07076999 0.12976165
-0.0136548905 -0.017943569 0.022850571 -0.032067 -0.09676563 -0.06541945 -0.006329055 0.11059523
-0.077524506 0.026715739 0.033994723 -0.122883424 -0.0798986 -0.01717635 0.08265786 -0.08527267
-0.112225175 0.05855176 0.051832963 0.13612828 0.024997035 -0.10697974 0.06738578 0.005711682
0.045109577 0.04560946 -0.019465696 0.06489339 0.12195051 -0.07626875 0.09377692 0.08065341
0.06103357 0.010433714 -0.020710746 0.059041195 -0.02432893 -0.014149153 -0.07567047 -0.04397331
0.0013054997 -0.08555225 0.0973358 -0.03170406 -0.0013921978 -0.070841804 -0.11672996 -0.03581693
-0.03985627 -0.11639239 -0.016957842 0.032624733 0.07974012 -0.011530436 -0.087223575 0.027315782
0.03968309 -0.01061136 -0.10081432 0.03211316 -0.028306637 -0.021433681 -0.018935896 -0.08318805
0.06310493 -0.036104985 -0.09453358 0.090684 0.029605566 -0.06135204 0.10394735 0.06610472
0.07174377 0.054491136 -0.032283034 0.0037103007 0.07528641 -0.05563131 0.071894385 0.077903
-0.041922186 -0.07932973 0.0403408 0.02083169 -0.06084004 -0.06739256 -0.038873147 0.005793453
-0.0844738 -0.045339115 0.043759268 0.03882526 -0.0062956065 0.025803955 0.032562148 -0.08743018
-0.085574225 0.13302177 -0.020053983 -0.057012394 0.07175252 -0.033707153 0.091709055 0.0442561
-0.026085535 -0.1087115 -0.05969203 -0.09708706 0.073911905 0.022436447 0.025119904 -0.0047835927
-0.031249413 0.06595886 0.028022269 -0.055101875 0.10109072 0.018117933 -0.05811528 -0.0038475501
0.05319316 0.07057344 -0.06260855 0.12671007 0.0787875 -0.061511967 -0.13812637 0.0474287
0.045054287 -0.07137267 0.030372083 -0.05027512 -0.04609687 0.10089459 0.033732474 0.05490585
0.0017776454 0.094242305 0.06321394 0.05781242 -0.07800886 0.024292141 -0.103745915 0.08372534
-0.0753118 -0.035185345 -0.11412419 -0.011497656 -0.051318053 0.032205977 -0.03257246 0.09746197
-0.029817287 0.11439919 0.020815032 -0.010299587 0.05431461 -0.012724016 0.011973622 0.023482865
0.096767806 -0.036797084 -0.04586444 -0.08168377 -0.0035250282 -0.18288511 -0.021550257 0.060125407
-0.13365844 -0.017061647 -0.024458425 0.051612355 0.09850546 -0.03588215 0.0045744455 0.0070994785
0.05115213 -0.06281156 -0.08642927 0.11670081 0.03236751 -0.124846734 -0.044882882 -0.049877875
-0.10976863 -0.033735204 -0.07807846 0.031038957 -0.043663826 -0.0735682 0.009573427 -0.02381066
0.12314259 -0.14486244 -0.0028643738 -0.01296244 0.04721408 0.038143333 -0.049199462 0.0803438
-0.055175196 0.06428475 -0.039992765 -0.016792785 0.06820897 0.027719907 -0.04717909 0.030173505

mlp2.0.bias f4 [100]
00000000: cab2 0f3e 56d7 6e3d 43e7 49bd 3a44 d8bd
00000010: 6a45 393d 1b68 76bd 40fd 88bd e9c8 1f3e
00000020: 1059 043e 8e89 513d f031 833e 53e5 db3d
00000030: fc6a e33d d57b 76bd 4658 01bd 1390 8dbc
00000040: 1909 4dbd 9faa a4bd d11a 5cbd 0d7b 26bd
00000050: ac52 b83d e527 d93d e283 3bbd b34d 2cbd
00000060: 1b46 a63b e7d5 c1bd 4f98 c63d a28e 1ebd
00000070: 60ee 973d 19e7 3ebd 0a19 ae3d 7420 8d3c
00000080: 2934 b33d 7686 d1bc d064 f3bd aeba 95bc
00000090: 5832 5b3d 3bdf 35bc 004a 953d 39fa f23d
000000a0: cb7e aabd a946 6cbe 5b7c f33d 0330 73be
000000b0: d02f 0cbe 49f5 eb3d 176b f13d b2e7 e73d
000000c0: 7ffb 293d ae23 c5bd a717 93bc a360 0a3e
000000d0: 0e5e 763b e7fe fc3d cbf7 ec3d f85a bbbd
000000e0: 49e5 5c3c dfe3 83bc fcf4 863d 1051 32bd
000000f0: fd1d 8cbd f931 3a3e 39cd 933d 3f78 41bd
00000100: ef44 febd c5ee 3ebd 9738 4e3d ddd4 383e
00000110: f12b 42bc 5b7c 253e 4220 88bd 7c46 dc3d
00000120: 8276 d7bd ceec 86bb 3a81 c43d f2fc 97be
00000130: 12c5 8d3d 3ae8 c0bd 24fa 35be 423e 393e
00000140: 0a04 f2bc ec7a 903d c647 b8bd b2cb bdbc
00000150: 33fb ec3d 56ff 9f3d 3d04 1b3d 4021 0c3e
00000160: 8aed cc3c 0927 3cbe 9c74 0b3d 84ed f53c
00000170: 75b1 643c 3b28 7fbc 93df 34bd cc42 0a3e
00000180: b208 c3bc 9b63 373d 6742 973d 9fa8 f7bc
0.14033046 0.05831083 -0.049292814 -0.10559888 0.045232214 -0.060157876 -0.066889286 0.15603985
0.129246 0.051156573 0.25624037 0.107370995 0.1110439 -0.06017669 -0.031578325 -0.017280614
-0.050057504 -0.08040356 -0.05373651 -0.040644694 0.090001434 0.106033124 -0.04578007 -0.042066287
0.005074275 -0.09464627 0.09697019 -0.038710244 0.07418513 -0.04660711 0.085008696 0.017227389
0.08750183 -0.025576811 -0.11884463 -0.018277492 0.05351481 -0.011100586 0.07289505 0.118641324
-0.08324965 -0.2307383 0.11888953 -0.23748784 -0.13690114 0.11521394 0.11788004 0.11323489
0.04149961 -0.09625946 -0.017955614 0.13513426 0.0037592682 0.12353306 0.115707 -0.0914821
0.0134824 -0.016099868 0.06589696 -0.04353434 -0.06841657 0.18183126 0.072168775 -0.047233816
-0.12415492 -0.046614427 0.050346937 0.18049951 -0.011851297 0.16160719 -0.06646778 0.10755631
-0.105206504 -0.004117585 0.095949605 -0.2968517 0.06922354 -0.09419294 -0.17771202 0.18090156
-0.029542942 0.070546955 -0.08998065 -0.023168419 0.1157135 0.07812373 0.03784584 0.13684559
0.025015611 -0.18374266 0.034046754 0.030020483 0.013958325 -0.015573557 -0.04415853 0.13502043
-0.023807857 0.044772726 0.07385712 -0.030231772

mlp2.2.weight f4 [50, 100]
00000000: 44a7 aa3d 56f2 a2bd dd4a d8bd 4378 53bd
00000010: 73c2 66bd 890d 283d eabb 3b3e c786 28be
00000020: 01b3 033e 39ec f73c add0 b43d afff 88bd
00000030: 3f97 e2bc b65e 973c 4ec1 8dbc 5512 503d
00000040: 0828 893c 79fe 9e3d fbc8 4cbd 3dac 87bb
00000050: ef21 d43d 671b b6bd 9e09 b3bd 0fee ef3b
00000060: e384 bfbd 9d18 703d 0412 f1bc 6941 27bd
00000070: 319b 95bc 9f72 c5bd c34f 4a3d 53b8 4bbd
00000080: bdb8 303d c7b5 9ebd f26c ec3c 3f58 e03c
00000090: b645 3cbd 040f 16bd 1ff2 843d 2fed b7bd
000000a0: d02a cebd ae3e 8b3d 17a1 d43d beaf c4bc
000000b0: 2557 63bd e757 b8bd 707f e53c 68fe 39bd
000000c0: 5cd3 d8bc 4877 c5bd a134 353d cd99 59bc
000000d0: 201d 35bc 1a66 893d cb2a 363d 0bfa a03c
000000e0: 1fae 713c 9da9 1c3b 42ff 953c 81b2 52bd
000000f0: ec66 df3d 7ab2 c1bb 2de4 793d ffe3 69bd
00000100: 9587 213c e73c 90bb c466 1d3d 88b9 81bc
00000110: bb7f cb3c ac32 b83d a70e c93d f487 bbbd
00000120: f157 f5bc 9928 34bd ef37 e6bd 7e1c 263d
00000130: e65f 09bb 3c92 dd3d 1bba 023d 9c70 733d
00000140: ecb6 633c d92f 0e3d d654 a53d 0429 28bd
00000150: b266 533d 51d5 c13d f233 1f3d 3492 563d
00000160: 1c88 a63c 9a9d 81bc a755 f53d e90e aebc
00000170: 7a42 1ebe e0e2 97bd a2aa 87bd c55d a0bb
00000180: 1ba2 6a3d aa9a 903d 475b a53c 6f8d 8e3d
00000190: 0f19 a1bd 2d0a 053d eda2 003e 0227 74bb
000001a0: 4f3f ff3d 5724 9d3d aeb8 5dbd 7f74 063b
000001b0: 7661 eabd c1f1 7dbd 7646 c0bd bef9 6c3d
000001c0: b955 e13d 6c9a b63d 21ba 523d 5ea2 ad3d
000001d0: 43ae a3bd ca59 8a3c 1d06 783c 0b9e adbd
000001e0: 0037 2dbc 537e 96bc 1ba6 cebd ae8f 9ebd
000001f0: b4dd 81bc 737b 733d cc8d dc3d 42f9 113e
00000200: cb01 563d 0b36 e63d b2ba 90bd 07bc bcbd
00000210: dffc 533d c6ad c83d e653 04be 1adb 453d
00000220: 4aff 753d 6bba 39bd 6e26 df3d e067 a03d
00000230: 8b72 d83d 5f85 183d e06a aebc ea12 c9bd
00000240: a998 133e 1d74 97bd 2177 b2bd d1d0 01bd
00000250: 94ae 92bd e6d0 ddbc 8e5a babd 19f9 013e
00000260: fefa 4bbd 1b9f b2bd 5309 38bd dc15 d1bd
00000270: fa0f babd 4c2c 3a3c fb74 103e 102c 263d
00000280: dcc0 15bc 476c 123e d270 40bd 26b5 ffbd
00000290: 3891 0ebd 9d45 42bc 8355 99bd 22b5 f03c
000002a0: f3f5 a43c b141 c23c 9a8b 423d e380 953c
000002b0: 3406 b8bd 2945 7cbd 2e08 92bd 6625 4a3d
000002c0: 0c50 99bb 1841 0ebe 6386 26bc b677 023e
000002d0: 2663 d63d 4fba 11be e2d3 a23b 8c57 f53d
000002e0: b0de f23d b4d9 82bd 1605 daba ba93 acbd
000002f0: e15e 503d 2e37 b33d ecf6 e43c 4208 82bd
00000300: 1cb1 353e 1be6 dbbc 7c20 1dbd ec0f e13c
00000310: 08cc 233d ff62 903d 4de5 3ebd c1c2 1ebc
00000320: e98f 233c 9c0c b53d 2c0b d4bc afc5 a0bc
00000330: 4739 3cbe 064c d6bd ceeb 543d 1897 f9bc
00000340: e4bc bd3d 932a ff3c b88e 0d3e 8770 17bd
00000350: cc0b 1fbd 09d5 57be 9751 acbd 0197 ce3d
00000360: 6e51 24bc 3830 db3d d439 6f3d 5041 b73d
00000370: 69ff bf3c 0c1a 54bd c636 c8bd b5ff e8bc
00000380: ff75 803d 8c6d a53d 54de b8bc 5d29 173e
00000390: 9960 f4bd 4ff3 e2bd 041c ee3d 6e9e 313d
000003a0: 7a0c 9fbc 6603 8bbd 884f 5cbd ce33 acbd
000003b0: fe33 b7bd fe03 823d 0c9f 12be abdc 77bd
000003c0: f22e 97bc 9498 6ebd fbb5 9cbb 831c 2cbd
000003d0: b746 7bbd 810d 1bbe 47e3 b5ba 1fde 82bd
000003e0: 5770 87bd c336 873c 3011 d73c b07b 0f3d
000003f0: de16 cfba f1d7 bb3d 2dc4 4cbc ba24 843d
0.08332685 -0.07956378 -0.10561154 -0.051628362 -0.056337785 0.041028533 0.18333402 -0.16457663
0.12861253 0.030264007 0.08828864 -0.06689393 -0.02766001 0.018477779 -0.017304089 0.050798733
0.016742721 0.077633806 -0.049996357 -0.0041404055 0.10358035 -0.08891945 -0.08742069 0.00732208
-0.09351518 0.058617223 -0.029427536 -0.040833864 -0.018262478 -0.09641003 0.049392473 -0.049736332
0.04314493 -0.07749515 0.028860543 0.027385829 -0.04596492 -0.036635414 0.064914934 -0.08980786
-0.100667596 0.067990646 0.10382288 -0.024009582 -0.05550303 -0.09001141 0.028014868 -0.045408636
-0.026467972 -0.09641892 0.044239644 -0.013281298 -0.011054307 0.067089275 0.044474404 0.01965048
0.014750986 0.0023904808 0.018310193 -0.051439766 0.10908303 -0.0059111686 0.06100862 -0.0571022
0.009858985 -0.0044017914 0.038428083 -0.015835539 0.02484118 0.0899404 0.09817248 -0.091567904
-0.02994916 -0.04398403 -0.11241137 0.040554516 -0.00209617 0.108189076 0.031915765 0.059433565
0.013898592 0.0347136 0.08072822 -0.04105474 0.05161161 0.09464515 0.0388679 0.052385524
0.020328574 -0.01582222 0.119792275 -0.021247344 -0.15455046 -0.0741632 -0.066243425 -0.0048939907
0.057283502 0.0706075 0.020185126 0.0696057 -0.07866108 0.032480408 0.12562151 -0.0037254696
0.12463247 0.07672947 -0.054131202 0.0020516214 -0.114443704 -0.061998133 -0.09388439 0.05785536
0.110026784 0.089161724 0.051447038 0.08478235 -0.07992222 0.016888518 0.015138176 -0.0847741
-0.010572195 -0.018370783 -0.10090276 -0.077422485 -0.015852787 0.059443902 0.10769233 0.1425524
0.052247804 0.11240777 -0.07066859 -0.09215551 0.05175483 0.0979877 -0.1292263 0.048304655
0.060057916 -0.045343798 0.10896002 0.078323126 0.10568722 0.037236568 -0.021291196 -0.09818061
0.14413704 -0.07395194 -0.08714128 -0.031693283 -0.071622044 -0.02707715 -0.09099303 0.1269268
-0.04979991 -0.08721753 -0.044930767 -0.102092475 -0.090850785 0.0113631 0.14107125 0.040569365
-0.00914022 0.14299117 -0.046982594 -0.12485723 -0.03480646 -0.011857417 -0.07487013 0.029383246
0.020136809 0.023712965 0.047496416 0.018249935 -0.08985558 -0.061589394 -0.071304664 0.049352072
-0.004678732 -0.13892019 -0.010163876 0.12740979 0.1046813 -0.14231227 0.004969106 0.11979589
0.118588805 -0.0638918 -0.0016633596 -0.08426614 0.050871734 0.08750759 0.027949773 -0.06349231
0.17743343 -0.026843121 -0.038361058 0.027473412 0.0399895 0.07050132 -0.046605397 -0.009689988
0.009983041 0.08840296 -0.025884233 -0.019625513 -0.18381225 -0.10463719 0.051982693 -0.030467555
0.09264544 0.03114823 0.13823974 -0.03697255 -0.03882961 -0.2107736 -0.084139995 0.100873955
-0.01002918 0.10702556 0.05840476 0.08948004 0.023437219 -0.051782653 -0.09776072 -0.028442243
0.06272506 0.08077535 -0.022566952 0.14761873 -0.11932487 -0.11081564 0.11626437 0.04336398
-0.019415129 -0.067877576 -0.053786784 -0.084083185 -0.089454636 0.06348418 -0.14318484 -0.06051318
-0.018455002 -0.05825098 -0.004782436 -0.04201938 -0.061346736 -0.1514187 -0.0013876938 -0.063900225
-0.06613224 0.016505605 0.026253313 0.035030067 -0.0015799662 0.09172047 -0.012497944 0.064523175

mlp2.2.bias f4 [50]
00000000: bce1 95bd 0c5d fabd f0ba 1d3d c3bd 983d
00000010: 33b8 86bd 0450 33bc 0a28 ccbc e934 3c3e
00000020: daa1 103d 5612 443e 5b7f 093e abd6 923e
00000030: 75ea 143b 94d6 18bb f721 1abe ee3c cfbd
00000040: 7bd0 1d3e d3a9 cf3d 209b debd 8fa9 b03d
00000050: e214 013d da32 3a3e 8a84 63be aa3b debc
00000060: 60be 29be 5a4d 4b3d 592d b2bd dfdc 0a3e
00000070: d6fd 543e 92e2 1e3c d25b 06bd 0c12 213e
00000080: f92b 703d 346f 3c3e 4a9c a0bc ed40 c8bb
00000090: 6d81 4f3d c890 583d 87e9 c9bd 36a2 9bbc
000000a0: 4086 033d 1515 4ebe cec2 debd 6f14 64be
000000b0: 57b3 98be f51e 6a3e e047 493e 74fa 00be
000000c0: bdbf 183c 3d08 e5bc
-0.07318446 -0.122247785 0.038508356 0.07458069 -0.06578102 -0.01094437 -0.024921436 0.18379559
0.035310604 0.1914762 0.13427489 0.28679404 0.0022722755 -0.0023321258 -0.15052019 -0.10119043
0.1541156 0.10139813 -0.108694315 0.08626091 0.031514056 0.18183461 -0.22218528 -0.02712806
-0.16576529 0.049634315 -0.08700056 0.13560818 0.20799956 0.009697573 -0.03280241 0.1572954
0.058635686 0.18401796 -0.019605774 -0.0061112554 0.05066054 0.05287245 -0.09858995 -0.018998247
0.032110453 -0.2012523 -0.10877 -0.2227342 -0.29824325 0.22863372 0.19656324 -0.1259554
0.009323058 -0.02795803

attention.0.weight f4 [100, 200]
00000000: 19d6 1bbd 5f3c 073d 2270 0bbd 6d04 28bd
00000010: a421 8bbd 7bbc 66bc 385a c43c ee9d 533d
00000020: 6e65 6cbd 3f5c c03c bac5 683c 4772 06bd
00000030: b4b4 66bd 4abf 113c 5026 0f3d ac28 713d
00000040: c34a 4fbd 7c96 813d dd0c da3c 6f52 84bd
00000050: fce6 dd3c c3a8 89bc a6ac 3c3d 0491 2fbc
00000060: d400 87bd fb18 90bc a65b 853d 5976 2b3d
00000070: cceb 843d ed7c ffbc ae2f 58bd b9d4 71bc
00000080: e4a5 8c3c 64b0 7cbd bc2e 71bd a510 40bd
00000090: ba86 aa3c 30d6 853d ca7d 603d 508c cb3c
000000a0: ed65 853c f44b dcbc b81c 81bd f9a4 6e3d
000000b0: 88f3 e13b 9825 6ebd ec63 8fbd 91b9 e73c
000000c0: 2ed2 c4ba d29c 86bc a346 bb3c 029d 853d
000000d0: bd23 773d ff76 273d 4471 40bd a44f 01bd
000000e0: 5122 9f3c 7964 07bd 7245 41bd d091 43bd
000000f0: 91ac 0abd 456c 093a 9ce6 4bbc 77c5 8dbd
00000100: b614 c8bc 6fe8 0a3d 10c3 72bd 7269 643d
00000110: 5369 593d 4e00 1cbd b2ad 3b3d 3cc3 693d
00000120: cc37 3abd 61ea 75bd fcb7 0d3d bc40 213d
00000130: 1f02 713d 5f55 a33c ed30 05bd 90f6 1f3d
00000140: eb46 f6bc c530 69bd 4c55 c23c f4a6 063d
00000150: c140 1a3d 2e66 753d 1464 77bd d305 363d
00000160: b894 7e3d 34f9 fdbc 5019 3c3d 31e3 97bc
00000170: b6af 83bc 3552 14bd c783 89bc b354 53bd
00000180: 86ee 30bd edce 303d 7f7f 8dbd 7821 13bd
00000190: 0855 b13c 86b7 593d 2e76 483d 8c41 21bd
000001a0: 4853 1d3d 8fd9 283d b107 69bd 9a94 d0bc
000001b0: 9740 de3c dcc2 c4bc 6087 77bd f45b 52bd
000001c0: 5603 d73c 0077 4f3d e1e6 babc 6ee0 4fbd
000001d0: dd75 3fbd 49bd c33c a387 02bb 4731 e03c
000001e0: a1a1 f63c bbde 643d ba5c 0b3d b462 b13c
000001f0: 5ec5 203d 419f 81bd d2b8 09bd d2f5 f63c
00000200: 1c20 713d 20e7 66bc ea87 41bd 9173 3c3d
00000210: 5669 76bd 020d 12bc c99b c3ba 17fc 85bd
00000220: 4eaa 103c 9cbd b4bc 6904 74bd 978c 39bd
00000230: 4eb2 7e3b 5b24 2c3d 09ef e73a 680f c93c
00000240: fa94 87bd b255 4fbd ede0 723d 85f0 d1bc
00000250: 7283 2bba 3a08 b6bc c614 68bd 7487 21bd
00000260: c83b 73bd 21a8 cc3c ace6 f23c ed48 c4bb
00000270: 771c 1e3d 053e 503b 12c0 03bc daf0 c43a
00000280: b32f cdbc a16c 0abd ea92 063d 1419 103d
00000290: 3fad 51bd a337 2f3d 2810 8fbb c5aa c1bc
000002a0: fda1 31bd e97a 63bd 5c58 62bd 199c 953d
000002b0: 7160 983d 094b 763c 3520 483d cd5e 5a3c
000002c0: 5192 373d 3bb3 473d 745d babb d60f 07bd
000002d0: 4275 2cbd f3d3 1bbd c660 5dbd 0083 ad3c
000002e0: 463e 16bd d4ca 1fbd e9ff f6ba b083 8f3d
000002f0: 569b 333c 4d55 6a3b 1e2c 82bc d2f7 d03b
00000300: ecd6 92bc ec7c c73b 144f f43c 728c 723d
00000310: e65c 283c c62c 7ebd d458 9ebc 911e 503d
00000320: 4fa5 b03c 36f5 453d 264d 89bd 6404 75bd
00000330: 9b95 3fbc be1a 4b3d 43e7 35bd bcde 543d
00000340: 1065 78bc f4f0 633d baa1 8a3d 6849 6e3b
00000350: c273 163d 43be 14bd e51d 2bbd beb4 4d3d
00000360: 4ec6 743c 9cf1 02bc 457e 483d 7dd0 83bd
00000370: c2ff 013d 7e17 3f3d 7c1c 9c3d 8eff 80bd
00000380: 058d 73bd 153d b4bc c201 9ebb 2cbc 193d
00000390: 1b0f fa3c 4034 1ebb 353c 2b3d 2ba5 433c
000003a0: d794 843d a0d4 bcbd 6348 90bd b82a d53c
000003b0: 8425 27bd 85dc 2cbd 95fa 83bd 1e6b 22bd
000003c0: 433a 11bc 66af e93b 4cab 943d 752b e3bc
000003d0: 6cec d73b d4d2 1ebd a135 123d 2152 913d
000003e0: d5c0 51bd ebdf a33b 5cde c7bc f175 8d3d
000003f0: f9a4 8abd 265a 793d 9802 59bd 0c9d 833d
-0.038045976 0.03301656 -0.034042485 -0.041019846 -0.06793526 -0.014083023 0.0239688 0.051664285
-0.05771392 0.023481486 0.014207298 -0.032823827 -0.056324676 0.0088957045 0.034948647 0.05887668
-0.050608408 0.06327531 0.026617462 -0.064610355 0.027087681 -0.016804105 0.046063088 -0.010715727
-0.06591955 -0.017590037 0.06511621 0.041860912 0.06490287 -0.031187499 -0.052779846 -0.01476019
0.017168947 -0.061691657 -0.05888246 -0.046890873 0.020816196 0.06534994 0.05480746 0.02484718
0.016283954 -0.026891686 -0.06304306 0.0582628 0.0068954863 -0.05814132 -0.070014805 0.028286727
-0.0015016252 -0.0164322 0.02286083 0.065240875 0.060336817 0.040884968 -0.04698302 -0.03157009
0.019425543 -0.033054803 -0.04718537 -0.04774648 -0.03385598 0.00052422687 -0.012445118 -0.06922429
-0.024423938 0.033913072 -0.059268057 0.055764623 0.05307896 -0.038086228 0.045819946 0.057070956
-0.04546337 -0.060037974 0.03459929 0.039368376 0.058839913 0.019938169 -0.032517362 0.0390535
-0.030063113 -0.056931276 0.023722313 0.032874063 0.03765941 0.0599119 -0.060398176 0.04443915
0.062153548 -0.031002618 0.045922577 -0.01854095 -0.016074996 -0.03621121 -0.01678647 -0.051594447
-0.043196224 0.04316609 -0.069090836 -0.03592059 0.021646991 0.053153537 0.04894083 -0.03936915
0.0384095 0.041223105 -0.0568921 -0.025461484 0.027130408 -0.024018697 -0.060431838 -0.051357225
0.026246708 0.050650597 -0.02281517 -0.050751142 -0.046743263 0.02389397 -0.0019917272 0.027367247
0.030106368 0.055876475 0.034023978 0.02165351 0.039250724 -0.063292034 -0.033623524 0.030146513
0.058868513 -0.01409319 -0.04724876 0.04600865 -0.06015905 -0.008914234 -0.0014923747 -0.06542223
0.008829666 -0.022063069 -0.05957452 -0.045300093 0.0038863602 0.04202686 0.0017695139 0.02454348
-0.06620212 -0.050618835 0.059296537 -0.025627384 -0.0006542719 -0.02222072 -0.056660436 -0.03943582
-0.059383184 0.024982514 0.029651009 -0.0059901387 0.038601365 0.0031775248 -0.008041399 0.0015025393
-0.025047159 -0.033795003 0.032854952 0.035180166 -0.05119061 0.04277767 -0.0043659396 -0.023641
-0.043367375 -0.055537138 -0.055260047 0.07305164 0.0744027 0.015032538 0.04885884 0.013328266
0.044817273 0.048754912 -0.00568741 -0.032974087 -0.042104013 -0.038043927 -0.05404737 0.02118063
-0.036680482 -0.03901179 -0.0018844578 0.07007539 0.010962328 0.003575641 -0.015890177 0.0063771987
-0.017924748 0.00608789 0.029822864 0.05921597 0.010276055 -0.062054418 -0.019329466 0.0508104
0.0215632 0.048329554 -0.06704168 -0.05981864 -0.011693384 0.04958605 -0.04441 0.05197023
-0.015160814 0.055649713 0.06769128 0.0036359672 0.03673149 -0.03631426 -0.041776557 0.050221197
0.014939858 -0.0079921745 0.048948545 -0.0643625 0.03173805 0.046653263 0.076226205 -0.06298743
-0.05946066 -0.022001782 -0.004821987 0.03753297 0.030524781 -0.002414003 0.041805465 0.011941235
0.064737014 -0.092202425 -0.07045057 0.026021346 -0.040807262 -0.04220249 -0.06444279 -0.039652936
-0.008863988 0.007131505 0.07259235 -0.027730683 0.006589463 -0.03877528 0.035695676 0.07095743
-0.05120929 0.0050010583 -0.024398021 0.06907261 -0.06769747 0.060876988 -0.05298099 0.06426439

attention.0.bias f4 [100]
00000000: 723e 923c 6713 3bbc 3b35 433c 11b4 ab3d
00000010: 5700 083b cabc dcbd 4f2a c1bc d5a8 ba3d
00000020: 5428 5cbd cd04 ab3d c668 753d 24e3 c0bc
00000030: d52d a03d 6939 e2bc f3f2 5fbd 2c0b 9c3c
00000040: 60e6 ec3c 14d6 c7bc f0ae 633d fc5b c2bc
00000050: e9a6 b2bc 69be 1dbd 9382 183d 2493 053d
00000060: c580 133d 8ecb adbd c433 223c f25e 6dbd
00000070: accb 8cbc 23c5 033d 104f f03c c35f 5bbd
00000080: b346 413d 688b d4bb 2a6f 8d3d 0aad 9abd
00000090: 7606 993d 9bb5 763d e27e 5c3c 6d26 ec3b
000000a0: 7243 45bc 9126 9bbd e997 22bd 2918 783d
000000b0: e6a0 313d 1380 44bd f9e8 663d 4b1f e23c
000000c0: 6aaf 86ba 0d20 72bc 7ea3 91bd fdad 61bd
000000d0: 1e05 673d f2f5 053d 9a7c 68bc 7598 c1bb
000000e0: 41af aabc ed4e 24bd 9d51 873d d891 2dbd
000000f0: 61cf 0f3d 3206 6fbd 0928 773d 9ef5 6dbc
00000100: 9457 803d 6c42 f3bc 6d8c aa3b 6bd5 ecbc
00000110: 40d8 c7bc 56d0 18bd eaf3 0ebb cc06 473d
00000120: e7ec 67bc afb2 70bd c430 73bd 9a1e 923d
00000130: 78c8 0e3b 4613 933c 52de 74bd d8d5 05ba
00000140: 01f4 473d fb41 80bd cdf6 2b3d 87ad c93d
00000150: 7ff9 f33c deda 15bd e1a6 793d 7b2a 413d
00000160: 910c ea3c 5dad 76bd a8f7 d63c dfdb 083c
00000170: e851 2a3d 55fc 40bd 28f6 7fbd 8222 c33d
00000180: 0ef7 953d 345d 1d3d f82b 3a3d 0109 bf3c
0.017852042 -0.0114182 0.011914547 0.08383954 0.0020752156 -0.10778196 -0.023579745 0.091142334
-0.053749397 0.08350525 0.059914373 -0.02354581 0.07821242 -0.027615266 -0.054675054 0.019048296
0.028918445 -0.024394073 0.055586755 -0.023725502 -0.021808105 -0.038511667 0.0372339 0.032611027
0.036011476 -0.084860906 0.009900037 -0.057951875 -0.017186962 0.032170426 0.029334575 -0.053558122
0.047186565 -0.006486345 0.069059685 -0.07552536 0.074719355 0.060231786 0.013457986 0.007206729
-0.012040006 -0.07575715 -0.039695654 0.060569916 0.043366335 -0.047973704 0.056374524 0.027602812
-0.0010275666 -0.014778149 -0.07111262 -0.05509757 0.056401365 0.032705255 -0.014189864 -0.005908067
-0.02083552 -0.040114332 0.066073634 -0.042375416 0.03510988 -0.058355518 0.060340915 -0.014523892
0.06266704 -0.029694758 0.0052047283 -0.02891036 -0.024395108 -0.03730806 -0.0021812865 0.048590466
-0.014155603 -0.058764156 -0.05937268 0.07134743 0.002178697 0.017953526 -0.059782334 -0.00051054126
0.048816685 -0.06262585 0.041983414 0.09847551 0.029782055 -0.03658568 0.060950164 0.047159653
0.028570445 -0.060223926 0.026241139 0.008353203 0.041582018 -0.047115643 -0.062490612 0.09528066
0.073225126 0.038418964 0.045452088 0.023319723

attention.2.weight f4 [100, 100]
00000000: 699e fabb 98a5 8e3d 6286 1dbd 2e6a 67bc
00000010: 493c d23d 5834 003d c9f2 da3d 2b63 6cbd
00000020: acdd bf3d 184a 0a3d 4f7b c93d f221 90bd
00000030: 8c67 92bd 0356 0abd dea7 aabd e786 25bc
00000040: 4364 a6bc 58c8 73bb eb51 993d 4e29 66bd
00000050: 41df 953c cf5f 793d 1574 003c 285c 25bd
00000060: 758f d2b9 4fb1 c53d 38c1 c13d 8721 8b3d
00000070: de10 523d fa17 863d 75cf d73c aeb2 733c
00000080: 68ec 88bd 8080 19bd 97a7 fabb 9c98 89bd
00000090: 194a ee3c 7fa1 38bd caab 2ebd ceb3 c9bd
000000a0: de53 0d3d 3b60 ad3d 1cf2 433b 8fe8 24bd
000000b0: a223 8f3d 68ee 3e3d 4caf 5ebd 891a edbc
000000c0: a3c7 a93d aa94 9dbc 95cf 633d 798d 92bb
000000d0: 7beb 15bd 8da7 c73c 24d3 43bd 035c 663c
000000e0: 86be bd3d 45d2 413c 2af3 393d 04c2 44bd
000000f0: 57bc 86bc c865 a3bd 0486 ee3c ca8f d53c
00000100: f124 ba3d 27a9 853d b284 7bbd 6f00 85bc
00000110: 957e 93bc 20b0 66bd 3df8 013d 4e97 94bd
00000120: 4c3d b4bd 1b77 95bd 7638 b2bd c89a 293d
00000130: 652c 423d fe80 863d e79d d43c 4b9a 04bd
00000140: 15c1 b0bd 0adb c33d ff64 b13c 02dd 7d3d
00000150: 1af8 053d fa3d c23d ac3e d8bd 7789 37bc
00000160: de9a de3d 0704 8b3d cf8b 023d 815c 773d
00000170: b287 133d 4240 80bd 24e1 08bc 1e77 dd3c
00000180: 1508 59bd be24 7bbd 91df 54bd 19e6 623d
00000190: ef00 af3d 0b7e 6fbc 6f97 93bc 8b0f e73d
000001a0: 333b 4e3d 6b7e 05be dbe2 07bd ba2b 2dbd
000001b0: 2d66 96bc df60 09bd c6d9 3b3c 5464 693d
000001c0: 7e8d 08bd c14b e6bc 1f4b 9cbd 352e 983d
000001d0: dd70 943d 1e20 a13d 99a5 113c a000 ebbc
000001e0: d854 d73d b2d1 b7bc 59b4 983d 04e5 253d
000001f0: 9174 153d f31e f33c aee4 693c 5320 2e3d
00000200: b81e cbbd a69a 2bbd ab32 33bc 4d4f 13bd
00000210: 3d95 9a3d 7b8d d83d 56ff 86bd 07cb 723d
00000220: a5a4 9d3c 121d 413d 2284 cd3d e5be 683d
00000230: 3203 34bd cfee b7bc d48a 88bc b554 91bd
00000240: 2eac cbbd f54b a93c a8cf d2bd d247 1f3d
00000250: c8f2 a43d a4c8 893d e4a2 c53d 5356 a7bd
00000260: 4647 53bd 7cc2 4b3d 654b 8e3d f05f f93c
00000270: f5c7 c23d 1a4b c6bc 5467 503d d239 27bb
00000280: 456c 03bc 459e a33d 0a70 d33d 0190 a23d
00000290: df08 65bd c10c e3bc 6589 a6bd 73d3 253d
000002a0: f2b2 86bd 4fcf 6ab9 3d0b a23d 7e54 c1bd
000002b0: a110 253d c3d7 893d 6b36 f83a 9cc3 bd3d
000002c0: 4bd9 b33d 5975 0abe 27dd ad3d 20ea d2bc
000002d0: 2b51 ccbd e5b7 cf3d fc11 ae3d 4a08 cbbd
000002e0: 1632 56bc cb5a a03d c897 073d 1c42 843d
000002f0: c615 a23d 2dc5 833d bb17 383b 7729 363d
00000300: 1596 41bd ffbc 2dbd 8c02 12bd 0dd1 3cbd
00000310: fcd2 bd3d 5e67 4a3d 354d a0bc 559e 64bd
00000320: 3b5e b9bd a451 5f3d 8454 8e3d 95f8 6f3d
00000330: ca88 14bd 2013 4d3d 1a70 6bbd 4f2c 49bd
00000340: 424f 8fbd 9a08 8bbb 180d 55bb 35fa c13c
00000350: 5715 aabc dde1 383d f52e 86bd c1e1 50bd
00000360: 8fe4 853c 4d73 023c cd94 8fbd 8f6b 813d
00000370: 67bb 973d c099 423d 1ef1 853c 5608 bfbd
00000380: 00fd e7bb 2f05 e1bc 4d97 933b dbf9 2bbd
00000390: dbad 823c 158b 853d 657a b0bd 5a04 11bd
000003a0: 740f c2bd 678d a6bc c38f 313d d807 17bd
000003b0: 6dbe a23d 2e9d 4bbd a746 1fbd 8eea 23bd
000003c0: 0a9f a93d 23d1 2bbd 5f85 2dbd b29b 173d
000003d0: 67d7 9abd 7af8 38bd fd40 5f3d 5aa0 453d
000003e0: 10a2 1a3d a7be 31bc 4cc3 a3bb a233 b2bc
000003f0: a558 36bd 194a b7bd 1518 9e3d a716 05bc
-0.0076482785 0.06965178 -0.038458236 -0.014124436 0.10265405 0.03129992 0.10690839 -0.05771176
0.093684524 0.033762068 0.098379724 -0.070377246 -0.07148656 -0.033773433 -0.083327994 -0.010102964
-0.02031148 -0.0037198272 0.07486328 -0.056191735 0.018294932 0.060882386 0.007840176 -0.04037109
-0.00040161205 0.096529596 0.09460682 0.06793504 0.051285617 0.06547542 0.02634404 0.0148741435
-0.06685716 -0.037476063 -0.007649373 -0.06718561 0.029088067 -0.04507589 -0.0426443 -0.09848748
0.03450381 0.0846562 0.0029898947 -0.040260848 0.06989218 0.04661408 -0.054366395 -0.028943317
0.08290031 -0.019235928 0.055617888 -0.0044724313 -0.036601525 0.024371887 -0.04780878 0.014060023
0.09264855 0.011829917 0.045397915 -0.04803659 -0.01644723 -0.079783976 0.029116638 0.02606954
0.09089077 0.06526404 -0.061405845 -0.016235558 -0.018004695 -0.05632031 0.03173088 -0.072554216
-0.08800754 -0.07298108 -0.08702175 0.041407377 0.04740562 0.06567572 0.0259542 -0.032373708
-0.086305775 0.09563263 0.021654604 0.061978348 0.03270731 0.09484477 -0.10558829 -0.011202208
0.10869382 0.067878775 0.031871613 0.060390953 0.03601808 -0.06262256 -0.008354459 0.027034339
-0.052986223 -0.061314337 -0.051971022 0.05539522 0.085451 -0.014617453 -0.018016545 0.112822615
0.050349426 -0.13036506 -0.03317533 -0.04227803 -0.018359268 -0.03353965 0.011465495 0.056980446
-0.033338062 -0.028112294 -0.07631516 0.07430688 0.072480895 0.07867454 0.008889579 -0.028686821
0.105142295 -0.022438858 0.074562736 0.04050161 0.03648812 0.029677844 0.014275713 0.042511296
-0.099179685 -0.04189553 -0.010937373 -0.0359643 0.07547996 0.1057386 -0.0659167 0.059275653
0.019243548 0.047146864 0.10034968 0.056822676 -0.04394836 -0.02245274 -0.01666776 -0.07096235
-0.0994495 0.020666102 -0.102935135 0.038886853 0.08054119 0.06727722 0.096502095 -0.08170762
-0.051581644 0.04974602 0.06947974 0.030441254 0.09510795 -0.024205733 0.05087979 -0.0025516641
-0.008021419 0.07989172 0.10324104 0.07937623 -0.055916663 -0.027716042 -0.08131675 0.040484857
-0.065771 -0.00022393207 0.079123 -0.09439944 0.04029906 0.067306064 0.0018937116 0.09265825
0.0878168 -0.13521327 0.08489447 -0.025746405 -0.09976419 0.10142497 0.08499524 -0.099136904
-0.013073465 0.078298174 0.033103734 0.06457922 0.07914309 0.06434093 0.0028090316 0.044473138
-0.04726227 -0.04241657 -0.03564696 -0.046097804 0.09268758 0.049414985 -0.019568065 -0.05581506
-0.09051176 0.054521218 0.06949714 0.058586676 -0.036263265 0.050067067 -0.057479955 -0.04911452
-0.06997539 -0.0042429687 -0.0032509025 0.023678878 -0.020762129 0.045137275 -0.06551925 -0.050996546
0.016344337 0.00796206 -0.07010803 0.06319343 0.07408791 0.04750991 0.016350325 -0.09327762
-0.0070797205 -0.027468292 0.0045041204 -0.041986328 0.015952041 0.065206684 -0.08617095 -0.03540454
-0.09475604 -0.020331098 0.043349992 -0.036872715 0.07946477 -0.049710445 -0.03888574 -0.04001861
0.082822874 -0.041947495 -0.04236352 0.037013717 -0.07560616 -0.04515884 0.054505337 0.048248626
0.03775221 -0.010848678 -0.0049976464 -0.021753136 -0.04451813 -0.0894968 0.07719437 -0.0081230765
